DRL_Nets6/actor_target_8_600.pth (torch, 5686 bytes, 5 tensors)

fc1.weight f4 [32, 5]
000000 c8 78 a6 3e 25 ed a7 be 9c 52 6a bc b7 26 29 be
       0.32514024 -0.32798114 -0.014301922 -0.16518675
000010 bd 99 57 be 07 bd 5d be a1 9a dc 3e c4 12 c2 be
       -0.2105474 -0.2165414 0.43086722 -0.37904942
000020 8f 67 9b bd fd d9 68 3d 87 e0 52 bd ae ba 94 3e
       -0.075881116 0.056848515 -0.051483657 0.29048675
000030 1c 26 e1 be 2b 1a d5 3e 19 a3 a8 3e fb 56 e8 3e
       -0.43974388 0.41621527 0.32936934 0.4537886
000040 31 00 c9 3d c7 62 d5 bc 9b 55 f9 3e fc 0d d0 3e
       0.0981449 -0.026048077 0.48698124 0.4063567
000050 9f a0 e2 be f6 c5 c3 be 97 64 ad be c8 38 d2 be
       -0.4426317 -0.3823697 -0.33865806 -0.41058946
000060 81 22 02 bc 17 12 e8 3e 3c 25 a0 3e 1d 47 cd 3e
       -0.007942797 0.453263 0.31278408 0.40093318
000070 f0 6e 7e bd bd 5d 9a 3e 28 1f 9b 3e 52 13 88 be
       -0.062117517 0.30149642 0.30297208 -0.2657724
000080 4a a0 08 3f 15 ed 45 be 69 4a 1a 3e e3 33 0f bb
       0.5336958 -0.19328721 0.15067448 -0.0021850995
000090 79 f9 9e be ed 2d a1 be ae ad 89 be d6 5b 96 be
       -0.31049708 -0.3148035 -0.2689032 -0.2936694
0000a0 63 e0 da 3e b1 66 e6 3e d8 d9 70 3e 8c 19 16 bf
       0.42749318 0.45000222 0.23520601 -0.5863273
0000b0 b7 43 8d be 65 cb 99 be f5 c0 00 3e 54 d9 f1 3e
       -0.27590725 -0.3003799 0.12573607 0.4723612
0000c0 94 c6 ad 3c 3f 6e 21 bd 10 64 89 be 62 c7 be 3e
       0.021212853 -0.03941178 -0.26834154 0.37261492
0000d0 1d 37 50 be 21 65 87 3e 16 91 10 3e 31 15 85 be
       -0.20333524 0.26444343 0.14117846 -0.2599273
0000e0 73 34 0a be b8 71 29 be b1 15 e3 3e fb d1 64 be
       -0.1349657 -0.16547287 0.44352487 -0.22345726
0000f0 79 cb e9 3e d5 5f 7e 3e 15 21 92 3e 0b cc 78 be
       0.4566305 0.24841245 0.28540865 -0.24296586
000100 44 a1 f0 3d eb a8 49 be c0 af 0a 3e f8 1c cb 3e
       0.11749509 -0.19693343 0.13543606 0.3967054
000110 2e d1 c4 be 0e a7 dc 3e 37 4e b7 be 75 a4 99 be
       -0.3844084 0.43096203 -0.3580186 -0.30008283
000120 99 b9 48 3e 09 1a c1 be 6c 5c 76 3e d0 94 a6 3b
       0.1960205 -0.37715176 0.24058694 0.005083658
000130 30 2e 2d 3e 41 58 8e 3d 71 f8 e0 3e 0b 7c 80 bc
       0.1691215 0.06950427 0.43939546 -0.015684148
000140 4d b7 53 3e c8 2e b9 3e e6 82 fa 3e f1 f3 96 be
       0.20675392 0.36168504 0.48927993 -0.29482988
000150 f8 e1 77 be 77 72 8a bd 2b 55 c5 3e fb ff 1e 3e
       -0.24207294 -0.06760114 0.3854154 0.15527336
000160 53 d2 01 bf 94 90 b7 be 18 31 fa 3d 28 3a cd 3e
       -0.50711554 -0.35852492 0.12216395 0.40083432
000170 78 c6 9d 3e f7 5a 15 be 23 a7 02 be 19 c2 46 3e
       0.30815482 -0.14585482 -0.1275907 0.1940998
000180 dd 8d 95 3e cc 64 f1 be 76 d1 a7 3d d6 32 8c 3e
       0.29209796 -0.47147214 0.081942484 0.27382535
000190 bd 5a 9d 3d 9a ed 8f 3e 9e c8 80 be 5f 9c 6b 3e
       0.076833226 0.28110963 -0.2515306 0.2300887
0001a0 0d 0c b5 3e 8f 2c ef 3e a7 1e 52 bd 17 a1 4d 3e
       0.35360757 0.46713683 -0.051298764 0.20080982
0001b0 90 86 74 3e 15 7f ae 3e ea 49 f9 3e 8e 2b 24 3e
       0.23879457 0.3408133 0.48689204 0.1603224
0001c0 00 e4 08 be 12 34 ca bd b8 05 62 3e 68 95 97 3e
       -0.13368225 -0.09873213 0.22072494 0.29606175
0001d0 d2 02 b8 3e d0 11 3b be 0a ca 48 3e a9 50 e0 bd
       0.35939652 -0.18268514 0.19608322 -0.10952885
0001e0 18 5b 26 be d6 b7 dd 3e 8f ea ad bd 01 5e 4e be
       -0.16245687 0.43304318 -0.08492004 -0.20153047
0001f0 f3 5f 69 3d 3a b6 37 3e 73 d4 76 3d 90 ed c3 be
       0.05697627 0.17940608 0.0602612 -0.38267183
000200 18 ca d1 3c f4 47 6d be 7e 6a aa 3e dd 57 c5 3d
       0.025609061 -0.23171979 0.33284372 0.09635899
000210 30 ad b3 3e 04 b9 31 3e 4b 84 7c 3e d1 b3 2d be
       0.3509307 0.17355734 0.24659841 -0.16963126
000220 34 f3 ef be 62 2c 9d 3e 5a e6 98 be 5c 76 a8 3e
       -0.46865237 0.30697924 -0.29863244 0.329028
000230 f8 4c b0 be c4 30 c4 3e c8 cb 61 3e 32 4b 53 3e
       -0.34433722 0.38318455 0.22050393 0.20634153
000240 a7 02 e4 3e c4 6e 15 be e0 04 cb 3d 51 75 cc 3e
       0.44533274 -0.14593035 0.09913039 0.39933255
000250 5d 4e 09 3e 1a 7e c6 be 53 88 b8 be 81 ed d5 3e
       0.134088 -0.38768083 -0.36041507 0.41782764
000260 54 4b 86 be e8 a4 0e bd 49 7f a0 be 6c fd 55 3b
       -0.26229346 -0.034825236 -0.3134711 0.0032652272
000270 19 e5 b4 3e 99 d8 d7 be a0 0f de bd 10 94 14 be
       0.35331038 -0.42157438 -0.10842824 -0.14509606

fc1.bias f4 [32]
000000 61 a7 47 3e 52 c9 1d be 19 23 0a be 04 a5 62 3e
       0.19497444 -0.15408829 -0.13489951 0.22133261
000010 15 c2 70 bb b2 d0 4f bd 08 ee a0 be ff 42 7a 3e
       -0.0036736776 -0.050736137 -0.31431603 0.2443962
000020 fd 98 c1 bc 37 39 f6 3e 36 75 ad bd ab f2 3e be
       -0.02363252 0.48090526 -0.08469622 -0.18647258
000030 77 a5 49 be 3c 65 91 be 8b 68 68 3d 7f b4 9a bd
       -0.19692026 -0.28397548 0.056740325 -0.07553958
000040 a4 76 6f be ce be fe 3e b7 66 36 3d 3c 0c 4e 3e
       -0.23385102 0.49754947 0.04453155 0.20121855
000050 ab 68 c9 3e 75 16 46 be 36 bd 1f 3b 4a 3a 2f 3e
       0.39337668 -0.19344504 0.0024374253 0.1711208
000060 02 23 12 3d 8a 8b af bb b9 21 bb 3e bb 79 04 bd
       0.035677917 -0.0053572105 0.36549166 -0.032342654
000070 b3 94 5b be 6f 79 f4 3e d3 71 8c bd 28 a2 ab 3e
       -0.21443443 0.47748896 -0.06857648 0.33522153

fc2.weight f4 [16, 32]
000000 45 b8 28 be b0 07 33 be 97 43 b2 3d b2 2b df bd
       -0.16476543 -0.17483401 0.08704298 -0.10897006
000010 8c 6b 74 bd 50 70 39 be a2 ad f7 bd eb cf d1 bc
       -0.059672877 -0.1810925 -0.12093665 -0.025611838
000020 59 ca c0 bd 13 d3 7f 3a 02 9b 6d 3d 42 c2 67 bd
       -0.09413595 0.00097589305 0.058009155 -0.056581743
000030 e0 3e 4e 3c a9 5e 81 bd 6a 2f cd bd 39 48 d1 3d
       0.012588233 -0.06316883 -0.10018809 0.102188535
000040 0c b6 72 bc 48 1d b5 bc 78 e7 44 3d 48 92 c7 3b
       -0.014813911 -0.022108689 0.04807231 0.006090436
000050 6d 0f 87 bd 3e cf 12 be 2e 6d 20 3a d6 7c 9d bc
       -0.06594739 -0.14336869 0.00061197847 -0.019224565
000060 dc 9c 04 3e 63 b9 f6 3c b9 31 42 bd 05 4a 07 be
       0.12950462 0.030117696 -0.0474107 -0.1321183
000070 30 31 c3 3c c5 85 15 3e 64 8c 0a 3b 6d 45 17 3e
       0.023827165 0.1460181 0.0021140808 0.14772578
000080 4b 53 14 be 25 0e 50 3e f3 13 85 bd ee a3 9e bd
       -0.14484899 0.20317896 -0.06497946 -0.07746111
000090 bc 79 1b 3d 65 b9 02 3e 36 36 25 3c 15 90 08 3e
       0.03795789 0.12766035 0.010083726 0.13336213
0000a0 2a 70 bf 3c c7 2d 77 3e 8d c2 71 3b 9a 52 d5 bc
       0.023368914 0.24138556 0.0036889643 -0.026040364
0000b0 87 56 19 3e 02 3a 17 3e 70 91 b4 3d 3d a6 34 3d
       0.14974414 0.14768222 0.088168025 0.04410385
0000c0 7f 42 66 3e f3 64 93 3d bb af d1 bc 92 71 18 be
       0.22486304 0.07196989 -0.02559649 -0.14887074
0000d0 2a a0 a0 bd b4 e5 9d 3d c7 af 09 be f1 fd 17 3d
       -0.07843049 0.07709828 -0.1344596 0.03710741
0000e0 9f ac 3c 3e 54 86 91 bd e4 08 32 3e d0 4d ab bd
       0.18425225 -0.07105699 0.17386204 -0.08364451
0000f0 56 08 34 3e 94 a0 66 3e de de c1 bd 4e f0 ac bc
       0.17581305 0.22522193 -0.09466337 -0.02111068
000100 1b e4 13 3e 06 8f 58 bd 61 76 64 bd f7 93 bf bd
       0.14442484 -0.052870773 -0.055776957 -0.09354394
000110 9b 91 51 39 e1 10 b1 3d 58 50 82 3d bc 71 22 be
       0.00019986035 0.086457975 0.063629806 -0.15863699
000120 8c d7 fc bd 96 1d eb bd 05 a4 ce 3d 71 87 2d 3e
       -0.123458 -0.114802524 0.10089878 0.16946198
000130 97 03 c9 3d 16 d9 13 be 95 a3 89 bd 02 31 c3 3d
       0.09815138 -0.1443828 -0.06720654 0.09530832
000140 6a d6 e4 bd 59 3b 05 be 25 c3 10 3e d5 3e 1f bd
       -0.11173709 -0.1301092 0.14136942 -0.03887828
000150 82 96 4f 3c e3 0c f2 bd 7c 6d 22 3e 1c e3 15 3e
       0.012670161 -0.11818864 0.15862077 0.14637417
000160 ed 09 36 3d 61 b7 2c 3e 63 38 23 be b1 0b 07 bd
       0.04444306 0.16866829 -0.15939479 -0.032970134
000170 cd 22 5d bd ba 14 e5 3d a5 ac d8 bd 36 e5 c7 3d
       -0.053988267 0.11185594 -0.10579804 0.097605154
000180 d7 0e a7 bd bf 76 57 bd a5 92 1d 3e e9 2f 5a 3c
       -0.08157127 -0.05260348 0.15387972 0.013317087
000190 72 c3 12 3e 74 30 0b 3e d7 ef 27 bc 16 d1 9d bd
       0.14332369 0.13592702 -0.010250053 -0.077058956
0001a0 5c f9 ff bd 5e dd 98 3d 73 70 d5 bd f2 09 13 3c
       -0.124987334 0.074640974 -0.104218386 0.008974539
0001b0 46 c9 10 be a9 e8 20 be d9 d9 cb bd 3f 1c 0a bd
       -0.1413928 -0.15713753 -0.099536605 -0.033718344
0001c0 e2 b5 e8 3d 4e a8 1f be ae 8a 19 be 65 9f 8b bc
       0.113628164 -0.15591547 -0.14994308 -0.017043779
0001d0 04 41 fc bd ab 04 f5 3d fd b7 99 3d ea 91 eb 3b
       -0.12317088 0.11963781 0.07505796 0.007189025
0001e0 a2 08 e7 bd 40 7a b5 bd 38 f2 bd bd 38 0f 4e 3d
       -0.112809435 -0.08861208 -0.09274715 0.050307482
0001f0 e8 86 1c be d1 a6 ed bd ac 55 17 3d 5f cf 3f 3d
       -0.15285838 -0.11604083 0.036946937 0.046828624
000200 84 e3 6f 3d 8b b4 ce bc 3b 7d cc bd b2 07 d1 bd
       0.058566585 -0.025232574 -0.09984823 -0.10206546
000210 04 b5 f1 3d 65 ff 61 bd da 76 24 3e ed 40 ae 3d
       0.11802104 -0.055175204 0.16060963 0.08508477
000220 82 44 65 3e f3 fd 3c 3e 8a db 0f 3d 8c 3c 7c 3d
       0.22389415 0.18456249 0.03512148 0.06158118
000230 42 e4 91 3d 45 93 b4 3e 0c 4b 88 bd d6 a3 2a 3e
       0.07123615 0.35268608 -0.06654939 0.16664061
000240 bf 01 b5 bd 52 24 31 3e a6 39 9c 3d 46 7e ee bd
       -0.08838224 0.17299011 0.07628183 -0.116451785
000250 71 0f e8 bc 04 14 46 3d ef d9 32 3e c3 49 0f 3e
       -0.028327676 0.048358932 0.17465948 0.13992982
000260 aa 53 b0 3d ba 0e 15 bd ff 32 c5 3d cb 6d 25 3e
       0.08609708 -0.036390997 0.09628867 0.16155164
000270 42 e6 91 3c 8e 38 1c bd 3c 70 53 3e e1 2d af bd
       0.01780999 -0.038139872 0.20648283 -0.085536726
000280 85 5e 10 bd cf 13 dc bd 36 38 61 bc 43 d0 25 3e
       -0.03524639 -0.10745966 -0.013746312 0.16192727
000290 2b 44 f4 3d 84 50 5d 3e ea d0 6e 3e 45 df bd 3c
       0.119270645 0.21612746 0.23321882 0.023177752
0002a0 36 e4 01 bd 50 23 b0 bc dd db ca 3d bf 5e e0 bd
       -0.03171178 -0.021501213 0.09905217 -0.109555714
0002b0 fd 8a 24 3d a3 54 0d 3e fb 6c 67 3d b5 9c 1e be
       0.040171612 0.13801818 0.056500416 -0.15489466
0002c0 a6 68 a1 bd bb 54 34 3e 7a a7 10 3e dc c6 ce 3d
       -0.07881288 0.17610447 0.14126387 0.10096523
0002d0 c9 81 d8 3d bf 8a f5 3d 5e 46 61 bd cd 2c e1 bd
       0.105716296 0.11989354 -0.054998748 -0.10994873
0002e0 f1 58 44 3d 71 c4 9a bd 07 d1 f7 3d 58 3b aa bd
       0.047936384 -0.075569995 0.12100416 -0.083121
0002f0 4c d0 42 3e 8d bf 97 3d 1e b3 f8 bd a4 1f ca bd
       0.19024771 0.07409582 -0.12143539 -0.09869316
000300 6d eb 06 3e 54 3a 20 3e dd a9 9a 3d 48 33 8c 3e
       0.13175745 0.1564725 0.0755193 0.27382874
000310 1d e5 ce 3d c8 57 9e bd 0b b9 8c 3c c8 cf 41 bd
       0.10102294 -0.07731587 0.01717808 -0.047317296
000320 8d 96 4a 3c 54 1b 39 3e 51 98 2e bd 6d 9e 28 be
       0.012364996 0.18076831 -0.04262573 -0.16466685
000330 c6 20 ce 3d 47 fc 45 3d 26 cd ac 3d 94 9b 37 3e
       0.10064845 0.048336294 0.084375665 0.17930442
000340 c1 ba 31 bd 99 cb 06 3e e8 5b 96 bb 02 93 5b 3e
       -0.043390993 0.13163604 -0.004588593 0.21442798
000350 98 06 6b 3e 74 c8 94 3d 3d 29 5b 3e 49 fa 86 3d
       0.22951734 0.07264796 0.2140245 0.06590707
000360 a8 a0 a1 bd e1 d7 7c 3d 07 e6 62 3e 79 32 b2 3d
       -0.07891971 0.061729316 0.22158061 0.08701033
000370 92 ea 0b 3d 89 46 5e 3e b9 ff 08 3e c4 08 ae bd
       0.03415925 0.21706595 0.133788 -0.08497766
000380 0f 38 20 be 30 15 b7 bd 54 08 f4 bd 96 94 18 be
       -0.15646385 -0.08939588 -0.11915651 -0.14900431
000390 9e 68 89 3c d6 ca a9 3c 9f 75 2f bd 99 8d 47 bd
       0.016773518 0.020726603 -0.04283678 -0.048719022
0003a0 f8 46 33 bd 1a dc d5 b9 35 a7 0b ba 2e 4a 31 3c
       -0.043768853 -0.00040790514 -0.0005327345 0.0108209085
0003b0 58 a1 4b 3d da 5d d0 bd 3c 1c 02 3c 66 ce 18 be
       0.049714416 -0.10174151 0.007941302 -0.14922485
0003c0 d0 8c c7 3d 4f f8 33 3b 0c ab f8 bd 1a 3f d2 bd
       0.09743655 0.0027461236 -0.121419996 -0.10265942
0003d0 dd c7 81 bd 89 5e d9 3d 36 07 15 bd b9 96 5f 3d
       -0.06336949 0.10613734 -0.03638383 0.0545871
0003e0 bf fd b6 3d b0 75 c2 3d 63 00 67 bd 20 83 4c 3d
       0.08935117 0.09495103 -0.056396853 0.049929738
0003f0 fc 11 8b 3d d1 b7 c4 ba 28 46 b6 bd dc 14 0a 3e
       0.067905396 -0.0015008395 -0.089001 0.1348452

fc2.bias f4 [16]
000000 4d bd 0f be 0b 58 27 3e 54 85 ac 3d b1 e3 d1 3d
       -0.14037056 0.1634218 0.08423868 0.10248507
000010 72 47 01 be ec fb e0 3d 70 89 3b bd b9 2b c3 bd
       -0.1262491 0.1098555 -0.045785367 -0.09529824
000020 98 52 b9 bc f8 0e 5e 3d 5c 28 dd 3d b2 2c 5b bd
       -0.022622392 0.054213494 0.107987136 -0.05350942
000030 bf 70 9d bd b4 f0 05 3d 1d ab e3 3b d3 b0 49 3d
       -0.0768752 0.032700256 0.0069478885 0.0492409

fc3.weight f4 [1, 16]
000000 b8 25 44 3d e2 db 65 be ad 3d 10 3e 18 3b 42 3e
       0.047887534 -0.2244716 0.14086027 0.18967855
000010 ad c8 c1 bd 79 0f fc bd 18 52 84 3e 62 cd 62 3e
       -0.09462104 -0.12307639 0.25843883 0.2214866
000020 e3 27 82 bd dc f5 84 bd 6f 7d 8a 3e 94 1c 0d 3e
       -0.06355264 -0.064922065 0.27048823 0.13780433
000030 ee 8d 7d be 97 4a b5 3d 81 2d 93 be 34 04 8f bd
       -0.24761173 0.088521175 -0.28745654 -0.069832236
