DRL_Nets6/actor_2_600.pth (torch, 5616 bytes, 5 tensors)

fc1.weight f4 [32, 5]
000000 69 a2 e8 3d 91 6f 8c 3d 8f c6 08 3d 80 93 e3 be
       0.11359102 0.06857217 0.033392485 -0.4444847
000010 8e fb 69 bd 3c 75 87 be 77 73 d9 be 81 d7 a1 3e
       -0.057124667 -0.2645663 -0.42470905 0.3160973
000020 3a d5 03 be 34 a2 c5 be 5b f7 17 3e fb 5a 0c 3e
       -0.12874308 -0.38600314 0.14840452 0.13706581
000030 4b 8f 9b be 72 f1 93 be 6e 03 01 3e e9 6a b2 3d
       -0.3038276 -0.28895146 0.12598965 0.08711798
000040 bb 12 08 be 86 ed e0 3e 18 71 75 be 16 ff aa 3d
       -0.13288395 0.43931216 -0.23968923 0.08349435
000050 42 82 9d 3d a5 fb b4 3e 20 47 fd 3d ec 19 5e 3e
       0.0769086 0.3534824 0.12367082 0.21689576
000060 0a 97 91 3e 1b 04 ad 3e db 23 ac bc 08 21 a4 be
       0.28435546 0.33792195 -0.021013191 -0.3205645
000070 8a 22 af be a8 1f 2c 3e 83 3d 2a be 2c bf af 3e
       -0.3420604 0.16808951 -0.16625027 0.3432554
000080 9a 35 f8 3e a4 4b 45 3e 9a 84 96 3e 39 79 8f 3d
       0.48478395 0.19267136 0.29398042 0.07005543
000090 a9 56 6f 3d a7 9f cc bd 4b d0 9a 3e e6 24 d0 be
       0.058432255 -0.09991389 0.3023704 -0.4065315
0000a0 44 26 69 be d1 cf 6e 3d 4e 0c 80 be 69 76 25 3d
       -0.22768503 0.058303658 -0.25009388 0.040396128
0000b0 b8 2d bf 3e 38 bf ac be 61 f5 c9 be c7 30 b2 be
       0.37339568 -0.33739638 -0.39445022 -0.3480284
0000c0 f1 4c 94 be d2 ee 2d 3e 19 2f d3 3e c2 78 78 be
       -0.28964952 0.16985634 0.4124687 -0.24264815
0000d0 05 16 9e 3e 8d 17 a3 3e 41 0a 3f be 79 2b 1d bd
       0.30876175 0.31853905 -0.18656255 -0.038371537
0000e0 fd 37 b2 be 20 56 4c 3d 4d cc 79 3d 50 69 c4 be
       -0.3480834 0.049886823 0.060985852 -0.38361597
0000f0 ae f1 c8 3e 60 b7 bb be 0d 9f 94 be a8 78 61 3e
       0.39246887 -0.36663342 -0.29027596 0.22018683
000100 bc fc 55 bd 44 c3 b2 be 21 01 c3 be 2e 01 d6 3e
       -0.05224298 -0.349146 -0.380868 0.41797775
000110 24 9b e3 bd 38 3b a0 3e db ee c0 3e 93 f5 8e be
       -0.11113575 0.3129518 0.37682232 -0.27921733
000120 83 36 d0 be 9c 16 d5 bd 86 4e fe 3d 40 ee c5 bc
       -0.4066659 -0.10404703 0.12417321 -0.024161458
000130 30 0f 89 bc 53 d3 b4 be 73 6f e3 3e ec 76 c1 3d
       -0.016730875 -0.35317478 0.44420967 0.09446511
000140 0e 37 6d be 75 43 85 3e de ff 02 3f a9 cc 15 3e
       -0.23165533 0.26028028 0.5117167 0.14628853
000150 ff cd ed bb 91 46 af be e5 b5 05 be e0 49 66 3d
       -0.0072572227 -0.34233525 -0.13057669 0.056222796
000160 67 d2 13 3e 50 0b ab be e3 50 97 be 8e 19 bb 3e
       0.14435731 -0.33407068 -0.295539 0.36542934
000170 82 57 cd 3d 25 4b d6 3b 6b 3f 92 3e 26 c0 90 3d
       0.100264564 0.0065397196 0.2856401 0.070678994
000180 92 1b 52 3e a2 ac 9b 3e 0c b7 9c be d8 f4 be 3e
       0.2051833 0.30405146 -0.30608404 0.37296176
000190 fa 04 93 3e f9 8a 28 be 4e 08 11 be 7d a5 15 3e
       0.28714734 -0.16459264 -0.14163324 0.1461391
0001a0 22 67 06 3d a8 ac c9 3d ef a5 9f be d6 e4 e4 3e
       0.0328132 0.09847385 -0.31181285 0.44705838
0001b0 54 72 02 bf f6 08 59 bd c3 cb 6a 3e b3 77 11 be
       -0.509557 -0.05298706 0.22929291 -0.14205818
0001c0 7f 49 bf 3e eb 13 d9 be d5 1d d2 3c af 49 f3 bd
       0.3736076 -0.4239801 0.02564899 -0.118792884
0001d0 3c 42 e7 3e c3 18 f1 3e c4 df 1b 3e 70 50 dd bd
       0.4516772 0.47089204 0.15222079 -0.10806358
0001e0 11 7c 6e 3e 09 f7 f5 3e 0a 55 d3 3e d0 0c 27 be
       0.23289515 0.48040035 0.41275817 -0.16313481
0001f0 62 2d 9c 3e 9b 38 e4 be 94 21 44 be 9e 2a 0d be
       0.30503374 -0.44574437 -0.19153434 -0.13785788
000200 a6 dc 9c bc 47 a5 c9 be 26 c7 88 be e9 e0 ee 3e
       -0.019148182 -0.3938391 -0.26714438 0.46655968
000210 33 57 3b 3e 6f f2 a9 3b 43 01 b5 3e eb 89 82 3e
       0.18294983 0.005186371 0.35352525 0.25495848
000220 38 e7 b2 3e 1b 18 d1 3e 8a 5e 16 be 62 88 da 3d
       0.3494203 0.40838704 -0.14684501 0.10670544
000230 f7 09 0b 3e 91 ef 3f be 02 6f 02 be 28 f0 d9 bc
       0.1357802 -0.18743731 -0.12737659 -0.026603773
000240 fa 80 e3 3e 04 f1 17 be 87 7a ff bd c0 b3 55 bd
       0.4443434 -0.14838034 -0.12474542 -0.052173376
000250 b2 96 3d 3d 03 87 87 be 12 b5 b1 3c 27 74 c5 3d
       0.046286292 -0.26470193 0.021692786 0.09641295
000260 74 36 a5 3e 3f ba a3 be c5 fd 8d 3e 0d 1b 79 3c
       0.32268107 -0.31978032 0.27732673 0.015204203
000270 f6 fd 8b be 0e 57 9b 3e 81 99 cc be 0e cb c3 3e
       -0.27342194 0.30339855 -0.39960864 0.38240856

fc1.bias f4 [32]
000000 1b 56 d9 3d 39 7d c9 3d a9 e7 9c 3e 3a 52 0b bd
       0.106121264 0.098383375 0.30645493 -0.034013964
000010 0e 37 7b be 0f 53 84 3e 81 f2 7b be 74 93 b6 3e
       -0.2453272 0.2584462 -0.24604227 0.35659373
000020 b7 e3 2a 3c dc 55 5b be 51 a8 8a 3e 32 af 8e 3e
       0.010430268 -0.21419472 0.2708154 0.27868038
000030 68 a6 c8 3e b2 8f dd 3e 5d fb 2b 3e 34 5e 4b be
       0.39189458 0.43273693 0.16795106 -0.19860154
000040 77 0c ef bd be 31 14 be 8d c8 a8 3e 65 e1 2c be
       -0.11672299 -0.144721 0.32965508 -0.16882856
000050 77 a6 0b 3e f5 e8 ae 3e a9 ca 4f be 9b 88 8b 3e
       0.1363772 0.34162107 -0.20292152 0.2725266
000060 65 d8 51 3e 53 a7 4c 3e 9d 07 7d be 74 fc 3b 3e
       0.20492704 0.19985704 -0.24709935 0.18358022
000070 13 58 af 3e 43 b6 35 bc 9b 37 36 3e ca ef 95 3e
       0.34246883 -0.011090818 0.1779465 0.29284507

fc2.weight f4 [16, 32]
000000 77 3f bb 3d 4c d1 33 be 89 f5 30 bd c3 99 15 3e
       0.09142964 -0.17560309 -0.04320291 0.14609437
000010 4a 8d 00 3c 0c ab 6b 3d 8c 94 0f bd c3 a0 3e be
       0.007846186 0.05753617 -0.035053775 -0.18616013
000020 01 4d d0 bd 88 17 e8 3c 6c e5 13 be 87 bc 32 3c
       -0.10170937 0.028331533 -0.14442986 0.010909206
000030 80 81 90 3d e3 e3 68 bd 2f 38 a3 bd 15 e0 af 3d
       0.0705595 -0.056857955 -0.079697005 0.08587662
000040 ce 8a 09 3e 6b 8e 1b bd 10 55 c0 3d 74 ff 08 3e
       0.13431856 -0.037977617 0.093912244 0.13378698
000050 1e e8 27 be 2a ff 40 bc 66 8c 50 3e a8 82 b2 3d
       -0.1639714 -0.011779586 0.20366058 0.08716327
000060 4f ba 3d 3e 81 61 21 be ff d5 4a 3e ea f9 e9 3d
       0.18528102 -0.15759851 0.19808196 0.114246204
000070 35 36 88 3d 98 51 e3 3d 1a 9f aa 3e f5 11 95 3e
       0.06650964 0.11099547 0.3332451 0.29115263
000080 47 1b 94 3e 6f 20 9f bd 50 39 31 3c 1b cc 1e 3e
       0.2892706 -0.07769858 0.010816887 0.15507548
000090 9b 69 81 3d 22 a7 02 3e b4 81 7c bd 44 44 b9 bd
       0.06318971 0.12759069 -0.061647132 -0.09046224
0000a0 18 b0 47 3d bd 29 ec bd a2 ff 0d be 88 d8 ce bc
       0.04875192 -0.115313984 -0.13867047 -0.025249735
0000b0 b1 c0 8c bb 7c ae a5 bd 18 00 4a 3d 91 3c f5 bd
       -0.0042954315 -0.08089921 0.049316496 -0.11974443
0000c0 c9 5b aa bd b3 28 af bd 13 3d b3 bd b2 9d 11 3e
       -0.08318288 -0.08552685 -0.08751883 0.14220312
0000d0 f4 f0 08 be 6c 21 9c bd 92 11 34 3e cd 34 6b 3d
       -0.13373166 -0.07623562 0.17584828 0.0574234
0000e0 ae 7f 37 3d 7b f9 ed bd 12 2b 39 3e 96 91 04 3e
       0.0447995 -0.1161985 0.18082836 0.12946162
0000f0 79 0c 21 be 46 0a 2d 3d 59 e1 6b 3e 64 e0 3c 3e
       -0.15727414 0.042246126 0.23035182 0.18444973
000100 0d e2 8f bd 87 d9 0b 3e 27 2c 1f be fc a9 93 bb
       -0.07025538 0.13657199 -0.15544187 -0.0045063477
000110 58 a7 52 be 55 c9 58 be 92 52 3c be b1 e1 0f 3e
       -0.20571649 -0.21170552 -0.18390873 0.14050938
000120 b8 3b 03 3c 28 95 d2 bd 97 0c a6 bd dd 18 ef bd
       0.0080098435 -0.102823555 -0.0810787 -0.11674664
000130 22 38 e4 3d c7 c6 37 bd c4 a2 f3 3c 76 ed 74 bd
       0.11143519 -0.044867303 0.029740699 -0.059796773
000140 57 07 40 3d 79 86 f6 3c 21 fb cb 3d 1f 20 e0 3d
       0.046882 0.030093418 0.099600084 0.109436266
000150 20 a0 96 bd 75 7b e3 3d f3 7f d3 3d c9 26 89 3d
       -0.0735476 0.11107532 0.10327139 0.06696851
000160 89 18 9a 3d ce d2 0a 3e c4 bd cd bc f3 4a 88 3d
       0.07524211 0.13556978 -0.025114901 0.066549204
000170 52 45 69 be a9 f5 f3 bd fd 66 14 be 6c ba 4a bd
       -0.2278035 -0.1191209 -0.14492412 -0.049494192
000180 30 ce 9a 3d 23 30 fb 3d 1e 76 19 3e 21 f1 51 3e
       0.075588584 0.12265041 0.14986464 0.2050214
000190 66 3c d3 3d 60 84 fd 3c 27 d4 1b ba 33 cb d0 bd
       0.103142545 0.03094691 -0.0005944394 -0.10195007
0001a0 f0 b7 f9 3d 1a d8 ed bd a7 bf 10 3d ac b7 a0 3d
       0.121932864 -0.11613484 0.035339024 0.07847533
0001b0 f9 00 bf bd af 5e 0d be 47 f3 fc bd 63 62 82 bd
       -0.093263574 -0.1380565 -0.12351089 -0.06366422
0001c0 7d b2 b7 3d 43 ae 38 bd 73 e5 ab bd f4 4c ac 3d
       0.08969591 -0.045088064 -0.08393373 0.08413115
0001d0 eb 1a ea bd 56 e9 a9 3d b6 c2 1e 3e 82 1f 26 3e
       -0.114309154 0.082964584 0.15503964 0.16222957
0001e0 59 31 09 3d 3c c3 0f 3e 54 72 34 3d 6b 95 da 3d
       0.033494327 0.1403932 0.044054344 0.106730305
0001f0 8e 2d e4 3d 4f a3 89 3d 57 04 01 3e 24 5d 32 bd
       0.11141501 0.06720602 0.12599312 -0.043545857
000200 dd 54 f8 bd 91 f9 39 3d 80 2a 22 3d 72 9e 1c be
       -0.121255614 0.04540402 0.039591312 -0.15294817
000210 2e ad 8d 3d db fd 15 bb 09 1a 1e be 48 b1 04 3e
       0.06917797 -0.0022886905 -0.15439619 0.12958252
000220 1b f4 10 be 92 22 ec 3d 22 82 07 bd b0 65 b1 3d
       -0.14155619 0.11530031 -0.03308309 0.086619735
000230 1b 67 7c bd c1 88 f5 bc 43 dd f3 bd bb fe 33 3d
       -0.061621767 -0.029972436 -0.11907437 0.0439441
000240 c8 ef 27 be dd 23 f0 b9 1d 66 1e be 58 23 9b bd
       -0.16400063 -0.00045803087 -0.1546864 -0.07575101
000250 3f 52 20 3e dd 41 80 3d da cd f5 bd 7e f9 dc bc
       0.15656374 0.062625624 -0.12002154 -0.026974436
000260 d8 2e 91 3c f8 05 bd bb ed 98 2c 3e 59 11 d4 bd
       0.017722532 -0.005768534 0.16855212 -0.10354871
000270 d7 cc 15 be 8d 04 f0 bd ae cf 09 be 52 0a 74 bd
       -0.14628921 -0.11719618 -0.1345813 -0.059580155
000280 73 ac 6b 3e 80 b4 e3 3d 67 ed 76 3d 1d 17 ca 3c
       0.23015003 0.11118412 0.060285 0.024669224
000290 39 36 42 bd e4 18 e3 3d 14 b5 25 3e a4 22 79 bd
       -0.047414992 0.11088732 0.16182357 -0.06082405
0002a0 85 78 90 bd 91 de 45 bd 1e 76 56 bd 49 9b 59 ba
       -0.07054237 -0.04830796 -0.05235874 -0.00083010324
0002b0 59 b8 49 3c 56 5b 49 bc dd dc b2 3d a1 f6 c1 3d
       0.012312018 -0.012289843 0.087335326 0.09470869
0002c0 ff 0d 27 bb e3 96 c6 3d 60 b6 fa 3d 78 3c 2a 3e
       -0.002549052 0.09696748 0.122418165 0.1662463
0002d0 39 fa b2 3d 7b 27 0b 3e 84 58 70 bd 6a d8 2b 3e
       0.087391324 0.1358928 -0.058678165 0.16781774
0002e0 36 36 13 3d 1a 42 19 be 6d ae 8b bc 4b 70 9d 3c
       0.03594037 -0.14966622 -0.017050946 0.019218585
0002f0 d0 e8 70 bd cd 4e 06 3d db 9a c8 3d 4f ee 8b 3e
       -0.058815777 0.032789994 0.09795161 0.27330253
000300 54 e2 fb bd c3 f4 ae bd 39 e5 e6 bd b5 64 0f be
       -0.12299028 -0.08542778 -0.112741895 -0.1400326
000310 1d d3 5c bd c3 2d 17 3d 74 08 59 bd 5d e8 08 3e
       -0.05391227 0.036908876 -0.052986577 0.1336989
000320 8b b6 00 3e 36 3b bb bd 2b 87 ec 3d c0 f6 a8 3d
       0.12569635 -0.09142153 0.11549219 0.08250189
000330 7e a1 9b 3d 97 c1 89 3d 70 f7 23 3e a9 a0 2d 3e
       0.075991616 0.067263775 0.16012359 0.16955818
000340 96 d4 b8 bd 16 df 58 bd 1d 9d 07 3e 4d 88 12 3e
       -0.090249225 -0.052947126 0.13243528 0.14309807
000350 e5 b3 1f bd f0 22 0c be fe cb fa 3c f2 46 dd 3d
       -0.03898992 -0.13685203 0.03061485 0.10804547
000360 84 b9 23 be f5 cb ac bd e9 b0 58 3d d0 09 c8 3d
       -0.15988737 -0.08437339 0.05290309 0.097674966
000370 95 43 8b 3d 59 5f 5f 3d cf 4a 91 be 12 55 46 be
       0.067999996 0.05453429 -0.28377387 -0.19368389
000380 1c 67 f1 bd d7 61 4f 3d 71 39 59 bc 80 2b 99 3c
       -0.11787245 0.050630417 -0.013258324 0.0186975
000390 c2 2a 78 bd ff 37 6b bd bf 8a e8 3c 2a 0e a8 bd
       -0.060587652 -0.05742645 0.028386472 -0.082058266
0003a0 13 69 2c be 2d 1e 2e 3e 27 2b e8 bd 98 59 19 be
       -0.16836958 0.17003699 -0.11336356 -0.14975584
0003b0 ae 76 92 3d 71 79 e8 bd fa ff d4 bd 85 3b 2c be
       0.071515426 -0.11351288 -0.10400386 -0.1681958
0003c0 b6 27 07 3e a6 d4 d1 bc 86 29 da 3d 87 1b 08 be
       0.13198742 -0.025614094 0.10652451 -0.13291751
0003d0 d3 77 a6 bd f9 24 d8 3d 3c 40 1a be d9 7d dc bd
       -0.081283234 0.10553927 -0.15063566 -0.10766191
0003e0 6a d2 4d bd 4b 76 a7 3b b0 1e b4 3d 5a 83 38 bd
       -0.050249495 0.005110537 0.08794916 -0.04504714
0003f0 70 f9 4d 3d 2c bc 9f 3d 37 32 c8 3b 61 9e 1b 3e
       0.05028671 0.07799563 0.0061095017 0.15197136

fc2.bias f4 [16]
000000 46 d5 0a be af 7c ca 3d 39 3b 0e be 3a 6d 2f 3e
       -0.1355792 0.09887063 -0.13889779 0.1713151
000010 94 d2 ae 3d b8 ea a1 3d 9c 70 9e 3d 21 9b ab 3d
       0.08536258 0.07906097 0.07736322 0.08379198
000020 b6 23 ec 3d a8 97 3b bd 77 44 29 3e de 55 15 be
       0.11530249 -0.045798928 0.16530024 -0.14583537
000030 b0 20 18 3d 93 f6 18 bd 10 ec 45 3d 68 5e 5b 3d
       0.03714055 -0.037344526 0.04832083 0.05355683

fc3.weight f4 [1, 16]
000000 67 19 9b be 87 6b 18 be 23 4f f4 3d db d6 65 be
       -0.30292818 -0.14884768 0.11929157 -0.22445242
000010 5d d3 b1 bd ed 7b 90 be 04 b7 62 3e a6 1d 4a 3e
       -0.086828925 -0.28219548 0.22140127 0.19737872
000020 25 26 65 3e e6 21 01 3e bd 9b d5 3d 0c 96 1b 3e
       0.22377832 0.12610587 0.10430095 0.15193957
000030 df 0e 82 3e 26 79 57 be 29 cf 0b be ea 92 9f 3e
       0.2540197 -0.21042308 -0.13653244 0.31166774
