DRL_Nets6/actor_target_1_700.pth (torch, 5686 bytes, 5 tensors)

fc1.weight f4 [32, 5]
000000 a5 4e 4d 3e 9e 43 0c be b4 a1 02 3e aa bb 82 3d
       0.20049532 -0.13697669 0.12756997 0.0638345
000010 9c 63 8d 3d b1 7d aa 3e 79 f8 25 3d ab 9f f6 3c
       0.069037646 0.3329902 0.040520165 0.030105432
000020 f3 b8 d1 3d 92 60 9d 3e 57 39 be 3e c5 f2 58 be
       0.102403544 0.3073774 0.37153122 -0.21186359
000030 37 86 91 3d 37 4b 14 3f b2 79 46 be 98 50 9b be
       0.071056776 0.5792727 -0.1938236 -0.30334926
000040 ba 00 5f bd 17 ed d5 be 11 08 5a 3e e5 3e 19 38
       -0.054444052 -0.41782448 0.2129214 3.6536618e-05
000050 e0 d5 6d 3d a6 75 94 3e e5 55 aa bd c1 14 b4 be
       0.058065295 0.2899601 -0.08317164 -0.35172084
000060 d4 f4 c1 3e 2c 0b d3 3e 76 c0 6f be 78 a2 9b bd
       0.37882102 0.4121946 -0.23413262 -0.07599348
000070 c5 62 7e 3b 6b c7 a8 be b6 13 42 bd 4f fc f4 3d
       0.0038816195 -0.32964644 -0.04738208 0.119621865
000080 1a ec 09 be 48 d3 83 3e fd bd 08 3d 27 82 e9 3d
       -0.13468972 0.25747132 0.033384312 0.11401778
000090 7c 1c 2a bd 60 75 85 3e a8 b8 bd bd 2c 8a cb 3e
       -0.04153107 0.26066113 -0.09263736 0.39753854
0000a0 d4 1f 69 be a4 fb 2c 3e c5 f6 6c be dd 66 c6 3d
       -0.22766048 0.16892868 -0.2314101 0.09687588
0000b0 ab 54 ce 3e fe 99 dc bd 21 d4 b3 3e dd 3a f0 3e
       0.40298972 -0.10771559 0.3512278 0.4691991
0000c0 6c ed 79 bc a7 89 d0 bd 6a 18 6c bd 7f 04 08 3c
       -0.01525436 -0.10182505 -0.05764047 0.008301853
0000d0 d2 1f af bd 31 d3 96 3c a1 f1 e1 bd ae 0b ae be
       -0.08550991 0.01841125 -0.11032415 -0.33993286
0000e0 0f 8f 5f 3e b6 fa 1b bc 84 26 d7 bc ef 8b 17 3e
       0.21831916 -0.009520223 -0.026263483 0.14799474
0000f0 66 92 c1 3d 5d c6 9a 3e 6b af af 3e 40 27 4b 3e
       0.094517514 0.30229464 0.3431352 0.19839191
000100 f9 22 f1 bd d6 30 cc 3d 25 ed 59 bd 33 5b 83 3e
       -0.11774249 0.09970252 -0.053204674 0.25655517
000110 df 74 16 3f f0 89 c3 bd ad f4 97 be 27 20 9e 3d
       0.5877208 -0.09547794 -0.2967886 0.07720976
000120 24 31 09 be f6 fe e4 3e 62 b3 14 3d 0b ea c2 b9
       -0.13397652 0.4472577 0.036303885 -0.0003717694
000130 3a b6 d2 3e 51 43 e4 3e db d6 02 3e 6d 74 ce 3e
       0.41154653 0.44582608 0.12777273 0.403232
000140 18 9a 97 3e 31 87 8e be 1e 3a 3b 3e 5c 97 85 3d
       0.29609752 -0.27837518 0.18283889 0.0652301
000150 20 39 5f be 45 6d e6 3e 84 db f1 3e 9a 44 02 3e
       -0.21799135 0.4500524 0.4723779 0.12721482
000160 e2 2e fa bd 96 14 8e 3d d7 4d 52 3e 09 10 aa 3b
       -0.122159734 0.0693752 0.20537506 0.0051899
000170 0b 62 e2 3e e9 dc b4 be b2 db df bd 09 d9 90 3d
       0.44215426 -0.3532479 -0.109305754 0.07072646
000180 a7 ba 9e 3a ee 83 e0 3e 53 20 b2 bd e1 50 08 3e
       0.001211007 0.43850654 -0.086975716 0.13312103
000190 b0 66 17 be 6d 36 b7 be 6f 56 c8 3e 2c 53 a7 3e
       -0.14785266 -0.3578371 0.39128444 0.32680643
0001a0 cc 01 8e bd 10 f7 c9 bc 43 fa ce 3e f3 ef a4 3d
       -0.069339365 -0.024653941 0.4042531 0.08053579
0001b0 5d d7 f8 3e b4 d0 9f be 84 1a 94 be 5a ae d7 be
       0.4860181 -0.31213915 -0.2892648 -0.42125207
0001c0 0a 6e d4 be 8e ee 2c 3e da b1 56 be 2f f7 f1 3d
       -0.41490203 0.16887876 -0.20966282 0.11814725
0001d0 94 1c 18 bd 1e d6 f5 3e 00 32 13 bf 5c 48 3f 3e
       -0.03713663 0.4801492 -0.5749817 0.18679947
0001e0 53 e7 dc 3e cc 5d e0 3e fb 93 73 3e 94 f3 f2 bc
       0.43145236 0.4382156 0.23786919 -0.029657163
0001f0 7c c4 94 be 23 df 65 3e a2 ca bd 3e d1 08 9c be
       -0.29056156 0.22448401 0.3706866 -0.30475476
000200 a6 98 8c be 6f 7a 11 3d 48 e6 4d 3e 59 32 0b be
       -0.27460212 0.035517152 0.20107377 -0.13593425
000210 aa 06 14 be 3a 74 e3 3e 99 6f 0f 3f 97 ae b1 be
       -0.14455667 0.4442461 0.5602966 -0.34703514
000220 eb 3a c1 3e 92 af d8 bd fd 72 47 3e df dd 1d be
       0.37740263 -0.105803624 0.19477458 -0.15416668
000230 5c 96 be be 54 a0 97 be 15 ad 8b 3e ab 38 8b be
       -0.3722409 -0.29614508 0.2728049 -0.27191672
000240 2f 12 7e be 4d bf ab 3e 97 11 da be 47 15 d4 bd
       -0.24811624 0.33544388 -0.42591545 -0.10355621
000250 2a 7d 05 bf 84 22 22 be 8c ae 8e 3e 0d 1a 7b 3d
       -0.5214411 -0.15833479 0.27867544 0.06130414
000260 8b 32 2d 3d 3d 28 0c bf 83 f1 af 3e 0c de 14 be
       0.04228453 -0.547489 0.34363946 -0.14537829
000270 26 b0 a6 3e d0 31 92 3e 77 58 72 3e a4 48 9b be
       0.32556266 0.2855363 0.23666559 -0.30328858

fc1.bias f4 [32]
000000 1a d2 da 3e 75 27 f2 3e 72 61 18 3e c8 d4 3e be
       0.4273842 0.47295728 0.14880922 -0.18635857
000010 64 8d 14 be 0f 67 90 be 6f 3f 17 be 8d ee e2 3e
       -0.14507061 -0.28203627 -0.14770292 0.44322625
000020 57 7c 4e be f7 bc 3b bd 70 a4 c7 bd bf ac 62 3d
       -0.2016462 -0.045834508 -0.09748161 0.055340525
000030 9e a9 f9 3d f7 ee 31 be db 07 b6 bd bf 2f cb be
       0.12190555 -0.17376314 -0.08888217 -0.39684865
000040 58 92 d6 3e 86 cf df 3d 1b 5f ef 3e 4d fe 8b 3e
       0.41908526 0.10928254 0.46752247 0.27342454
000050 1d d8 46 3e e8 cd de 3e ac 99 97 bd 20 e3 08 3f
       0.19418378 0.4351647 -0.074023575 0.53471565
000060 f2 47 4d 3e 90 f8 41 3e fd c9 ee 3d 79 fe bd 3e
       0.20046976 0.18942475 0.1165962 0.3710821
000070 e9 39 87 bc 08 42 ac 3e fe b4 5b 3d 02 6b b1 be
       -0.016507106 0.33644128 0.053639404 -0.34651953

fc2.weight f4 [16, 32]
000000 9b 04 97 bd 8c a1 0e be 2a 42 7b 3e 89 2b d5 3d
       -0.07373925 -0.13928813 0.24536958 0.10408694
000010 a2 70 7d 3b ea 84 fd bd 1f cb 50 bb a8 f7 80 3b
       0.003867187 -0.12378867 -0.003185935 0.003935773
000020 4e e6 05 3e 4d 4b fb 3d e4 5e c5 3c 96 d2 28 bc
       0.13076136 0.12270222 0.024093099 -0.010304114
000030 b5 ff eb 3d 51 64 71 bb 62 c5 39 3e c7 e6 2c 3d
       0.115233816 -0.0036833475 0.18141702 0.042212274
000040 70 6b e4 bc a1 e8 71 3d fd 26 03 3e 93 75 17 be
       -0.027883261 0.059059743 0.12807842 -0.14790945
000050 40 e9 9d 3c 14 c2 1d bd 6e b4 de bb 5b a4 ab 3c
       0.019276261 -0.038515165 -0.0067964112 0.020952394
000060 63 13 36 bd 79 60 b4 ba 82 6d f9 3d b6 d7 a1 3d
       -0.044452082 -0.0013761661 0.1217909 0.07902472
000070 ac d6 0d 3e 7a 47 08 3e 13 c9 38 be ff c2 c1 bd
       0.13851422 0.13308516 -0.18045454 -0.09461021
000080 74 de 97 bc 50 09 40 3d 1f 99 af bd b9 4a c2 bc
       -0.018538691 0.04688388 -0.085741274 -0.023717271
000090 dc 35 2b 3e f2 45 d3 3d 34 9f 58 3d 65 fb 3e bc
       0.16719764 0.103160754 0.052886203 -0.011656617
0000a0 5b 53 b4 3d b4 68 81 3d 2f 29 d1 bd a4 39 bb bd
       0.08804961 0.06318799 -0.10212933 -0.091418535
0000b0 42 c3 ee bd 92 0b ac 3d a2 54 ce bd ce 25 1b be
       -0.11658336 0.08400644 -0.10074736 -0.1515114
0000c0 92 1b 4b 3d de ee 31 be 39 d9 1c be 23 b8 24 3c
       0.04958684 -0.17376277 -0.15317239 0.010053667
0000d0 83 66 09 be d5 32 be 3d 11 b8 f9 3d d9 9a a8 3d
       -0.13418011 0.09287039 0.12193311 0.0823266
0000e0 8f 7d ac bd a9 7d 60 bd 38 b9 8f 3d ec 7d d8 3c
       -0.08422386 -0.05480734 0.070177495 0.026427232
0000f0 83 45 00 be 8c 16 ff 3b bb 35 fc 3d b6 b4 39 bd
       -0.12526517 0.00778467 0.12314936 -0.045338355
000100 d4 76 29 bd c0 7e 68 bd a0 39 00 be 80 5a 33 3c
       -0.04137309 -0.056761503 -0.12521982 0.01094687
000110 97 04 88 3d c3 3e 06 bd 9c 69 ff 3a 2d 76 6d 3e
       0.066415004 -0.032774698 0.001948643 0.23189612
000120 2e 85 28 3e 7e 5c 5a 3e c3 23 1a 3d 5e 48 c9 bd
       0.16457054 0.21324345 0.03763176 -0.09828256
000130 30 45 9f 3c f0 ef 8a be d9 1a 47 be 43 a7 da 3d
       0.01944217 -0.27136183 -0.19443835 0.10676434
000140 28 1c 44 bd c5 6b bc 3d 24 db 7b 3e 35 1e 7d 3e
       -0.047878414 0.09200243 0.24595314 0.24718554
000150 fd 86 6c 3d 75 9f 0d 3d f5 85 83 3d 4f ed 2b 3b
       0.057745922 0.0345759 0.06422035 0.0026233976
000160 a7 57 92 bd 0a e3 3a 3e d4 d2 59 be ff 07 dc bd
       -0.071456246 0.18250671 -0.21271831 -0.10743713
000170 01 72 a7 bc 03 b7 cc bd 5d 1f c8 3d 2d 68 9b 3c
       -0.020440103 -0.09995844 0.09771607 0.018970573
000180 b9 5e aa bd d8 e2 3a bb 60 b9 1b 3d b6 ab 34 3e
       -0.08318848 -0.0028516557 0.038018584 0.17643628
000190 cc ec 2f be 0e be f0 bc 73 74 29 3e 85 ef ca bd
       -0.17180175 -0.0293875 0.16548328 -0.09908966
0001a0 ec 9b 34 3e 7c 08 10 be 0c 69 42 bd 85 e6 17 bd
       0.17637604 -0.14065737 -0.04746346 -0.037085075
0001b0 0e a2 c7 bd 5d 0e 14 3e d6 82 5b bb 65 18 4e bd
       -0.09747706 0.14458604 -0.0033494732 -0.050316233
0001c0 04 3f 5c bd d2 49 c5 bd 09 d5 85 bd 6f 4a a2 bd
       -0.053771034 -0.09633221 -0.06534774 -0.07924353
0001d0 d6 53 f8 bd 21 ab 6a bd 9d 7e e4 3c 45 62 bf 3d
       -0.121253654 -0.057292107 0.027892405 0.09344915
0001e0 b8 10 c1 bd 50 bd 85 3d ab bb 9e 3d 39 65 1a 3e
       -0.09427017 0.06530249 0.077506386 0.15077676
0001f0 65 a5 02 3e 28 bc c6 3b d8 78 a1 bc cc 45 00 3e
       0.12758406 0.0060649104 -0.019710943 0.12526625
000200 ba d0 c6 3d f3 04 93 bc 8e 37 c5 bd ef 74 12 be
       0.0970778 -0.017946696 -0.09629737 -0.14302419
000210 02 0c 0e be b7 36 1b bc bd 0c 4c bd c3 dd b6 3d
       -0.13871768 -0.009473494 -0.049816836 0.089290164
000220 9c 9a 85 bd 88 26 e0 bd 02 43 07 3e 9e 47 8d 3d
       -0.0652363 -0.10944849 0.13209155 0.068984255
000230 4a c7 00 be c5 01 0e be 91 7f 25 3e 0b 94 e7 3d
       -0.12576023 -0.13867863 0.16161944 0.11307534
000240 ea ed 21 be da 17 87 bd 98 87 23 bd 84 ad ab 3a
       -0.15813413 -0.06596346 -0.039924234 0.0013097976
000250 48 68 12 bd de f8 6a bb 93 fc 23 3c 32 2f 83 bc
       -0.03574398 -0.0035853903 0.010008949 -0.016013715
000260 35 fd ba bd 1a 61 a7 bd e1 aa 1a be e9 30 21 3e
       -0.09130327 -0.081728175 -0.15104248 0.15741314
000270 25 53 19 bc 8b 1e 11 3e 33 73 12 3e ab 53 d5 3c
       -0.009358202 0.14171807 0.14301758 0.026040873
000280 08 42 32 be 6f b9 a5 bd d8 fa db 3d bc 45 f9 bd
       -0.17408001 -0.08092009 0.10741204 -0.12171504
000290 34 95 8e 3d 53 72 f3 3d 95 be 91 3d 10 f5 bf bd
       0.06962052 0.1188704 0.07116429 -0.09372914
0002a0 c9 af c0 bd 87 78 ab bd 19 52 2f 3e a9 56 df 3d
       -0.09408528 -0.08372598 0.17121162 0.10905201
0002b0 b0 64 49 3c a8 9c 32 be 0a 9b ea 3c 82 8b e1 3d
       0.012292072 -0.17442572 0.028638382 0.11012937
0002c0 9d e8 8b bd 69 74 59 3d 3c af 0f 3e a8 86 3e be
       -0.06831477 0.053089533 0.1403169 -0.18606055
0002d0 93 50 33 3e 47 41 2f be 39 84 20 be 7f 75 bb 3d
       0.17511205 -0.17114745 -0.15675439 0.0915327
0002e0 87 a3 28 be 5b 02 f2 3d d1 e6 00 be 99 00 52 3c
       -0.1646863 0.118168555 -0.1258805 0.012817525
0002f0 02 3a 02 be b6 65 18 be b3 db 63 bd 9a 5f 70 3d
       -0.1271744 -0.1488255 -0.055629443 0.058684923
000300 20 26 8d 3d 13 0c 6d 3e 1a 81 07 3e 5a c0 e3 3d
       0.068920374 0.23149137 0.13232842 0.111206725
000310 23 19 f9 3d 02 d5 23 3e ee 30 3c 3e fb b8 43 bc
       0.121629976 0.15999225 0.1837804 -0.011945958
000320 6c 6e bb 3d 47 5a cf 3d 3a 33 b4 bd b0 98 11 3d
       0.09151921 0.10124641 -0.08798833 0.035546005
000330 b8 77 2a bd c4 cc f0 3d b8 dc 3a 3d d0 e5 17 be
       -0.04161808 0.11757806 0.04562065 -0.1483376
000340 e0 32 41 3e 54 08 00 3b b3 27 ee 3c ce 91 be bd
       0.18867064 0.0019536214 0.029071664 -0.09305154
000350 30 2c 0a 3e 04 e9 0f 3e cf 87 9c bd 54 f8 c9 bd
       0.13493419 0.14053732 -0.07643091 -0.09861818
000360 e7 ae 24 3e 52 02 f5 3c b1 2c ac 3e be c5 0f 3e
       0.16082345 0.029908333 0.33627847 0.14040276
000370 0e de 0c 3e ad da a4 bd 00 0f 23 be 4a 8b 11 be
       0.13756582 -0.080495216 -0.15923691 -0.14213291
000380 49 0b b6 bd c5 a3 2e be 09 68 cc 3d 88 0a b5 3d
       -0.08888871 -0.1705466 0.09980781 0.08839899
000390 15 b3 2f be fa ce 10 be 94 8d 1d be 0b 1e 6a bd
       -0.17158158 -0.14141455 -0.15386039 -0.057157557
0003a0 13 4b 5d bd 01 02 b2 bd f1 5e 00 be de dd 19 bd
       -0.054026674 -0.086917885 -0.12536217 -0.037565105
0003b0 f1 5c c3 bd d4 58 15 be 8c 53 46 3d 8d 6d 33 3e
       -0.095392115 -0.14584666 0.04841952 0.17522259
0003c0 45 c4 67 3c 3d 40 f8 bd 35 2a 8b 3d 73 ee 07 bd
       0.014145915 -0.121216275 0.0679516 -0.033186387
0003d0 8d 67 08 3e 15 97 45 bd 55 0c bd 3c b2 31 25 be
       0.13320751 -0.048239786 0.02307717 -0.16132239
0003e0 ff 76 a8 bd 9f 9b 18 be 68 7a f6 bd e0 fc bf ba
       -0.08225822 -0.14903115 -0.12035066 -0.0014647506
0003f0 b2 e1 b8 bd 55 0a 25 3e f3 54 ee 3c 29 b5 33 3c
       -0.09027423 0.16117223 0.029093241 0.010968485

fc2.bias f4 [16]
000000 00 d4 a4 bd bd 28 08 3e 31 f8 8b 3d 96 ee 82 3c
       -0.08048248 0.1329679 0.06834448 0.015982907
000010 62 4e 56 3c 96 e1 a0 3d 3d 73 d4 3c 4b 9f 75 3d
       0.013080211 0.07855527 0.025933856 0.059966367
000020 4e 10 6a 3d ff 89 1f 3e 32 98 8d bd 84 43 8c bd
       0.057144456 0.15579985 -0.069137946 -0.06848815
000030 f3 27 e9 bd b3 73 2b 3e e5 03 0c bb 07 6c 0a 3e
       -0.11384573 0.16743354 -0.0021364626 0.13517772

fc3.weight f4 [1, 16]
000000 d4 6f ab 3d c8 d7 12 be 21 31 78 be 30 dc 07 be
       0.08370939 -0.14340127 -0.24237491 -0.13267589
000010 e8 5a 71 3d eb 61 73 3e 11 40 97 3e f8 94 ab 3d
       0.058924586 0.23767821 0.29541066 0.08378023
000020 d7 f8 8d be 1a b9 50 3e fe b4 84 3e 82 8d 7b be
       -0.27728912 0.2038311 0.25919336 -0.245657
000030 3d bd 15 3e 51 26 e1 bd 12 2e 3f be 04 d5 3a be
       0.1462297 -0.109936364 -0.18669918 -0.18245322
