DRL_Nets6/actor_target_3_37.pth (torch, 5676 bytes, 5 tensors)

fc1.weight f4 [32, 5]
000000 bd 5d ba 3e 82 c6 9e 3e 53 69 20 bc b1 39 dd be
       0.36399642 0.31010824 -0.009790736 -0.43208078
000010 f0 b3 05 be 55 6b ab 3d 73 08 df bb 02 3d db bd
       -0.13056922 0.08370081 -0.006806427 -0.10704996
000020 13 0a 03 be 47 91 a7 3e 60 b4 95 be 2e 38 4d be
       -0.12796812 0.32728025 -0.29239178 -0.20040962
000030 4d d3 68 3e 58 02 16 bd af 63 d7 be 9f df 3c 3e
       0.22736855 -0.03662333 -0.4206824 0.1844468
000040 fb e6 23 3d 07 12 d8 3e 78 c5 a8 be d1 32 d2 3b
       0.040015202 0.42201254 -0.32963157 0.006414749
000050 d2 b5 a0 3d 68 f2 ae 3c cd fb a6 be 23 29 e4 be
       0.078471795 0.021355823 -0.32613984 -0.44562635
000060 16 91 80 bd 73 3f 82 3b 4f ed c1 be ed fa 87 3e
       -0.06277673 0.003974849 -0.37876365 0.2655863
000070 8d 4b dd 3e 6b 09 27 3c c2 97 99 3e 29 1a bd bd
       0.43221703 0.0101951165 0.29998595 -0.09233505
000080 31 30 5f 3e 8a a8 b2 bd 40 b7 be 3e 99 0c 5e 3e
       0.21795727 -0.087235525 0.37249184 0.21684493
000090 8a e1 86 3e 00 a4 04 3e 09 94 40 3e b8 9f bb 3d
       0.26343948 0.12953186 0.18806471 0.09161323
0000a0 e5 3a 82 be 56 5f cd 3e 53 21 3b 3d 8e ee c2 3d
       -0.25435558 0.40111798 0.045686077 0.09518157
0000b0 5f 23 61 3d 88 25 62 3e 77 af db 3d 8d 6b 99 3e
       0.054965373 0.2208463 0.10726827 0.29964867
0000c0 9a ad 80 3e d4 68 b6 3e a8 bf 04 be fe ae b6 3e
       0.25132447 0.35626853 -0.12963736 0.35680383
0000d0 51 c8 5e be 70 d8 35 3e 9e b9 17 3e e9 53 0b bd
       -0.21756102 0.17758346 0.14816901 -0.03401557
0000e0 77 a5 df be 54 14 ad bd e6 e5 1b be c9 c2 53 3c
       -0.43680927 -0.08451143 -0.15224418 0.012924858
0000f0 22 52 d0 be 57 68 4e be a4 1a 0c bd 8a a6 9e be
       -0.40687662 -0.2015699 -0.034205094 -0.30986434
000100 b9 dc 63 3e e8 90 b5 3e 2c 65 cd 3c a4 79 1e be
       0.22252168 0.35462117 0.025072657 -0.1547609
000110 04 95 16 be 27 c7 8c 3e dd de b7 3e 3e 5e d2 be
       -0.14705282 0.2749569 0.3591222 -0.41087526
000120 8a 30 0a 3e 50 85 8e be 1d f9 ad be 2f 90 9d be
       0.13495079 -0.27836084 -0.3397912 -0.30774066
000130 98 91 63 be 86 4e c0 be f7 6c c2 be 6c a9 80 3e
       -0.22223508 -0.3755991 -0.3797376 0.2512926
000140 f6 5b 2a be 1b c9 22 bd 64 83 1a 3e 78 c5 40 3e
       -0.16636643 -0.03974257 0.15089184 0.18825328
000150 8a a3 b7 3e 4f 5f 91 3e c7 94 3f 3c bf a0 e4 3e
       0.35866958 0.28393027 0.011693186 0.4465389
000160 8c 6f 53 3d d6 c7 31 be 20 6d a4 be f0 4c 1b be
       0.05162005 -0.17361388 -0.32114506 -0.15166068
000170 fb 18 85 bc fe 99 7f be d5 49 c7 be ae 0d 9d 3e
       -0.016247263 -0.24961087 -0.38923517 0.306745
000180 46 ec 51 bc 32 dc 73 be ec 78 fa 3c ba 8e e5 3e
       -0.01281268 -0.23814467 0.030575238 0.44835454
000190 7e cf 9b 3e e4 f3 95 bc 38 d7 85 be df 1b 9a 3e
       0.3043174 -0.018304773 -0.2614076 0.3009939
0001a0 05 b6 19 be 91 ee e1 be 73 f2 13 be 8f ba 46 be
       -0.15010841 -0.44127324 -0.14447956 -0.19407104
0001b0 f5 d8 21 be dd 49 7d 3e 21 45 e1 be 5d 47 d8 be
       -0.15805419 0.24735208 -0.43998054 -0.42241946
0001c0 47 eb d3 3e b6 45 a5 3e f1 19 4f 3e 0d fe dc be
       0.4139044 0.32279748 0.2022474 -0.43162575
0001d0 e0 3d be 3e c2 93 ca 3e 9c 84 8e 3e 65 cf 36 be
       0.37156582 0.39565855 0.27835548 -0.17852552
0001e0 cd c7 31 be 8f c1 a2 3e 89 15 79 be 4e 5d a0 3c
       -0.17361374 0.31788298 -0.24324621 0.019575741
0001f0 5c 75 70 3d 02 97 b5 3e 8e 4e 3c bd a1 ad a2 be
       0.058705673 0.35466772 -0.045973353 -0.31773093
000200 f6 80 8f bd 3e a0 e3 3e 7c 20 53 3d 76 f2 ec 3b
       -0.07007019 0.44458193 0.05154465 0.007231052
000210 a8 b1 91 bc f4 48 99 3d e5 ea c6 be d9 2d 12 bd
       -0.017784908 0.07484618 -0.38851085 -0.035688255
000220 88 b6 d0 be 2c f3 be 3e 9e 02 d4 3d 97 93 5f be
       -0.4076426 0.372949 0.10352062 -0.21833645
000230 d3 9c 6e be d0 84 58 be 9a 5f 9e bc 3a 6b 78 3d
       -0.23302011 -0.21144414 -0.019332696 0.060649134
000240 2f 62 a0 be 88 0d c3 3e 17 3a c0 be 36 1c 96 3d
       -0.31324908 0.3809626 -0.3754432 0.073295996
000250 09 a9 c5 3e 29 cc 34 be a3 f4 46 be 93 e0 a9 3e
       0.38605526 -0.17656006 -0.19429259 0.3317915
000260 08 77 b1 3e da 74 a3 3d c6 10 58 3d 04 5b 85 3e
       0.34661126 0.07981272 0.05275037 0.26046002
000270 01 2b 98 bd be c2 be be 24 d2 30 bd 55 c3 d6 be
       -0.07430077 -0.37257951 -0.043169156 -0.41945902

fc1.bias f4 [32]
000000 98 27 4c 3e e4 a4 15 be d3 54 c6 be 51 f3 b5 3e
       0.19936979 -0.14613682 -0.3873659 0.35537198
000010 fe c2 8d 3e db 0c e0 3e 4d b8 db 3b 29 fa dc 3e
       0.2768783 0.43759808 0.00670532 0.43159607
000020 ef df c4 be b1 6e 07 3d 84 1d 6d 3e 64 ee a6 3e
       -0.38452098 0.033064548 0.2315579 0.32603753
000030 0e 89 6b 3e 69 dc df 3e 73 f5 c8 3d cc 17 db bd
       0.23001501 0.43722847 0.09812441 -0.10697898
000040 8e 6a e0 3d be cd e0 3e ff 06 92 be 7b a8 d3 3d
       0.10957824 0.4390697 -0.28520963 0.103348695
000050 4e 3d a6 3d fc bc f9 bc a3 70 8a 3e 0b 6d c1 be
       0.08117162 -0.030485623 0.2703906 -0.37778506
000060 79 24 fb bb b5 7b 45 be 95 2f 79 3e 7d fe 40 be
       -0.00766426 -0.19285472 0.24334557 -0.1884708
000070 58 c1 86 be 10 3d c2 3e 98 7b b3 3e 2a a6 df 3e
       -0.26319385 0.37937212 0.35055232 0.4368146

fc2.weight f4 [16, 32]
000000 5f c8 f5 bd db 29 27 3d ec d2 f5 bd 2d 35 bc 3d
       -0.120011084 0.0408114 -0.12003121 0.0918983
000010 0b cb 34 bc e9 ce a3 3d 49 b7 21 3e b7 60 48 3c
       -0.011034737 0.07998449 0.15792574 0.01223009
000020 62 8f e3 3d 54 7a 99 3d 15 7b 3a bd 55 5d f3 3d
       0.111113325 0.07494035 -0.045527536 0.11883036
000030 a4 f5 2b bd da 07 a8 bd 1c f2 42 bd 0f fc 89 bd
       -0.041982308 -0.082046226 -0.047594175 -0.067375295
000040 fb 4c a0 3d f7 be a4 bd 7c cb 04 3d a6 02 05 3e
       0.07827183 -0.08044236 0.03242062 0.12989292
000050 87 9f e2 bd db 31 11 3e 74 7e 7e bd da a9 a4 3d
       -0.11065584 0.14179175 -0.062132314 0.08040209
000060 f5 39 54 3d c7 3d bd 3d 2b b3 d4 bd a3 11 22 be
       0.051813085 0.09240299 -0.10385736 -0.1582704
000070 8e 55 19 3d 8f d4 b4 bd d2 38 ab 3d f9 9b 01 3e
       0.037435107 -0.08829605 0.08360447 0.12657155
000080 61 ec 0c 3e b7 76 2e 3e cc 43 ef 3d 72 f4 40 3c
       0.13762046 0.17037474 0.11682853 0.01177703
000090 52 67 f5 bd f8 b8 32 bd 4d ab 0a be b0 a3 2e bd
       -0.119825974 -0.04363343 -0.13541909 -0.042636573
0000a0 2a 86 01 be ea 8e d4 bd e7 16 87 bd 24 d9 17 be
       -0.12648836 -0.10378821 -0.06596165 -0.14828926
0000b0 99 96 f1 3d 56 ac 82 bb 2f ee c2 bd 0d 27 b2 3d
       0.11796302 -0.003987829 -0.09518086 0.086988546
0000c0 05 8b f3 3a ad dc 33 be a8 09 f4 bd 4f 13 e0 3d
       0.001858086 -0.1756465 -0.11915904 0.10941183
0000d0 6e 1f 15 3e f3 42 90 3c 46 3a 99 3d 04 95 88 ba
       0.1456277 0.017610049 0.07481818 -0.0010420387
0000e0 20 3e 32 bd 1d 27 93 bc 7e 6b 72 3c e8 b0 e4 3d
       -0.04351628 -0.017962987 0.014796136 0.11166555
0000f0 a9 65 27 be c6 be 98 3d d1 1d 23 be ed 9c 5c 3d
       -0.16347374 0.07458262 -0.15929343 0.053860594
000100 6a c3 fb 3d ee a9 c9 3d 21 b5 8f 3d 91 33 33 be
       0.12293132 0.09846865 0.070169695 -0.1750014
000110 92 8e d2 bd 8a 8e 1a 3e b2 9f 61 bd df b8 bd 3d
       -0.102810994 0.15093437 -0.055083938 0.09263777
000120 dc db b9 bc 0b 01 6e ba 8e 23 12 3e 13 e4 34 be
       -0.022687845 -0.0009079135 0.14271376 -0.17665128
000130 61 9b 1e 3e 82 b7 51 bd 44 bf 8a bd 0a c1 a4 3d
       0.1548896 -0.051200397 -0.06774762 0.08044632
000140 bb 83 01 3e ca c4 0f bd e1 ea 7b 3c b5 c9 04 3e
       0.12647907 -0.035099782 0.015375824 0.1296757
000150 84 66 14 be 42 8f 63 3c b1 b9 f4 3d ff 2e b3 3d
       -0.14492232 0.013889136 0.1194948 0.08749198
000160 c1 3f ec 3d f1 5d e5 bd 80 d3 16 3e 52 36 94 bd
       0.115355976 -0.111995585 0.14729118 -0.07236923
000170 4f f0 88 3d 1c 21 13 3e 3f ce c8 3d a4 ad 07 3c
       0.0668646 0.14368099 0.09804963 0.008281145
000180 e3 fa fc bd 3d ae 08 3e 01 d1 0b be ec cf a4 3d
       -0.1235254 0.13347717 -0.13653947 0.080474705
000190 ec c1 23 bd 5b 1f 56 bd 50 b1 d2 3c be f0 98 bc
       -0.03997986 -0.052275997 0.025719315 -0.018669482
0001a0 f0 a2 ee 3d 08 e4 16 3e c5 8e 00 3e b9 37 1b 3e
       0.116521716 0.14735425 0.12554462 0.15157975
0001b0 cc 04 e1 bd 46 46 9f 3c bc 3a 05 3e a7 1f 07 be
       -0.10987243 0.019442689 0.13010687 -0.13195668
0001c0 a0 9f c0 3d 2d f3 94 bb 2f 7c 70 3d 22 85 ea 3d
       0.09405446 -0.0045455904 0.05871218 0.11451174
0001d0 1b cd dc bc 5c 47 c4 bd 1a d9 2e 3e fb 0d ed 3c
       -0.02695327 -0.09583923 0.17075005 0.02893733
0001e0 9a 57 b8 bd b8 2c 1d 3d c1 ff 9e bd b5 f5 c3 3d
       -0.09001084 0.038372725 -0.07763625 0.09568349
0001f0 ea f1 79 3d 0f 53 62 3d d4 2e 04 3c ea 89 55 3d
       0.061021723 0.055254992 0.008067805 0.05213348
000200 1e 6a bd 3c c9 b6 10 3e 11 9c 22 3e 8c c6 08 3d
       0.02312189 0.14132227 0.15879847 0.033392474
000210 d4 cc 47 bd f3 bc 36 3d ef d5 e0 3d 21 d9 09 3d
       -0.048779324 0.04461379 0.109783046 0.033654336
000220 db 4b 0b be 7a 26 ce 3d 8a ae f6 bd 2f e7 0e 3e
       -0.13603155 0.100659326 -0.120450094 0.13955377
000230 92 d6 81 3d 3d 33 23 3b fe a0 bf bd 09 2e d1 bd
       0.06339754 0.0024902367 -0.09356879 -0.10213859
000240 b5 98 03 be d1 9f ed bc 7e a5 83 3d 9d 71 d1 bd
       -0.12851222 -0.02900687 0.064280495 -0.10226748
000250 be fa 0a 3e 30 aa d7 bd 77 ff b9 bd cd 6b 18 bd
       0.13572213 -0.105305076 -0.09081929 -0.03721218
000260 30 92 de 3d 23 b3 7b bd 50 49 26 3e 93 52 91 3d
       0.10867727 -0.061450135 0.16238904 0.07095828
000270 6f 8c 01 3e 5a 5f 8d bd 89 ed 16 bd ee 8d 0d be
       0.12651227 -0.069029525 -0.036847625 -0.13823673
000280 21 2e 0f 3e 0b 7f ef bd 4c ff f2 3d 01 d3 d9 bd
       0.1398244 -0.116941534 0.118651 -0.10635949
000290 81 95 f8 3d f0 b4 b7 3d b0 a1 16 3e f0 43 09 3e
       0.121378906 0.08970058 0.14710116 0.13404822
0002a0 90 d2 32 be 4a 05 c2 3c 67 f2 2f 3e e4 c9 13 be
       -0.17463136 0.023684163 0.17182313 -0.14432484
0002b0 7b 3a a6 3d b0 3f f1 bb c1 4f 92 3d 6f 35 15 be
       0.08116623 -0.0073623285 0.07144118 -0.14571165
0002c0 92 26 5e 3d c1 96 42 3d 67 25 58 bd 7e 1c 9c bc
       0.054236002 0.04750705 -0.052770045 -0.019056555
0002d0 1d 66 2b be 41 6f 32 3d 7d e3 46 3c f6 68 c8 3d
       -0.16738172 0.04356313 0.012139198 0.09785645
0002e0 30 17 f9 bd f2 d4 0f be 3a 8a 0e 3e 95 58 26 be
       -0.12162626 -0.14046076 0.13919917 -0.16244729
0002f0 81 03 4c 3d 85 5e a1 bd f0 63 90 bd 92 c3 ba 3c
       0.04980803 -0.07879356 -0.070503116 0.022798333
000300 10 53 03 3e a5 39 54 bd a7 97 11 be 45 dd 6d 3d
       0.12824655 -0.051812787 -0.14218007 0.058072347
000310 08 41 23 be 7f 66 1f 3e 57 2c 87 bd 23 99 98 bd
       -0.15942776 0.15566443 -0.06600254 -0.074510835
000320 2f 5a e5 3d 30 38 e1 3d 25 e8 d4 3d 55 a5 22 3e
       0.11198842 0.10997045 0.103958406 0.15883382
000330 bc da 10 3e 88 00 f4 3d 6c 30 2f 3e 3e ae 51 bb
       0.1414594 0.11914164 0.17108315 -0.0031994726
000340 5b 0a 12 bc 63 72 10 3d cc b3 0c 3d f9 09 dd 3d
       -0.008913602 0.035265338 0.034351155 0.10792918
000350 d5 76 c1 3c 80 d5 a9 bd a2 31 6b bd 07 45 23 be
       0.023616234 -0.08292675 -0.05742038 -0.159443
000360 fc 69 47 3c 71 c9 de 3d d7 73 23 3e b7 74 07 be
       0.012171265 0.10878266 0.15962158 -0.13228117
000370 80 3d 31 be 74 1d 12 be ac 08 1e be f9 4b 2f 3e
       -0.17308617 -0.14269048 -0.15432996 0.17118825
000380 e5 be 16 3e 05 4f a3 3d 1f 05 11 3e 85 80 fd 3d
       0.14721258 0.07974056 0.1416211 0.12378029
000390 6f 8c bb 3d 8e 08 9d bd d5 ee 30 3e 07 9c 1e be
       0.09157645 -0.07667647 0.17278607 -0.15489207
0003a0 e0 34 8e 3d a5 69 93 3d 9b 7d f5 3d e0 15 03 3a
       0.06943679 0.071978845 0.11986848 0.0005000513
0003b0 f4 21 fc bd 1a e6 ef bd 8f 5e 00 3e b2 8d d3 3d
       -0.123111635 -0.1171381 0.12536071 0.103297606
0003c0 bd d2 0f 3e 82 6b 1e 3d 06 67 4d 3c 5e c0 4e bd
       0.14045234 0.038676746 0.01253677 -0.050476424
0003d0 23 30 ac 3c e3 0a 1d 3d 29 60 8e bd e4 ee ba bd
       0.021019047 0.03834046 -0.06951935 -0.09127596
0003e0 bb de ae 3d 5a 55 d3 3c f9 a5 c6 bd 23 27 ed bc
       0.08538576 0.025797535 -0.096996255 -0.028949326
0003f0 b7 fd a0 bd 5b 9d ff bd c4 3f 49 3d 47 81 45 bd
       -0.07860892 -0.12481185 0.049133077 -0.04821899

fc2.bias f4 [16]
000000 f8 81 11 3e 89 36 11 3e b3 02 08 3d 14 b0 d8 bd
       0.14209735 0.1418096 0.0332057 -0.10580459
000010 aa 75 2c 3d 58 98 fe 3d 9c 25 09 3e 8d be 1e 3e
       0.0421044 0.12431401 0.13393253 0.15502377
000020 ee 28 bc bd ec ad d7 3d aa bf 05 3e 61 a0 68 bd
       -0.09187494 0.1053122 0.13061395 -0.056793574
000030 bd 69 2f be 14 87 a4 3d fd 92 f6 3d 55 79 b7 bc
       -0.1713018 0.080335766 0.120397545 -0.022396723

fc3.weight f4 [1, 16]
000000 db bf dd 3d 90 f6 9b bc 0b de 7d 3c 86 9e 65 3e
       0.10827609 -0.019038469 0.015494834 0.22423753
000010 52 2c 65 be 9a 0b 8f bd 1f eb 81 bd ac 76 3d 3e
       -0.22380188 -0.06984635 -0.06343674 0.18502301
000020 9f f6 12 3e 0d 26 5d be 41 19 02 3e d7 f0 83 3d
       0.14351891 -0.21596546 0.12704946 0.06442421
000030 eb 17 e9 3c c2 29 41 3e 8a d8 48 bd aa 37 0e be
       0.028453788 0.18863586 -0.049034633 -0.13888422
