DRL_Nets6/actor_target_2_500.pth (torch, 5686 bytes, 5 tensors)

fc1.weight f4 [32, 5]
00000000: f20f a73d b95c e93c c5f2 1b3c e019 f3be
00000010: f169 ccbd 3c75 87be 7773 d9be 81d7 a13e
00000020: 3ad5 03be 34a2 c5be f5d8 153e 8e77 063e
00000030: 0caa a5be 65be 8dbe 6cfc fd3d 4e66 773d
00000040: d093 20be e64d d63e 7d1e 66be 27c8 6d3d
00000050: 014b a13d 86e7 b63e 71b9 0f3e a47e 4f3e
00000060: 9500 913e 8c44 aa3e a453 dabc 7842 a5be
00000070: 2332 b3be e67c 253e e44d 39be 0162 ab3e
00000080: 33e5 ee3e 1ebe 593e bb63 943e 98c9 9a3d
00000090: 9660 823d 64fe a7bd 3ddc 903e 9418 d0be
000000a0: 0418 6abe 6ccf 663d d34a 78be d396 d53c
000000b0: e025 be3e 38bf acbe 61f5 c9be c730 b2be
000000c0: f14c 94be d2ee 2d3e c223 d53e f5c8 70be
000000d0: 83d2 a63e b4d5 9c3e cd66 3bbe 792b 1dbd
000000e0: fd37 b2be 2056 4c3d 4dcc 793d 5069 c4be
000000f0: 3aac c83e 7d40 bcbe 59c1 9abe ab89 673e
00000100: 6edd 56bd f0c2 b2be c100 c3be 9901 d63e
00000110: a29b e3bd f63b a03e 7b8a c13e d7f3 8bbe
00000120: da22 c6be 7fe1 f4bd 7703 013e 0b76 11bd
00000130: 04be cbbc 0deb b8be 5b0c dc3e 183f b03d
00000140: c056 7ebe eb6d 813e cf04 fe3e 52f9 2b3e
00000150: 410e 2cbc 9146 afbe e5b5 05be e049 663d
00000160: 67d2 133e 500b abbe 4df4 95be 6757 bc3e
00000170: 4a1b d53d e260 a93b aa0b 933e b313 5c3d
00000180: 1ae8 463e 41c8 903e 212e 8fbe e8e1 bb3e
00000190: 185f 953e fe63 1fbe b7d3 f9bd 854a 073e
000001a0: fb50 183d 94f6 933d 4448 aabe 9af5 da3e
000001b0: 7ecb febe a696 9ebd 148c 503e e2cd 2ebe
000001c0: 7aba b23e 92a3 cdbe 34c9 deba 787e 0bbe
000001d0: 01dd e03e b77b e43e 5977 393e 68c3 eabd
000001e0: 7614 673e 69d7 f23e b7ac c83e 3eab 0fbe
000001f0: 2ad1 9b3e 9b38 e4be 9421 44be 9e2a 0dbe
00000200: aedc 9cbc 47a5 c9be c9e2 91be 68fc e73e
00000210: f0ec 253e 2276 ec3a 2c79 af3e 6b9b 7c3e
00000220: 663c af3e aac0 c53e 62e2 ffbd 3412 d93d
00000230: 71fd 063e 8aae 3dbe 113f d0bd 876a 33bd
00000240: 0a6f e13e 04f1 17be 877a ffbd c0b3 55bd
00000250: b296 3d3d 0387 87be f146 bd3b fd3a b83d
00000260: ae34 9d3e 5dd3 92be 038b 8c3e aa9e 4bbc
00000270: 75bb 98be 0a10 903e 9fbe c6be 5d10 b63e
0.08157338 0.028486596 0.00951833 -0.4748068 -0.09981144 -0.2645663 -0.42470905 0.3160973
-0.12874308 -0.38600314 0.14633544 0.13131544 -0.32356298 -0.27684322 0.12401661 0.0604003
-0.15681386 0.41856307 -0.22472568 0.05805221 0.07875634 0.35723513 0.14035584 0.20263153
0.28320757 0.33255422 -0.026651211 -0.32277274 -0.3499919 0.16160926 -0.18096119 0.3347321
0.4665924 0.2126393 0.28982338 0.07557982 0.063660786 -0.08202818 0.28293028 -0.40643752
-0.22860724 0.056350157 -0.24247293 0.026072895 0.3713827 -0.33739638 -0.39445022 -0.3480284
-0.28964952 0.16985634 0.41628844 -0.23514159 0.32582483 0.30631793 -0.18300934 -0.038371537
-0.3480834 0.049886823 0.060985852 -0.38361597 0.39193898 -0.3676795 -0.30225638 0.2261111
-0.052457266 -0.3491435 -0.38086513 0.41798094 -0.11113669 0.31295747 0.37800965 -0.27334473
-0.38698465 -0.119570725 0.12598978 -0.035512965 -0.02487088 -0.3611683 0.42978176 0.08605784
-0.2483778 0.25279173 0.49613044 0.16794327 -0.010501445 -0.34233525 -0.13057669 0.056222796
0.14435731 -0.33407068 -0.2928795 0.36785433 0.104055956 0.00516902 0.28719836 0.053729724
0.19424477 0.28277782 -0.2796488 0.3669579 0.29174113 -0.15565488 -0.121985845 0.1321202
0.037186604 0.072247654 -0.3325826 0.42765504 -0.49764627 -0.07743578 0.20365936 -0.17070726
0.34907895 -0.40163857 -0.0016997219 -0.13622463 0.43918613 0.44625637 0.18111934 -0.11463052
0.22566399 0.4742997 0.3919427 -0.14030167 0.30433017 -0.44574437 -0.19153434 -0.13785788
-0.019148197 -0.3938391 -0.28493336 0.45309758 0.16203666 0.0018040577 0.34272134 0.24668662
0.34225768 0.38623554 -0.12494351 0.10599175 0.13182618 -0.18523613 -0.10168279 -0.043802764
0.4403003 -0.14838034 -0.12474542 -0.052173376 0.046286292 -0.26470193 0.005776279 0.08995626
0.30704254 -0.28676882 0.27449808 -0.012427965 -0.29830518 0.28137237 -0.38817307 0.3555936

fc1.bias f4 [32]
00000000: cb63 8e3d 397d c93d c4b7 9a3e b76b 76bd
00000010: f189 77be b27d 813e 9b20 84be ea0a ba3e
00000020: 2efa 0b3c dc55 5bbe 6189 8d3e 32af 8e3e
00000030: a446 c83e f98f dd3e 91b5 2e3e 058d 55be
00000040: 3303 03be be31 14be e432 aa3e 9bcb 3abe
00000050: cc7b 123e 4202 a23e 2d07 6cbe e9cc 833e
00000060: af9d 4a3e 53a7 4c3e 492a 86be 675f 333e
00000070: 37f5 ad3e 43b6 35bc 5370 2c3e 4b06 883e
0.06952628 0.098383375 0.30218327 -0.06016132 -0.24173714 0.2529121 -0.25806126 0.36336452
0.008543534 -0.21419472 0.27643874 0.27868038 0.39116395 0.43273905 0.1706145 -0.20854576
-0.12794189 -0.144721 0.3324195 -0.18241732 0.14305037 0.31642348 -0.23049612 0.25742272
0.19786714 0.19985704 -0.26204136 0.17516862 0.33976147 -0.011090818 0.16839723 0.265673

fc2.weight f4 [16, 32]
00000000: e900 773d 4cd1 33be 3c77 61bd 8e96 003e
00000010: d3ea 583b ec5d 243d c764 22bd 1a88 38be
00000020: 06bc cabd 8817 e83c 1f69 1cbe 87bc 323c
00000030: e7d9 a63d fae3 68bd 76e1 9dbd 8d0a dd3d
00000040: 68ab 053e 6b8e 1bbd b670 ba3d f112 f73d
00000050: 071d 26be 4297 f4bc 6413 3d3e 1798 a53d
00000060: 6960 343e 8161 21be f6aa 463e bd77 d53d
00000070: 7f7f 913d 9851 e33d 0551 a23e b7ef 893e
00000080: 4fa7 823e 6f20 9fbd 55dd 3dbb 179f 063e
00000090: 5384 6c3d 0d1a e73d 6a9d 89bd 5811 a9bd
000000a0: fcb7 553d bd29 ecbd 7b4d 12be 88d8 cebc
000000b0: 275c 2d3b 46af a5bd 2312 573d dd48 bdbd
000000c0: 368a b3bd b328 afbd 3f49 babd 6877 013e
000000d0: 9a00 06be dd23 c8bd 114d 1b3e 4ac4 4b3d
000000e0: e33c 0a3d 7bf9 edbd fd35 343e 1d9b f03d
000000f0: 4c7c 17be 460a 2d3d 85b3 583e 31b0 233e
00000100: 05e2 8fbd 87d9 0b3e 162c 1fbe fea9 93bb
00000110: 02a7 52be 52c9 58be 9852 3cbe 04e2 0f3e
00000120: 843c 033c 2895 d2bd 3f0c a6bd dd18 efbd
00000130: aa38 e43d 88c6 37bd 8ba3 f33c 3ced 74bd
00000140: d007 403d 7986 f63c 30fb cb3d 3a20 e03d
00000150: ce9f 96bd 9a7b e33d 3180 d33d 5c27 893d
00000160: dd18 9a3d ced2 0a3e 31bd cdbc 0c4b 883d
00000170: db44 69be a9f5 f3bd 4666 14be 19ba 4abd
00000180: 2617 323d 2330 fb3d 5b98 0f3e ce38 3b3e
00000190: 0877 cb3d 89a6 c93c b265 adbb 7dd6 c5bd
000001a0: 0567 ff3d 1ad8 edbd 8c73 113d acb7 a03d
000001b0: a21d b5bd 0c5f 0dbe 843a f6bd 2aab 34bd
000001c0: ddd8 af3d 43ae 38bd ebe4 b1bd 15af 8e3d
000001d0: d4bb e3bd 21dc 813d 1902 033e 5066 1f3e
000001e0: 193b c93c 3cc3 0f3e a582 233d e465 c73d
000001f0: 7227 f23d 4fa3 893d 8ac7 df3d d675 86bd
00000200: dd54 f8bd 91f9 393d 2a2c 223d 729e 1cbe
00000210: 6eae 8d3d e2e8 15bb de19 1ebe f4b1 043e
00000220: 1bf4 10be 9222 ec3d 5180 07bd b865 b13d
00000230: 9c65 7cbd c188 f5bc 5adc f3bd 4f00 343d
00000240: c8ef 27be dd23 f0b9 7e65 1ebe c922 9bbd
00000250: 9e52 203e dd41 803d dacd f5bd 20f6 dcbc
00000260: 3832 913c f805 bdbb ed98 2c3e 5310 d4bd
00000270: decc 15be 8d04 f0bd aecf 09be 520a 74bd
00000280: 6279 4b3e 80b4 e33d 5b10 523d 7034 4f3b
00000290: 8ac6 50bd 1037 d73d 2a23 213e 1f97 64bd
000002a0: 822c 8bbd 91de 45bd 8075 55bd 499b 59ba
000002b0: fe67 8a3c 185c 49bc cd4c b93d 5df6 e73d
000002c0: 2a06 cbbb e396 c63d 3106 f53d 1f05 1c3e
000002d0: 0016 b93d 9bbe ef3d 3dc7 aebd 1f73 253e
000002e0: 3e6b e13c 1a42 19be ecd8 abbc 2e75 2a3c
000002f0: 6316 56bd cd4e 063d 339f a73d dc01 813e
00000300: d779 c2bd c3f4 aebd 4fee d9bd d080 fabd
00000310: ee59 5cbd 9f3b 223d 7a02 52bd 5793 013e
00000320: c4cf fb3d 363b bbbd 79f1 e63d c0f6 a83d
00000330: 0194 903d 97c1 893d 64af 1f3e 2928 193e
00000340: 6e97 b6bd 16df 58bd 80e5 083e 0e67 1d3e
00000350: 5040 32bd 78a6 f6bd 8659 553d 227a e33d
00000360: 45c7 1ebe f5cb acbd 8074 603d 4d71 d23d
00000370: 7062 753d 595f 5f3d 2b74 8abe 56a0 32be
00000380: 1c67 f1bd d761 4f3d 7139 59bc 802b 993c
00000390: c22a 78bd ff37 6bbd bf8a e83c 2a0e a8bd
000003a0: 1369 2cbe 2d1e 2e3e 272b e8bd 9859 19be
000003b0: ae76 923d 7179 e8bd faff d4bd 853b 2cbe
000003c0: b627 073e a6d4 d1bc 8629 da3d 871b 08be
000003d0: d377 a6bd f924 d83d 3c40 1abe d97d dcbd
000003e0: 6ad2 4dbd 4b76 a73b b01e b43d 5a83 38bd
000003f0: 70f9 4d3d 2cbc 9f3d 3732 c83b 619e 1b3e
0.060303602 -0.17560309 -0.05504535 0.12557432 0.003309895 0.040128633 -0.03964689 -0.18020669
-0.09899144 0.028331533 -0.15274476 0.010909206 0.0814703 -0.05685804 -0.07709019 0.10793028
0.13053668 -0.037977617 0.09103529 0.1206416 -0.1622201 -0.029857282 0.18464428 0.080856495
0.17614903 -0.15759851 0.19401154 0.10423229 0.07104396 0.11099547 0.31702438 0.269407
0.2551827 -0.07769858 -0.0028971035 0.13146625 0.05774338 0.11284266 -0.067194775 -0.08255261
0.052177414 -0.115313984 -0.14287369 -0.025249735 0.0026452632 -0.080900714 0.05250753 -0.09242413
-0.08766596 -0.08552685 -0.09096002 0.12643206 -0.13086167 -0.097724654 0.15166117 0.049747743
0.033749472 -0.1161985 0.1759872 0.117483355 -0.14793509 0.042246126 0.21162231 0.1598518
-0.07025532 0.13657199 -0.15544161 -0.0045063486 -0.20571521 -0.21170548 -0.18390882 0.14051062
0.0080100335 -0.102823555 -0.081078045 -0.11674664 0.1114362 -0.04486707 0.02974107 -0.059796557
0.04688245 0.030093418 0.099600196 0.10943647 -0.07354699 0.111075595 0.10327185 0.0669696
0.075242735 0.13556978 -0.025114628 0.06654939 -0.22780173 -0.1191209 -0.14492139 -0.049493883
0.043479107 0.12265041 0.14022963 0.18283388 0.09934813 0.024615543 -0.005291664 -0.09660051
0.12470821 -0.11613484 0.035510585 0.07847533 -0.08843543 -0.13805789 -0.1202288 -0.044108547
0.08586285 -0.045088064 -0.08686241 0.06966988 -0.1111981 0.063408144 0.12793769 0.15566373
0.024564313 0.1403932 0.039919514 0.09736231 0.1182393 0.06720602 0.10926731 -0.06565444
-0.121255614 0.04540402 0.0395929 -0.15294817 0.069180354 -0.0022874405 -0.15439555 0.12958509
-0.14155619 0.11530031 -0.033081356 0.086619794 -0.06162034 -0.029972436 -0.11907263 0.043945607
-0.16400063 -0.00045803087 -0.15468404 -0.07574994 0.15656516 0.062625624 -0.12002154 -0.02697283
0.017724141 -0.005768534 0.16855212 -0.10354676 -0.14628932 -0.11719618 -0.1345813 -0.059580155
0.19870523 0.11118412 0.05128513 0.0031616949 -0.05097059 0.10508549 0.1573607 -0.055808183
-0.067955986 -0.04830796 -0.05211401 -0.00083010324 0.01689529 -0.012290023 0.09047852 0.11326287
-0.006195803 0.09696748 0.119640715 0.15236329 0.09037399 0.11706277 -0.085340954 0.16157196
0.027516957 -0.14966622 -0.02097746 0.010403914 -0.052267443 0.032789994 0.08184662 0.2519673
-0.09495895 -0.08542778 -0.10641157 -0.122316 -0.0537967 0.03960764 -0.051271893 0.12653862
0.122954875 -0.09142153 0.11276526 0.08250189 0.070594795 0.067263775 0.1559425 0.14956726
-0.08915602 -0.052947126 0.13368797 0.15371343 -0.043518364 -0.1204347 0.05208733 0.11107279
-0.15505703 -0.08437339 0.054798603 0.10275517 0.05990833 0.05453429 -0.27041754 -0.17443976
-0.11787245 0.050630417 -0.013258324 0.0186975 -0.060587652 -0.05742645 0.028386472 -0.082058266
-0.16836958 0.17003699 -0.11336356 -0.14975584 0.071515426 -0.11351288 -0.10400386 -0.1681958
0.13198742 -0.025614094 0.10652451 -0.13291751 -0.081283234 0.10553927 -0.15063566 -0.10766191
-0.050249495 0.005110537 0.08794916 -0.04504714 0.05028671 0.07799563 0.0061095017 0.15197136

fc2.bias f4 [16]
00000000: facc 12be e841 b83d 953a 0ebe 0de2 293e
00000010: 88d3 ae3d f4a0 973d 6f78 a13d 219b ab3d
00000020: 6426 f23d 4b3e 27bd 3e45 293e de55 15be
00000030: f0d4 2c3d 7f49 2cbd 20af 173d 07d8 513d
-0.14336005 0.089969456 -0.13889535 0.16590138 0.0853644 0.07403746 0.07884299 0.08379198
0.11823729 -0.04083089 0.1653032 -0.14583537 0.04219526 -0.04206228 0.037032247 0.05123141

fc3.weight f4 [1, 16]
00000000: 58e9 94be db83 04be 6b4f f43d bb69 58be
00000010: 31d4 b1bd d5ff 8abe b4f6 533e a61d 4a3e
00000020: 281a 5e3e 60e0 013e 099c d53d 0c96 1b3e
00000030: 007c 803e 2394 4dbe 634a f6bd 0fc0 933e
-0.29084277 -0.12940924 0.1192921 -0.21134083 -0.086830504 -0.2714831 0.20699579 0.19737872
0.21689665 0.12683249 0.10430152 0.15193957 0.25094604 -0.20076041 -0.12025907 0.28857467
