DRL_Nets6/actor_target_1_42.pth (torch, 5676 bytes, 5 tensors)

fc1.weight f4 [32, 5]
0	0x3e2f90eb	0.17145126
1	0xbe2c1acd	-0.16807099
2	0x3e212d4c	0.15739936
3	0xbd86b0a4	-0.0657666
4	0x3d2ee3fa	0.042697884
5	0x3e866e06	0.26255816
6	0xbc4c57ed	-0.012472135
7	0x3c0575ab	0.00814573
8	0xbcf134f0	-0.029444188
9	0x3e871865	0.263858
10	0x3e95c2f2	0.29250294
11	0xbeab743a	-0.3348711
12	0x3db4254d	0.08796177
13	0x3eccc9b7	0.39997646
14	0xbe9e2593	-0.30888042
15	0xbe9b5098	-0.30334926
16	0xbd3a3db4	-0.045469
17	0xbed5ed17	-0.41782448
18	0x3e636e3b	0.22210018
19	0x3c137a98	0.009001397
20	0x3b807ca4	0.0039211083
21	0x3e7ab085	0.244814
22	0xbdd44b15	-0.10365883
23	0xbecd4042	-0.40088087
24	0x3eab9da1	0.335187
25	0x3ebf52b5	0.37367788
26	0xbe865c1b	-0.26242146
27	0xbd327790	-0.043571055
28	0xbe240aaa	-0.16019693
29	0xbeba30ef	-0.36365458
30	0xbe004039	-0.12524499
31	0x3dd91a82	0.10600759
32	0xbe169129	-0.14703812
33	0x3e1d178e	0.15341017
34	0x3d131a67	0.03591385
35	0x3dae376f	0.08506667
36	0xbe0278ca	-0.1274139
37	0x3e2ccc86	0.16874894
38	0x3d2106e6	0.03931322
39	0x3e9b8d44	0.30381215
40	0xbe87f506	-0.26554126
41	0x3ddf2718	0.108961284
42	0xbea3c087	-0.31982824
43	0x3dffc662	0.124890104
44	0x3ead3fc4	0.33837712
45	0xbe156801	-0.14590456
46	0x3e99eba4	0.30062592
47	0x3ec1aa00	0.37825012
48	0x3e057ae6	0.13035163
49	0xbe21d07c	-0.15802187
50	0xbd6c186a	-0.05764047
51	0x3c08047f	0.008301853
52	0xbdaf1fd2	-0.08550991
53	0x3c96d331	0.01841125
54	0xbde1f1a1	-0.11032415
55	0xbecf8727	-0.405328
56	0x3e2acd79	0.16679944
57	0xbdbac294	-0.09119144
58	0x3d0c842f	0.034305748
59	0x3dcecbb3	0.10097446
60	0x3dbddcbd	0.09270618
61	0x3e884627	0.26616022
62	0x3e8ca3d1	0.27468732
63	0x3e9cba6a	0.30610973
64	0xbe2096bc	-0.156825
65	0x3d9bab8b	0.076010786
66	0xbd6e8da2	-0.05824054
67	0x3e9d0ed4	0.30675375
68	0x3ed75bdd	0.42062274
69	0xbdcb9010	-0.09939587
70	0xbec5a7f9	-0.38604715
71	0x3d7f1e0d	0.062284518
72	0xbe195ac0	-0.14976025
73	0x3eb72f48	0.3577826
74	0x3d46585e	0.048424117
75	0xbaae2f42	-0.001328923
76	0x3ebe638b	0.3718532
77	0x3ec0d8ba	0.3766535
78	0x3e82cfdd	0.25549212
79	0x3eb84f86	0.35998172
80	0x3e5c05b7	0.21486555
81	0xbeb9d3ee	-0.36294502
82	0x3e1c0659	0.15236796
83	0x3d1ca646	0.03824451
84	0xbe99614d	-0.29957047
85	0x3ed2701c	0.41101158
86	0x3ed1875c	0.40923584
87	0x3cdaaec8	0.02669467
88	0xbce3bccb	-0.027799984
89	0x3bf1a858	0.0073748045
90	0x3e12f6a2	0.14351895
91	0xbdbfba41	-0.09361697
92	0x3eabb3ce	0.33535618
93	0xbe630d39	-0.22173013
94	0xbe6045e8	-0.21901667
95	0x3d96f612	0.07371153
96	0xbd063c66	-0.032772444
97	0x3ebe15c5	0.37125984
98	0x3d10cd5f	0.035352107
99	0x3dc304e2	0.09522416
100	0xbe1766b0	-0.14785266
101	0xbeb7366d	-0.3578371
102	0x3ec8566f	0.39128444
103	0x3ea7532c	0.32680643
104	0xbd8e01cc	-0.069339365
105	0xbd8b50e8	-0.06802541
106	0x3ec2c2f1	0.38039353
107	0x3dbc81ea	0.09204467
108	0x3eb3bbd8	0.3510425
109	0xbea76882	-0.3269692
110	0xbe941a84	-0.2892648
111	0xbed7ae5a	-0.42125207
112	0xbed46e0a	-0.41490203
113	0x3e2cee8e	0.16887876
114	0xbe56b1da	-0.20966282
115	0x3d08b149	0.033372197
116	0xbe3a80a6	-0.18213138
117	0x3ec1f8ec	0.37885225
118	0xbed7a05d	-0.42114535
119	0x3d925965	0.07145957
120	0x3ece06b9	0.40239504
121	0x3eca63aa	0.39529163
122	0x3e59e57a	0.21278945
123	0xbccc6214	-0.024949111
124	0xbeaa0829	-0.3320935
125	0x3e626abc	0.22111028
126	0x3ea81164	0.32825768
127	0xbec14f9b	-0.37756047
128	0xbe0e08a6	-0.13870487
129	0xbc2f20bb	-0.010688956
130	0x3dcc8d7f	0.09987926
131	0xbe9d3b9f	-0.3070955
132	0xbe1ca29c	-0.15296406
133	0x3eaf5f75	0.34252515
134	0x3ed22568	0.41044164
135	0xbec261ca	-0.37965232
136	0x3ec363ae	0.38161987
137	0xbda5c4ba	-0.08094163
138	0x3de6798f	0.11253654
139	0xbe0e28d4	-0.13882762
140	0xbebe965c	-0.3722409
141	0xbe97a054	-0.29614508
142	0x3e8bad15	0.2728049
143	0xbe8b38ab	-0.27191672
144	0xbe7e122f	-0.24811624
145	0x3eb4aa46	0.35286158
146	0xbedf53af	-0.43618533
147	0xbdcdf9c7	-0.10057407
148	0xbeba0ad6	-0.36336392
149	0xbe1a69cf	-0.15079425
150	0x3e646366	0.22303542
151	0xbdade116	-0.08490197
152	0xbd6d26b3	-0.057898235
153	0xbed619ea	-0.41816646
154	0x3e4c676d	0.19961329
155	0xbe1a2e2b	-0.15056674
156	0x3e93b7df	0.2885122
157	0x3e5b9bf2	0.21446207
158	0x3ea18d33	0.3155304
159	0xbeb04bba	-0.34432775

fc1.bias f4 [32]
0	0x3ecd1032	0.4005142
1	0x3ed4640b	0.41482577
2	0x3d5581d9	0.052125785
3	0xbe35aae3	-0.1774097
4	0xbe471aa2	-0.19443753
5	0xbea27b5d	-0.31734744
6	0xbe37c644	-0.17946726
7	0x3ec56029	0.38549927
8	0xbe823f83	-0.2543908
9	0xbdbbb145	-0.09164671
10	0xbdc7a470	-0.09748161
11	0x3aaf0885	0.001335398
12	0x3dcbcda7	0.099513344
13	0xbe3f7f83	-0.18700986
14	0xbdf1df75	-0.11810199
15	0xbed6fc16	-0.419892
16	0x3eac8919	0.33698347
17	0x3d5f0dc3	0.054456484
18	0x3ec30647	0.38090727
19	0x3e82441c	0.25442588
20	0x3e46d81d	0.19418378
21	0x3ed06d9d	0.40708628
22	0xbd9799ac	-0.074023575
23	0x3eda7112	0.4266439
24	0x3e26d97a	0.16293898
25	0x3e26c918	0.16287649
26	0xbc638519	-0.013886713
27	0x3ebbbc8e	0.36667293
28	0xbc8739e9	-0.016507106
29	0x3eb17e10	0.3466649
30	0xbd70df2a	-0.058806576
31	0xbebe0cb0	-0.37119055

fc2.weight f4 [16, 32]
0	0xbdeccb57	-0.115622215
1	0xbe2ea085	-0.17053421
2	0x3e17b374	0.1481455
3	0x3ddfb996	0.109240696
4	0x3d1de248	0.038545877
5	0xbe2b3128	-0.1671797
6	0xbcfb5e0c	-0.030684493
7	0xbc11fcd3	-0.008910376
8	0x3e13897f	0.1440792
9	0x3e0f7ea6	0.14013156
10	0x3cc55ee4	0.024093099
11	0x3cb3d00b	0.021949789
12	0x3dd0fe12	0.1020471
13	0xbde449e7	-0.11146908
14	0x3e0fdbeb	0.14048736
15	0x3d357695	0.04430254
16	0xbd79344a	-0.060840882
17	0x3d6755ca	0.0564783
18	0x3e25efec	0.16204804
19	0xbe06da73	-0.1316927
20	0x3c9de940	0.019276261
21	0xbd6d24aa	-0.057896294
22	0xbbdeb46e	-0.0067964112
23	0x3dec583e	0.11540268
24	0xbd539712	-0.051657744
25	0x3c371e1d	0.011176613
26	0x3bc7d3a4	0.0060982276
27	0x3db28e5a	0.08718558
28	0x3e0dd6ac	0.13851422
29	0x3e21d7b4	0.1580494
30	0xbde82a19	-0.113361545
31	0xbdcfffce	-0.10156213
32	0xbc97de74	-0.018538691
33	0x3d400950	0.04688388
34	0xbdaf991f	-0.085741274
35	0xbcc24ab9	-0.023717271
36	0x3e2b35dc	0.16719764
37	0x3dd345f2	0.103160754
38	0x3d589f34	0.052886203
39	0xbc3efb65	-0.011656617
40	0x3db4535b	0.08804961
41	0x3d8168b4	0.06318799
42	0xbdd1292f	-0.10212933
43	0xbdbb39a4	-0.091418535
44	0xbdeec342	-0.11658336
45	0x3dac0b92	0.08400644
46	0xbdce54a2	-0.10074736
47	0xbe1b25ce	-0.1515114
48	0x3d4b1b92	0.04958684
49	0xbe31eede	-0.17376277
50	0xbe1cd939	-0.15317239
51	0x3c24b823	0.010053667
52	0xbe096683	-0.13418011
53	0x3dbe32d5	0.09287039
54	0x3df9b811	0.12193311
55	0x3da89ad9	0.0823266
56	0xbdac7d8f	-0.08422386
57	0xbd607da9	-0.05480734
58	0x3d8fb938	0.070177495
59	0x3cd87dec	0.026427232
60	0xbe004583	-0.12526517
61	0x3bff168c	0.00778467
62	0x3dfc35bb	0.12314936
63	0xbd39b4b6	-0.045338355
64	0xbd74be0f	-0.059751566
65	0xbda12593	-0.07868495
66	0xbd903cfc	-0.07042882
67	0x3bacbe5c	0.005271716
68	0xbb7b5e5e	-0.0038355808
69	0xbd4ca0e7	-0.049958136
70	0x3ca162e1	0.01970047
71	0x3e247ad1	0.16062476
72	0x3e07527c	0.13215059
73	0x3e282f0e	0.164242
74	0x3d1a23c3	0.03763176
75	0xbe1a4f14	-0.15069228
76	0xba881c50	-0.0010384414
77	0xbe352eeb	-0.17693679
78	0xbe208bbf	-0.15678309
79	0x3d98f4d3	0.074685715
80	0xbdadf2af	-0.08493554
81	0x3d635644	0.05550219
82	0x3e1ba3cf	0.15199207
83	0x3e341ea6	0.17589816
84	0x3d6c86fd	0.057745922
85	0x3cf776c4	0.030207999
86	0x3d8385f5	0.06422035
87	0xbe077042	-0.13226417
88	0xbdd6080a	-0.10450752
89	0x3e0a0114	0.13476974
90	0xbe1245ae	-0.14284393
91	0xbe09d2c0	-0.13459301
92	0xbca77201	-0.020440103
93	0xbe31ba97	-0.17356335
94	0xbc91c3cc	-0.017793559
95	0x3a99ba90	0.0011728574
96	0xbdaa5eb9	-0.08318848
97	0xbb3ae2d8	-0.0028516557
98	0x3d1bb960	0.038018584
99	0x3e34abb6	0.17643628
100	0xbe2feccc	-0.17180175
101	0xbcf0be0e	-0.0293875
102	0x3e297473	0.16548328
103	0xbdcaef85	-0.09908966
104	0x3e349bec	0.17637604
105	0xbe10087c	-0.14065737
106	0xbd42690c	-0.04746346
107	0xbd17e685	-0.037085075
108	0xbdc7a20e	-0.09747706
109	0x3e140e5d	0.14458604
110	0xbb5b82d6	-0.0033494732
111	0xbd4e1865	-0.050316233
112	0xbd5c3f04	-0.053771034
113	0xbdc549d2	-0.09633221
114	0xbd85d509	-0.06534774
115	0xbda24a6f	-0.07924353
116	0xbdf853d6	-0.121253654
117	0xbd6aab21	-0.057292107
118	0x3ce47e9d	0.027892405
119	0x3dbf6245	0.09344915
120	0xbdc110b8	-0.09427017
121	0x3d85bd50	0.06530249
122	0x3d9ebbab	0.077506386
123	0x3e1a6539	0.15077676
124	0x3e02a565	0.12758406
125	0x3bc6bc28	0.0060649104
126	0xbca178d8	-0.019710943
127	0x3e0045cc	0.12526625
128	0x3dc6d0ba	0.0970778
129	0xbc9304f3	-0.017946696
130	0xbdc5378e	-0.09629737
131	0xbe1274ef	-0.14302419
132	0xbe0e0c02	-0.13871768
133	0xbc1b36b7	-0.009473494
134	0xbd4c0cbd	-0.049816836
135	0x3db6ddc3	0.089290164
136	0xbd859a9c	-0.0652363
137	0xbde02688	-0.10944849
138	0x3e074302	0.13209155
139	0x3d8d479e	0.068984255
140	0xbe00c74a	-0.12576023
141	0xbe0e01c5	-0.13867863
142	0x3e257f91	0.16161944
143	0x3de7940b	0.11307534
144	0xbe21edea	-0.15813413
145	0xbd8717da	-0.06596346
146	0xbd238798	-0.039924234
147	0x3aabad84	0.0013097976
148	0xbd126848	-0.03574398
149	0xbb6af8de	-0.0035853903
150	0x3c23fc93	0.010008949
151	0xbc832f32	-0.016013715
152	0xbdbafd35	-0.09130327
153	0xbda7611a	-0.081728175
154	0xbe1aaae1	-0.15104248
155	0x3e2130e9	0.15741314
156	0xbc195325	-0.009358202
157	0x3e111e8b	0.14171807
158	0x3e127333	0.14301758
159	0x3cd553ab	0.026040873
160	0xbe30621c	-0.17224926
161	0xbd88e372	-0.06684007
162	0x3ddbfad8	0.10741204
163	0xbdee88a7	-0.11647158
164	0x3db1dd4c	0.08684787
165	0x3df43b79	0.11925406
166	0x3db8ebb5	0.090293325
167	0xbdbc7ae6	-0.092031285
168	0xbd92208f	-0.07135116
169	0xbd862802	-0.065506
170	0x3e2f5219	0.17121162
171	0x3e04a4e7	0.1295353
172	0x3cf71db1	0.030165525
173	0xbe28cf92	-0.16485432
174	0x3d4abc43	0.049495947
175	0x3e034ba0	0.12821817
176	0xbd8be89d	-0.06831477
177	0x3d908db4	0.07058278
178	0x3e14230a	0.14466491
179	0xbe2fb570	-0.17159057
180	0x3e335093	0.17511205
181	0xbe1ce546	-0.15321836
182	0xbe208439	-0.15675439
183	0x3dc2709b	0.09494134
184	0xbe173040	-0.147645
185	0x3e0baac1	0.13639356
186	0xbe00e6d1	-0.1258805
187	0x3d01115b	0.031510692
188	0xbe023a02	-0.1271744
189	0xbe18297a	-0.14859572
190	0xbd52a08c	-0.05142264
191	0x3d9ee37c	0.07758233
192	0xbb709a5a	-0.0036713094
193	0x3e2d8ab1	0.16947438
194	0xbc0a83cc	-0.008454274
195	0x3dee47c9	0.11634786
196	0x3e1002f7	0.14063631
197	0x3da2f97d	0.07957742
198	0x3e0dfd8c	0.13866252
199	0xbd685437	-0.05672094
200	0x3dae57ba	0.08512826
201	0x3dcbfef7	0.0996074
202	0xbdb4333a	-0.08798833
203	0x3d585f3b	0.052825194
204	0xbda61086	-0.0810862
205	0xbcb7aed5	-0.022422234
206	0xbc041fa0	-0.008064181
207	0xbe2e1559	-0.17000331
208	0x3ddbe9a7	0.10737925
209	0xbce29461	-0.027658643
210	0x3cda6a03	0.026661878
211	0xbddd0d9f	-0.10793614
212	0x3e0a2c30	0.13493419
213	0x3dc6a91c	0.09700224
214	0xbd9c87cf	-0.07643091
215	0xbd472cea	-0.048626818
216	0x3e022602	0.12709811
217	0x3c73eac0	0.014887512
218	0x3e24ce29	0.16094269
219	0x3e097ebb	0.1342725
220	0x3e0cde0e	0.13756582
221	0xbdfc0e03	-0.1230736
222	0xbe11da5c	-0.14243454
223	0xbe2fcd08	-0.17168057
224	0xbdb60b49	-0.08888871
225	0xbe2ea3c5	-0.1705466
226	0x3dcc6809	0.09980781
227	0x3db50a88	0.08839899
228	0xbe2fb315	-0.17158158
229	0xbe10cefa	-0.14141455
230	0xbe1d8d94	-0.15386039
231	0xbd6a1e0b	-0.057157557
232	0xbd5d4b13	-0.054026674
233	0xbdb20201	-0.086917885
234	0xbe005ef1	-0.12536217
235	0xbd19ddde	-0.037565105
236	0xbdc35cf1	-0.095392115
237	0xbe1558d4	-0.14584666
238	0x3d46538c	0.04841952
239	0x3e336d8d	0.17522259
240	0x3c67c445	0.014145915
241	0xbdf8403d	-0.121216275
242	0x3d8b2a35	0.0679516
243	0xbd07ee73	-0.033186387
244	0x3e08678d	0.13320751
245	0xbd459715	-0.048239786
246	0x3cbd0c55	0.02307717
247	0xbe2531b2	-0.16132239
248	0xbda876ff	-0.08225822
249	0xbe189b9f	-0.14903115
250	0xbdf67a68	-0.12035066
251	0xbabffce0	-0.0014647506
252	0xbdb8e1b2	-0.09027423
253	0x3e250a55	0.16117223
254	0x3cee54f3	0.029093241
255	0x3c33b529	0.010968485

fc2.bias f4 [16]
0	0xbdb51ae7	-0.08843022
1	0x3e0828bd	0.1329679
2	0x3d212703	0.039343845
3	0x3c82ee96	0.015982907
4	0x3c564e62	0.013080211
5	0x3dc3e5b3	0.09565296
6	0xbc00c4ba	-0.007859403
7	0x3d759f4b	0.059966367
8	0x3d2f8888	0.042854816
9	0x3e275f04	0.1634484
10	0xbd8bd3b8	-0.068274915
11	0xbdaafeaa	-0.083493546
12	0xbdc061a6	-0.09393625
13	0x3e08d071	0.13360764
14	0xbcce0805	-0.025150308
15	0x3df1cb28	0.11806327

fc3.weight f4 [1, 16]
0	0x3d883c8e	0.06652175
1	0xbe12d7c8	-0.14340127
2	0xbe0fb57f	-0.14034079
3	0xbe07dc30	-0.13267589
4	0x3d715ae8	0.058924586
5	0x3e7f3ef4	0.24926358
6	0x3e69a120	0.2281537
7	0x3dab94f8	0.08378023
8	0xbe6ab267	-0.22919618
9	0x3e478a5b	0.19486372
10	0x3e57e1bc	0.21082205
11	0xbe37ba1a	-0.17942086
12	0x3e1f58e2	0.1556125
13	0xbd229110	-0.039689124
14	0xbe0be500	-0.13661575
15	0xbdf2cd5c	-0.118555754
