DRL_Nets6/actor_7_13.pth (torch, 5606 bytes, 5 tensors)

fc1.weight f4 [32, 5]
-0.12626599 0.26510972 -0.23416588 -0.16314681 0.053450305 0.4013874 -0.039003816 0.2734126
0.32673356 0.113251776 -0.4307261 0.18005994 -0.29471266 -0.07216559 0.290888 -0.4004479
0.44608465 -0.3313254 -0.2927087 -0.3690907 0.114672385 -0.057942748 -0.3878607 0.030340508
-0.1829824 0.23073158 0.27315414 0.14732029 0.261404 0.326303 -0.3270545 -0.3483488
0.3973855 0.30489743 0.21919763 -0.16846111 -0.30828163 -0.38981205 -0.43139955 0.30349678
0.105380155 0.37742844 -0.112943955 0.09221667 0.2914103 0.026758153 0.024114624 -0.20813116
0.3589751 0.36169508 0.12985203 -0.25421217 0.2845524 0.06274243 -0.24532713 0.39931476
0.1590589 -0.24377553 -0.10576475 -0.3140698 0.05271588 -0.13114612 0.13116083 0.2606924
0.34914282 0.20193636 0.19827388 0.11935574 -0.13185468 -0.11845876 -0.20397885 0.17461412
0.16078979 0.20498896 -0.38486797 0.42354658 -0.17671904 0.42965332 0.140811 -0.023975318
0.2807722 -0.20556574 0.28415033 -0.18713012 -0.09768403 0.15217984 0.3201697 -0.0034677333
-0.100008965 -0.009543277 -0.04877991 -0.16049513 -0.14044037 0.056734327 0.42992648 -0.21746893
-0.21175079 -0.061431594 -0.3844236 -0.17782387 0.43025434 0.2129109 0.17748167 -0.24704872
0.086276695 -0.31371385 -0.2561953 -0.16605636 0.3763421 -0.11859087 -0.24672027 -0.079496585
0.06729234 0.40312907 -0.0035766498 0.30158964 0.03833523 0.050491437 0.44083518 -0.24807562
0.20319831 -0.2930584 0.24919374 0.17857286 0.014447343 -0.18900287 -0.42701447 0.10712116
0.36908728 -0.23696253 0.18834527 0.051506445 0.36081395 -0.12451885 -0.40678513 0.28907475
-0.029977452 -0.39034978 0.29371104 0.17264163 0.2628607 -0.37071356 0.21141188 -0.05397026
-0.39419928 0.17672692 -0.4140422 0.29905674 -0.08782509 0.27338806 0.3155597 0.22238424
0.28728357 0.21206379 0.42613706 0.33476827 0.442198 0.27930862 -0.26690617 -0.017406212
00000000: df4b 01be 76bc 873e 2ec9 6fbe f50f 27be
00000010: b5ee 5a3d a682 cd3e 77c2 1fbd bcfc 8b3e
00000020: 9f49 a73e 8cf0 e73d 2288 dcbe a261 383e
00000030: 94e4 96be 8ecb 93bd 46ef 943e 8207 cdbe
00000040: 3565 e43e 7ca3 a9be eadd 95be 75f9 bcbe
00000050: 5bd9 ea3d 6055 6dbd ad95 c6be a88c f83c
00000060: bd5f 3bbe e644 6c3e dcda 8b3e 21db 163e
00000070: bfd6 853e 3011 a73e b073 a7be c65a b2be
00000080: 1d76 cb3e 841b 9c3e 5875 603e 1281 2cbe
00000090: 17d7 9dbe 7295 c7be 67e0 dcbe ee63 9b3e
000000a0: 8dd1 d73d 4d3e c13e 294f e7bd 18dc bc3d
000000b0: bb33 953e ea33 db3c 088c c53c 5620 55be
000000c0: 96cb b73e 1930 b93e eef7 043e 1928 82be
000000d0: dab0 913e 1a7f 803d 0937 7bbe fc72 cc3e
000000e0: 56e0 223e 4ba0 79be 309b d8bd c2cd a0be
000000f0: 9bec 573d 2b4b 06be 064f 063e 7979 853e
00000100: d9c2 b23e 68c8 4e3e 4f08 4b3e c870 f43d
00000110: ea04 07be 829a f2bd d5df 50be 0bce 323e
00000120: 14a6 243e a0e8 513e 6a0d c5be 19db d83e
00000130: d6f5 34be 85fb db3e c230 103e e367 c4bc
00000140: 60c1 8f3e d37f 52be 277c 913e 0a9f 3fbe
00000150: 910e c8bd 08d5 1b3e 48ed a33e e942 63bb
00000160: 80d1 ccbd 685b 1cbc 71cd 47bd d658 24be
00000170: 9acf 0fbe 4162 683d 531f dc3e 2db0 5ebe
00000180: 33d5 58be b29f 7bbd 2cd3 c4be 7617 36be
00000190: 4c4a dc3e 5105 5a3e c1bd 353e 57fa 7cbe
000001a0: d6b1 b03d 1a9f a0be 082c 83be ae0a 2abe
000001b0: e9af c03e c5df f2bd 3da4 7cbe 1bcf a2bd
000001c0: 91d0 893d ef66 ce3e 3a66 6abb f569 9a3e
000001d0: 6705 1d3d 1cd0 4e3d 26b5 e13e 8907 7ebe
000001e0: 3813 503e c00b 96be a52c 7f3e cedb 363e
000001f0: 8cb4 6c3c f889 41be a4a1 dabe 5762 db3d
00000200: 02f9 bc3e 4ea6 72be 95dd 403e 6cf8 523d
00000210: 9bbc b83e bd03 ffbd 2446 d0be 9b01 943e
00000220: 4693 f5bc eddb c7be 4b61 963e f8c8 303e
00000230: ad95 863e 2bce bdbe 5b7c 583e eb0f 5dbd
00000240: 7dd4 c9be e7f7 343e 57fd d3be f71d 993e
00000250: a4dd b3bd 85f9 8b3e 0a91 a13e b2b8 633e
00000260: d516 933e 4027 593e a32e da3e bf66 ab3e
00000270: c767 e23e 8a01 8f3e eda7 88be 7997 8ebc

fc1.bias f4 [32]
0.1625301 -0.059004083 0.26696098 -0.018222366 -0.027963644 0.42604455 0.3624523 0.060942136
-0.3651931 0.31320798 -0.27306888 0.3942516 -0.41014346 0.1456619 0.3135874 0.14311627
-0.14202347 -0.16106759 -0.14178218 -0.15490253 -0.08103079 0.20557076 -0.44118693 0.2835209
-0.32928607 -0.36589977 -0.07769581 -0.17895196 -0.21264766 -0.06835021 0.046619438 -0.18737105
00000000: 4a6e 263e 44ae 71bd 1caf 883e 1247 95bc
00000010: 0314 e5bc 8322 da3e 5993 b93e 769e 793d
00000020: 97fa babe cc5c a03e afcf 8bbe 59db c93e
00000030: 53fe d1be 6528 153e 878e a03e 128d 123e
00000040: 9a6e 11be e7ee 24be 592f 11be c59e 1ebe
00000050: 79f3 a5bd 2481 523e 41e3 e1be a729 913e
00000060: 2f98 a8be 3757 bbbe fb1e 9fbd 2f3f 37be
00000070: 4fc0 59be 32fb 8bbd 06f4 3e3d 32de 3fbe

fc2.weight f4 [16, 32]
-0.10517828 -0.1319032 -0.037962805 -0.12375246 0.08609579 0.07194383 -0.16448006 -0.00030786166
-0.15472282 0.02234533 -0.055828094 -0.16756223 0.12950607 0.14639364 -0.14741199 -0.07610783
-0.06585618 -0.0053319344 -0.11820644 0.02260348 0.15584159 0.023383198 0.15293005 0.0037215878
-0.11978271 0.0056540417 0.16344565 -0.013058463 -0.15781933 -0.14350839 -0.017074889 -0.15969995
0.019937715 -0.038362272 0.15873863 -0.16655764 -0.083205506 0.16606797 0.045524497 0.12495583
-0.1411947 0.13212804 0.055418003 -0.05077144 0.13033913 0.03347288 -0.06828849 -0.11631542
0.068820365 0.01704857 -0.01372451 -0.020226756 0.11396261 0.11709087 0.027262688 -0.08453252
0.17058355 -0.07110582 -0.07192665 -0.1688119 -0.10400091 -0.11856979 0.15736741 0.0819038
-0.057763834 0.12873265 -0.1284663 -0.06733629 -0.107587665 -0.1322767 -0.068169095 -0.15020455
-0.015238909 -0.09160504 0.025550157 -0.1700913 -0.06348314 0.093174584 -0.054906785 -0.038945775
-0.0050587384 -0.06963013 -0.042148028 0.007509915 -0.121814124 0.041607242 -0.028013408 0.01146154
-0.1571275 -0.034376193 0.0630528 0.14913283 0.14271791 0.17503226 -0.079895906 -0.056907434
-0.03617483 -0.03098415 0.028279355 -0.022241503 -0.16940352 -0.10883827 -0.17643528 -0.056000452
0.13152598 -0.08305403 0.17570104 0.16098294 0.15345608 -0.015939053 0.0464143 -0.15028448
-0.030245231 -0.13251902 0.0019485542 -0.15787232 -0.1412729 0.08864403 0.06292891 0.07803468
-0.02176872 -0.100063466 -0.1325306 0.08889925 -0.053659722 -0.0638613 0.12810235 0.10523252
0.16450624 0.11122199 0.15174383 0.010588953 -0.13696733 -0.08877131 0.013447879 0.14091012
-0.14144312 -0.07928119 0.1104103 -0.16408838 -0.17623472 -0.056612343 0.1585823 -0.014805851
0.054356683 -0.15371156 0.16966194 0.03810096 0.03214325 0.10594114 -0.045819756 -0.0013741769
-0.17621599 0.13656978 0.092100345 0.16497816 -0.101248614 0.15147299 0.10963246 0.0047341026
0.046921454 0.037753966 0.022952879 0.10244255 -0.066121936 -0.0016865482 -0.0075630834 -0.08419766
-0.042277228 0.024125425 -0.08502202 -0.09281098 0.15408361 0.10412811 -0.087875016 -0.017050339
0.06358469 -0.030257665 0.048117433 -0.013088577 0.090133265 -0.053748883 0.094928354 0.15258455
0.09938705 0.115509905 -0.094627954 -0.08924654 0.039363723 -0.027153844 0.061253447 -0.06304747
0.15701069 0.14204454 -0.1254257 0.14644009 0.08973424 -0.111138664 0.092954725 -0.04800128
-0.15550321 -0.0726905 -0.085310765 0.1665875 0.1684384 0.010945241 0.15490526 -0.15388112
-0.1578588 -0.06799547 -0.08462644 -0.108274095 -0.101877466 0.16990075 -0.021721115 0.10310518
-0.11063796 0.017068757 0.075733356 -0.14463195 -0.089098334 -0.01843189 -0.16310704 -0.08828825
-0.011478883 -0.034515675 -0.117654145 -0.09837656 0.0032847568 0.065942645 -0.08428326 0.14690876
0.15506853 0.12300724 0.06217421 -0.03564749 0.07131122 -0.04253559 0.07428047 -0.06188782
0.008712807 0.14584807 0.08986993 -0.044342887 -0.043223552 -0.17355655 -0.034491673 0.043142904
-0.15745972 0.01813054 0.11869248 -0.019388098 0.1381299 0.13475911 0.00983621 -0.06930284
00000000: b667 d7bd a211 07be e37e 1bbd ee71 fdbd
00000010: fd52 b03d 4957 933d 766d 28be 7e68 a1b9
00000020: a96f 1ebe 8e0d b73c 00ac 64bd 6f95 2bbe
00000030: 3d9d 043e 37e8 153e 2bf3 16be 6cde 9bbd
00000040: 9bdf 86bd 82b7 aebb 3816 f2bd ef2a b93c
00000050: f094 1f3e 1f8e bf3c b299 1c3e e2e5 733b
00000060: a350 f5bd 8a45 b93b 4c5e 273e 2af3 55bc
00000070: 649b 21be ddf3 12be a3e0 8bbc 6288 23be
00000080: 6b54 a33c c221 1dbd 618c 223e 168e 2abe
00000090: a667 aabd b90d 2a3e e577 3a3d d8e8 ff3d
000000a0: 5895 10be 934c 073e fdfd 623d b7f5 4fbd
000000b0: 9f77 053e dc1a 093d d6da 8bbd c736 eebd
000000c0: b1f1 8c3d 71a9 8b3c c4dc 60bc 95b2 a5bc
000000d0: 3b65 e93d 57cd ef3d 0056 df3c 631f adbd
000000e0: 74ad 2e3e ee9f 91bd 484e 93bd 07dd 2cbe
000000f0: 6efe d4bd b8d4 f2bd ec24 213e 2ebd a73d
00000100: c599 6cbd 7ed2 033e ab8c 03be 9ce7 89bd
00000110: ec56 dcbd 8b73 07be 3d9c 8bbd 39cf 19be
00000120: 9eac 79bc 6c9b bbbd 904e d13c 6a2c 2ebe
00000130: 7303 82bd 51d2 be3d f0e5 60bd 9b85 1fbd
00000140: c6c3 a5bb 3e9a 8ebd 69a3 2cbd bc15 f63b
00000150: af79 f9bd 5b6c 2a3d 607c e5bc 2fc9 3b3c
00000160: 08e6 20be 0dce 0cbd d421 813d 47b6 183e
00000170: a524 123e a83b 333e 77a0 a3bd c517 69bd
00000180: 0f2c 14bd 79d2 fdbc 1baa e73c d033 b6bc
00000190: 1e78 2dbe 99e6 debd 73ab 34be bb60 65bd
000001a0: bfae 063e 3b18 aabd f9ea 333e b6d8 243e
000001b0: 9723 1d3e 9e92 82bc ec1c 3e3d 2de4 19be
000001c0: d9c4 f7bc 11b3 07be a166 ff3a 48a9 21be
000001d0: d8a9 10be 008b b53d dfe0 803d a5d0 9f3d
000001e0: 5154 b2bc 13ee ccbd 1ab6 07be cf10 b63d
000001f0: 4cca 5bbd b7c9 82bd 432d 033e 2684 d73d
00000200: 5374 283e 5bc8 e33d bc62 1b3e 4a7d 2d3c
00000210: 2a41 0cbe bccd b5bd 7e54 5c3c be4a 103e
00000220: 77d6 10be 2d5e a2bd cc1e e23d c906 28be
00000230: e076 34be 58e2 67bd 6663 223e 3d94 72bc
00000240: 1da5 5e3d 9066 1dbe dcbb 2d3e c10f 1c3d
00000250: a4a8 033d abf7 d83d 7fad 3bbd ba1d b4ba
00000260: f771 34be f3d8 0b3e 1b9f bc3d 09f0 283e
00000270: 6f5b cfbd bc1b 1b3e fc86 e03d 8820 9b3b
00000280: b630 403d e7a3 1a3d ad07 bc3c 66cd d13d
00000290: f06a 87bd 2b0f ddba bed3 f7bb d36f acbd
000002a0: e32a 2dbd afa2 c53c 0620 aebd af13 bebd
000002b0: 18c8 1d3e 1e41 d53d d1f7 b3bd 27ad 8bbc
000002c0: b138 823d ecde f7bc c916 453d 7971 56bc
000002d0: ca97 b83d ca27 5cbd cc69 c23d 203f 1c3e
000002e0: 708b cb3d 7590 ec3d 4dcc c1bd e4c6 b6bd
000002f0: db3b 213d bd71 debc e5e4 7a3d 081f 81bd
00000300: 69c7 203e 2074 113e 986f 00be 64f4 153e
00000310: 96c6 b73d ab9c e3bd 0c5f be3d fd9c 44bd
00000320: 3c3c 1fbe c2de 94bd 69b7 aebd ea95 2a3e
00000330: 1e7b 2c3e ab53 333c 7c9f 1e3e 0393 1dbe
00000340: bda5 21be 3541 8bbd a150 adbd cfbe ddbd
00000350: 22a5 d0bd 76fa 2d3e 7bf0 b1bc cf28 d33d
00000360: 2896 e2bd c7d3 8b3c 171a 9b3d 661a 14be
00000370: 3079 b6bd 7afe 96bc 8805 27be 78d0 b4bd
00000380: ed11 3cbc 4f60 0dbd a8f4 f0bd a679 c9bd
00000390: 1345 573b f00c 873d b49c acbd 406f 163e
000003a0: 49ca 1e3e 38eb fb3d 62aa 7e3d 1a03 12bd
000003b0: 9e0b 923d cc39 2ebd 5c20 983d 157e 7dbd
000003c0: 29c0 0e3c 3259 153e ba0d b83d e3a0 35bd
000003d0: 2e0b 31bd cfb8 31be 2447 0dbd 9db6 303d
000003e0: 1f3d 21be 8086 943c 0b15 f33d cad3 9ebc
000003f0: ed71 0d3e 4bfe 093e 0e28 213c a6ee 8dbd

fc2.bias f4 [16]
-0.001904595 -0.070799686 0.16896929 0.17174697 0.07538693 0.138747 -0.08981004 -0.1558863
0.14374822 0.033499897 -0.009117396 0.0124812415 0.050656296 0.06823099 -0.11239966 0.12756917
00000000: 9aa3 f9ba 6dff 90bd 4906 2d3e 70de 2f3e
00000010: 7664 9a3d b213 0e3e 54ee b7bd a9a0 1fbe
00000020: bc32 133e 3037 093d 2161 15bc 1f7e 4c3c
00000030: fa7c 4f3d b0bc 8b3d cb31 e6bd 7ea1 023e

fc3.weight f4 [1, 16]
-0.1156227 -0.0277569 0.102261424 -0.07690588 -0.104518384 0.20267966 0.056280702 -0.10550481
0.17488721 0.084273726 -0.034588903 0.071229964 0.2277438 0.07298067 -0.13697484 -0.08519116
00000000: 98cb ecbd 7062 e3bc 706e d13d d480 9dbd
00000010: bc0d d6bd 428b 4f3e 9886 663d e812 d8bd
00000020: a215 333e b497 ac3d 18ad 0dbd 04e1 913d
00000030: ac35 693e e476 953d 2243 0cbe b478 aebd
