DRL_Nets6/actor_target_0_37.pth (torch, 5676 bytes, 5 tensors)

fc1.weight f4 [32, 5]
00000000: 0072 d3be ff6a debe b9f5 70be aaf1 11be
00000010: d6fe 9ebe ed1c 183e 2c0c 55bc b731 bebe
00000020: 3357 d93e ddf8 d33d 593e 7a3e aaf5 0cbe
00000030: c934 5ebc 9edc 3a3e 7d54 d6be 3351 693c
00000040: 35ae e93d e94f 2e3e 4486 aabe 975b bf3d
00000050: 5bfc 923e 849e cebe 8d71 b8be a8ad 843e
00000060: 8778 933e ad2f e03e 8850 28be 0b97 55be
00000070: 6792 dabe 9b44 003e c1d7 c63e 8e65 98bd
00000080: 9876 003d 321b ea3b 40ad 9f3e 59cf a63e
00000090: 52fc 313e a435 723e 8acb b03d c7c7 aabe
000000a0: 7c04 ef3d f162 bcbd 1199 363e 27d4 fe3d
000000b0: 2244 aebe 8106 9f3e 2887 943e 1356 2bbe
000000c0: 504f babe 7f56 02be 5cd8 95be 6221 f9bd
000000d0: 42dc aebe 4f6a 273e 579f e13d 578b 6e3e
000000e0: b143 83be 59cc b3bd 7215 b73e bc5d 2f3e
000000f0: 689c 7fbe 36bd b2be 9b31 c2bd 4980 c53e
00000100: 27d2 9b3e 3be2 de3e 3d79 843e f1fd cd3e
00000110: ac8b 823e a87f debe e1b0 e43e a402 d6be
00000120: b0d1 dabe 0f3b d53e d540 d83e c6b2 003e
00000130: d6fd 393e d036 11bc ecc6 613c 654a 3c3c
00000140: d582 b3be 29dc 853e 4655 813e b4c4 08be
00000150: 409d a4be 758a 093d 4dae bdbe 94e2 fd3d
00000160: 7706 813e c938 033d 6a79 45be 3c8d 56be
00000170: 310d 91be e7df ac3e b8ab 413e 50ee 80be
00000180: 511e aabd 9600 aebd e1ad 933e 19b7 e23e
00000190: 53fc c53e 558d 52be ca21 443d a1f0 bfbb
000001a0: 3256 67bc d5bf 553e f934 d7bc 7b73 df3e
000001b0: 21d7 a0be f8b5 e03d 3e8c 133d 4478 ccbc
000001c0: 0aa1 cebe a9bd d5be 742d d2be 4010 57be
000001d0: 0b7b dd3e 10dd 2dbe c3f0 453e 2708 bb3c
000001e0: d08f 453e 4481 7e3e bd2a b03e 430d 5e3d
000001f0: d3c3 96be 3e77 9a3d 92c5 8e3e 5d0a e43e
00000200: d21b 3ebb d801 803e de1d b03e f256 d43e
00000210: 7fb8 993e 61ef 4ebe 1680 9dbe e60a e1be
00000220: 8da1 86bd 4559 b0be a0e9 be3d dcb8 b3bd
00000230: 6bba b53e 2216 cbbc bac1 733e c109 1fbd
00000240: 63d6 cabc 68dc b33e efd7 2abe de14 853d
00000250: 04fa da3e 1b71 93be 60d0 443e 54a5 d03e
00000260: 7dcb e2be 2c33 873e 69cf 953d f346 c43e
00000270: 3761 c63d e323 c4be 3182 863e 5d9d 183e
-0.41297913 -0.43441007 -0.23531236 -0.14252344 -0.310538 0.14854784 -0.01300339 -0.37147304
0.4244934 0.10350201 0.24437846 -0.13765588 -0.01356239 0.18248221 -0.41861334 0.014240551
0.114101805 0.17022671 -0.33305562 0.09343641 0.28708157 -0.40355313 -0.36024132 0.2591374
0.28802893 0.43786374 -0.1643697 -0.208584 -0.4268982 0.12526171 0.38836482 -0.07441245
0.0313631 0.007144355 0.31186867 0.3258007 0.17381409 0.23653275 0.08632572 -0.33355543
0.11670777 -0.09198559 0.17831828 0.124428086 -0.34036356 0.3105965 0.29009366 -0.16732053
-0.36388636 -0.12728308 -0.29266632 -0.121645704 -0.34152418 0.16349147 0.1101672 0.23295341
-0.25637582 -0.087792106 0.3575855 0.171256 -0.24962008 -0.3490998 -0.09482118 0.38574436
0.3043377 0.43531975 0.25873747 0.40232804 0.25497186 -0.4345677 0.44666198 -0.4179889
-0.42738104 0.4164662 0.42236963 0.12568197 0.18163237 -0.008863166 0.013780337 0.011492346
-0.35060754 0.2614453 0.2526037 -0.13356286 -0.32151222 0.03357931 -0.37047043 0.12396732
0.25200245 0.032036576 -0.19284597 -0.20952314 -0.28330377 0.33764574 0.18913162 -0.25181818
-0.08306564 -0.084962055 0.28843597 0.44280317 0.3866907 -0.20561726 0.047883786 -0.0058575426
-0.014119672 0.2087396 -0.026270377 0.43642792 -0.3141413 0.10972208 0.036022417 -0.02495969
-0.40357238 -0.41746262 -0.41050303 -0.21002293 0.43257937 -0.1697886 0.19330125 0.022831036
0.19293141 0.24853998 0.34407607 0.054211866 -0.29446277 0.07542275 0.2788511 0.44539157
-0.0029008281 0.25001407 0.34397787 0.41472584 0.30023572 -0.20208503 -0.30761784 -0.43953627
-0.06573782 -0.34443107 0.09321904 -0.087754935 0.35493788 -0.024790827 0.2380437 -0.03882766
-0.02476043 0.35129094 -0.16683935 0.06498121 0.42768872 -0.2879723 0.19220114 0.40751135
-0.44295874 0.2640623 0.07314951 0.3833538 0.09686511 -0.3830863 0.26271203 0.1490378

fc1.bias f4 [32]
00000000: f710 a73e e4ef 0f3e 5203 3a3e dd6b b63c
00000010: c87a d7be ad7a dbbe 0b07 d2be ac6e 43bd
00000020: 01d3 0ebe 23e1 4fbd 2a37 cf3e 7340 353e
00000030: f3f0 3ebe 8cbc 8d3e 1cc0 1e3e 8bb8 6f3e
00000040: 784a bbbc ff67 883e 4f1b d73e 44c4 2fbe
00000050: f63d 863e b472 683e 2c14 693e 6c57 85be
00000060: 773a b83e c107 4dbe 2506 b6bd 7a64 d3bd
00000070: 3cb6 5fbe 6cb2 babe a255 813d 65a9 a1bd
0.3263013 0.14056355 0.18165329 0.02226823 -0.42085862 -0.42867032 -0.41020998 -0.047712967
-0.13947679 -0.050751816 0.40471774 0.17700367 -0.18646602 0.27682912 0.15502971 0.23410241
-0.022862658 0.26641843 0.42013022 -0.17164713 0.26219147 0.22700006 0.22761601 -0.2604326
0.35982105 -0.20022489 -0.08887891 -0.10321899 -0.2184686 -0.3646425 0.06315161 -0.078936376

fc2.weight f4 [16, 32]
00000000: 8f10 85bd f90b b23d 7691 f2bd ecbc 213e
00000010: 2fbc 05be f087 90bd a31a bdbd c01c 2e3e
00000020: b74f 673d 10d9 04be 154a ce3d 6588 0cbe
00000030: eaaf db3c 7315 f23d c8ee 24bd c01c c73d
00000040: d267 583d acc6 7e3d 9cbb babd 91fb cabd
00000050: 65ca 913c f756 3ebd da97 fcbc 032b 34be
00000060: dfdb cb3d 0029 dd3c c164 ebbd 58ca 283e
00000070: 2d16 f4bd 8851 033c 480d ef3d 330a 26be
00000080: ac32 323e 0e20 18bd e152 1dbd 06e0 ae3d
00000090: 400f 8c3d 01ce 60bd a310 dc3d e4ec 503d
000000a0: 4fd1 fdbd 5db5 d93d 0773 21be e0d1 423c
000000b0: 11d3 7dbd 086c 853d 29ba 67bd be91 debd
000000c0: 8729 29bc 1741 fcbc 968a 19bd f482 05be
000000d0: 0ead 333e a5da 29be 0840 6c3c bec9 983c
000000e0: d36c 15be f2e8 3b3d 32bf 0e3e 2c1e 8f3d
000000f0: e985 fe3b 262b e83d 23a0 283d dc68 dcbd
00000100: ef41 cf3d 9795 04be 416f e4bd 22e9 ee3d
00000110: 4cf0 f63d 1aba 003e 27f1 90bd 4b9c 0fbd
00000120: a9bb 01be dd0a 323e 5231 06be be34 993c
00000130: d02b 07be 6670 02be ac8c 06bd bed5 2b3e
00000140: 8aa4 233e df5a 163e 0292 293e bcbf 533d
00000150: 5e82 213d 05b8 e23d f88a 0cbe eba5 eb3d
00000160: 9e7d 5cbd 288b f2bd 20d4 1bbe dfc4 c43d
00000170: ccc4 16be 7ada 5bbd 605f 07be 508d 8f3c
00000180: 4577 283e 0a37 513d 4c5e d1bd 5be7 1cbe
00000190: e248 2d3e ba55 54bd 7155 7a3c 1255 12be
000001a0: 5d8c 63bd 508b 103e 6fce 9dbd d160 d93d
000001b0: 17eb f63d 2bc7 21be b7af 0cbe fd33 603d
000001c0: 72ca 9d3c addf 0f3e 23a4 8f3d 5c60 8abd
000001d0: cc03 a3bd 8916 19be 5c06 163e 02ef 00be
000001e0: 4114 a6bd 93f8 9fbc 5799 6a3d 1724 8a3c
000001f0: aac8 01be d6d6 ea3d 46e9 753c 1e89 d63c
00000200: 5860 143e 00cd 033e 6fbe 59bc e624 2e3e
00000210: e5b8 9e3d 9f31 e0bd ae6b 12bd 4fbc 04be
00000220: aa01 9e3c 03dc 27be 2355 123e 6516 2fbe
00000230: 3834 b3bd d756 7e3d 3c29 07be 6984 bcbd
00000240: 8700 54bc 6c3b 663c de39 22be d089 df3d
00000250: d464 10bd 7eaf 153e aa4c c43d 1629 8e3b
00000260: a54e 163e 8cc3 c0bd f4c0 163e 2172 e8bc
00000270: c22a eb3d a20c 813d eb55 013d bf46 c8bc
00000280: 2921 2f3e 4233 94bd a51e b1bd 0b77 1c3d
00000290: 8b30 3ebb c02a a13d 1c1c 1b3e f05c 103e
000002a0: f30d f5bd 5033 97bd 31da 9b3c 91aa c93a
000002b0: c0b5 82bd c1d2 e33d fc3d 1d3e b013 b5bd
000002c0: 8fa1 19be ab94 82bd b192 253e 009e f33d
000002d0: 02b9 873d 8464 253e 2ff7 a23d 3244 d3bc
000002e0: c0a1 0dbe f84f d73d c28a e7bd a04b f0bd
000002f0: 5054 c0bd fa36 163e d3f4 94bd ee5b d13d
00000300: 0a38 16be 5fcf bfbd b361 27bd 3747 8ebd
00000310: 0302 2dbe 9a70 8abd 054d 37ba 5812 bdbc
00000320: 2bd3 d53d 018b 2ebd cba0 2e3e 6459 85bc
00000330: eb6d f5bd cf59 ef3b 7c5b ac3d dc26 97bd
00000340: 920c f7bd ffd3 c0bd 49d7 99bd d843 da3d
00000350: ae2c 1ebe 1ad5 2dbd 216c bebd 108b 273c
00000360: cdfd 3abd 9d68 773d 94f2 423d 8fd8 0fbe
00000370: f938 98bd 098c 663d f108 7a3d 8741 17be
00000380: af2d 2bbe 4565 113e 37c1 fabd 9f59 203d
00000390: c741 8cbd dd17 1fbe b7e5 1b3e 2262 1a3e
000003a0: 57a9 373e 5642 efbd 49f9 1abc 3000 d0bd
000003b0: e7a3 053e 2953 103e 4974 073e ce15 02bd
000003c0: b750 ddbd 653d 2abe b93a 0a3e 6363 633d
000003d0: 2aea 54bd c894 a93c e956 3d3c 1718 46bd
000003e0: 5acd 75bd db62 e13d 5c1d 26be b3e5 34be
000003f0: 1df1 aa3d 3c60 1cbe 1155 d5bc d1e8 163d
-0.06497299 0.0869369 -0.11844151 0.15794724 -0.13060068 -0.07057178 -0.09233596 0.17003155
0.056472506 -0.12973428 0.10072724 -0.13723905 0.02681728 0.11820497 -0.040266782 0.097222805
0.052833386 0.062201187 -0.09117815 -0.09911264 0.017796705 -0.046469655 -0.030834127 -0.17594533
0.099540465 0.02699709 -0.11493827 0.16483438 -0.11918292 0.008015044 0.11672455 -0.16214828
0.17402142 -0.037139945 -0.038409118 0.08538823 0.06838846 -0.05488396 0.10745361 0.051007167
-0.12393438 0.106302954 -0.15766536 0.011890858 -0.061968867 0.06514746 -0.05657402 -0.10867642
-0.010324842 -0.030792756 -0.03748568 -0.13038236 0.17546484 -0.16587313 0.014419563 0.018650886
-0.14592294 0.04587645 0.13940123 0.06988177 0.007767428 0.11336355 0.041168343 -0.10762188
0.10119998 -0.12947689 -0.111540325 0.1166556 0.12057552 0.12570992 -0.07077246 -0.035061162
-0.12669243 0.17386957 -0.13104752 0.018701907 -0.13200307 -0.12738189 -0.032849 0.16780755
0.15980735 0.14683102 0.16559604 0.051696524 0.03943097 0.11070255 -0.13724887 0.11506256
-0.053830735 -0.11842948 -0.15217638 0.09607863 -0.1472351 -0.053675152 -0.13219976 0.017523438
0.16451748 0.05107788 -0.10223064 -0.1532263 0.16922334 -0.051839568 0.01527916 -0.14290264
-0.055553783 0.14115644 -0.0770539 0.106141694 0.120565586 -0.15798633 -0.13738905 0.05473708
0.019261573 0.1405017 0.070137285 -0.0675666 -0.079597086 -0.14950003 0.14650863 -0.12591174
-0.08109332 -0.01952771 0.057275143 0.016862912 -0.12674204 0.11466758 0.01500923 0.02618843
0.14489877 0.1287117 -0.013290032 0.17006263 0.077501096 -0.109469645 -0.035747223 -0.12962459
0.019287903 -0.16392522 0.1429029 -0.17098387 -0.08750194 0.062094536 -0.13199323 -0.09204943
-0.012939579 0.014052253 -0.15842387 0.109149575 -0.035252407 0.14617726 0.09584935 0.004338394
0.14678438 -0.094122976 0.14722043 -0.028374733 0.11482765 0.06301238 0.03157608 -0.024447797
0.17102493 -0.07236339 -0.08648423 0.038199466 -0.0029020633 0.07869482 0.15147442 0.14097953
-0.11965551 -0.07382834 0.01902494 0.0015385916 -0.06382322 0.111241825 0.15355676 -0.08841646
-0.15003036 -0.063760124 0.1616924 0.118953705 0.06627084 0.16151625 0.07957303 -0.025789354
-0.13831234 0.105133 -0.11305763 -0.11733174 -0.09391081 0.1466941 -0.07273259 0.10222612
-0.14669815 -0.09365725 -0.040864658 -0.06947177 -0.16895299 -0.06759758 -0.0006992373 -0.023080036
0.10440668 -0.042613033 0.17053525 -0.016277976 -0.11983856 0.007304407 0.08415887 -0.07380459
-0.120629445 -0.09415435 -0.075117655 0.106574714 -0.15446731 -0.042439558 -0.09297968 0.010226026
-0.0456522 0.0604025 0.04759462 -0.14047454 -0.07432742 0.05628589 0.061043683 -0.1477109
-0.16716646 0.14198788 -0.12243884 0.03914797 -0.068484835 -0.15536447 0.15224348 0.15076497
0.17935692 -0.116825745 -0.009458848 -0.10156286 0.13050805 0.14094223 0.13227953 -0.031759076
-0.10806411 -0.16624983 0.13498963 0.055514704 -0.05198113 0.020700827 0.0115563655 -0.048362818
-0.06001029 0.11005183 -0.16222137 -0.17665748 0.0834677 -0.15271086 -0.02604154 0.036843125

fc2.bias f4 [16]
00000000: a508 173e 07ec 20be b550 ddbd a3b2 c9bd
00000010: 77a6 053e 6779 c03d acd4 e1bd 9a84 01bd
00000020: c76b 29be 7e90 803d 21d5 c73d f631 b1bc
00000030: a276 4f3d ca0d 163d 7282 da3d fa18 123e
0.14749391 -0.15715037 -0.10806409 -0.098485254 0.13051783 0.09398156 -0.11026892 -0.0316206
-0.1654502 0.0627756 0.09757448 -0.021630269 0.050650246 0.036634244 0.10669412 0.1426734

fc3.weight f4 [1, 16]
00000000: 59b4 473e e0cd 73be 1816 5c3d 0b3d e9bc
00000010: e9cc 12bd 297f a53c 5cd7 743e d533 50bb
00000020: 8024 743e b9d7 57bd e876 5dbe 583d 233d
00000030: 406a d1bb 074b 643e 805e 5a3d d6b8 c1b9
0.19502391 -0.23809004 0.053732008 -0.02847149 -0.03583995 0.020202236 0.23910278 -0.0031769176
0.23842049 -0.052695964 -0.2162739 0.039853424 -0.00639084 0.22294246 0.05331278 -0.00036949542
