DRL_Nets6/actor_target_4_100.pth (torch, 5686 bytes, 5 tensors)

fc1.weight f4 [32, 5]
000000 3d b4 be bd 7c e6 2a be e7 27 21 3e 05 10 83 3e
       -0.093117215 -0.16689485 0.15737878 0.2559816
000010 df 79 80 3e fa eb ad 3d 6f 5b 62 be 9f 17 b7 3e
       0.2509298 0.084922746 -0.22105192 0.3576021
000020 b3 ff 0b be 57 3a 28 3e ee a4 e0 bb ee 25 a6 be
       -0.1367176 0.16428505 -0.0068555987 -0.32450813
000030 1e c3 b8 bd d1 de a4 be de bb d3 3e d6 8a 90 3d
       -0.09021591 -0.32201245 0.4135427 0.07057731
000040 a7 b0 a1 3c bd da 41 bd ec 10 44 be 38 96 99 bb
       0.019737555 -0.047327746 -0.1914708 -0.004687097
000050 04 5f c8 3e 78 10 8d 3d b9 98 44 3e b4 a6 4a 3e
       0.3913499 0.06887907 0.19198884 0.19790155
000060 83 4d c5 be 4e d0 92 3e ba f0 72 3e 9d 4e b4 3e
       -0.385357 0.2867455 0.23724642 0.35216227
000070 2f cd ca 3e ee c1 87 3d 85 73 23 3e bb 17 ce 3e
       0.39609668 0.06628786 0.15962036 0.4025248
000080 33 db 73 bd 96 e6 3a bd 8a 66 c3 bc 1f 3f 20 be
       -0.059535217 -0.04563006 -0.023852605 -0.15649079
000090 5a 6d 5c 3d f6 5a b0 3e 44 2f fd bd 4c 8d cb 3e
       0.053815223 0.34444398 -0.12362531 0.39756238
0000a0 b6 88 7c 3e 11 cc b3 be af 98 2d 3e ca c0 b1 be
       0.24661526 -0.35116628 0.16952775 -0.347174
0000b0 72 c4 3e be 63 44 b8 be 3e f3 8c 3e 76 21 d1 3e
       -0.18629625 -0.35989675 0.2752933 0.4084584
0000c0 97 b9 5e bd 89 53 77 3e f1 83 c2 be 30 91 35 be
       -0.05437621 0.2415296 -0.37991288 -0.17731166
0000d0 e1 df 24 3e cb cf e9 3d 25 f6 bd bd 04 f8 6e be
       0.16101028 0.114165865 -0.09275464 -0.23336798
0000e0 15 80 74 be 5c 27 b2 3e 91 dc dc be f2 57 dc 3d
       -0.23876984 0.34795654 -0.4313703 0.10758962
0000f0 2c 0d c2 3e 7a f1 99 be 69 33 8c be 8c 43 94 3d
       0.37900674 -0.30067044 -0.27382973 0.07239446
000100 56 d6 bb 3d bf f8 dd be ef 4f 91 be cb f7 ad be
       0.09171741 -0.4335384 -0.28381297 -0.33978114
000110 7e 3b 19 3e 82 fa 81 3d 04 a5 8e 3d ee 38 e3 be
       0.149641 0.06346609 0.06965068 -0.4437937
000120 18 22 1b be 10 85 b4 be 31 65 1a be a5 72 1c be
       -0.15149724 -0.3525777 -0.15077664 -0.15278108
000130 3d 6d 69 3d 3b 6a f5 3e be 26 0a be be 82 2c be
       0.056988943 0.4793261 -0.13491341 -0.16846749
000140 8e b8 f7 3e 9c e1 72 3e 84 76 c2 3e 36 c0 21 3e
       0.48382992 0.23718876 0.37981045 0.15795979
000150 a2 6f 83 be 89 aa a1 3e 2b 03 61 3e 1d 5e 70 be
       -0.25671107 0.3157542 0.21973865 -0.23473401
000160 f6 6f f8 bd 01 4e d5 3e 7e bf bb 3e d2 2b 10 3d
       -0.1213073 0.41661075 0.36669534 0.03519804
000170 88 78 3a 3e 69 df 7b be 6c 5c d7 be 40 e7 c3 be
       0.18210042 -0.24596943 -0.420627 -0.38262367
000180 5d 85 4d be b1 9f bc 3e f1 e1 3f bb 91 a6 16 3e
       -0.20070405 0.36840585 -0.0029278959 0.14711978
000190 bc f0 b9 be 8d f4 e0 3e d1 8c 26 be 7e 9b 13 3e
       -0.36316478 0.43936577 -0.16264655 0.14414784
0001a0 81 72 9e 3e 3e ed d1 3c cc 10 d7 be c9 eb cb 3e
       0.30946735 0.025625821 -0.42005002 0.39828327
0001b0 6f a4 ab be 29 25 4d be 25 d6 10 bd 66 82 62 3e
       -0.3352389 -0.20033707 -0.035360474 0.22120056
0001c0 40 0f be 3e fe 5d ea 3d 2c 54 c0 3e 49 5a bc be
       0.3712101 0.11443709 0.37564218 -0.36787632
0001d0 d4 eb a9 3e 78 11 d1 3d 38 2d ef 3e 13 6b d3 3e
       0.33187735 0.1020841 0.46714187 0.4129263
0001e0 1e 84 98 bd e6 a5 ae 3e 03 e0 de 3e 36 e9 9b 3e
       -0.07447074 0.34110945 0.43530282 0.30451363
0001f0 07 21 bd be d9 b2 d9 3e 16 84 92 3e 24 1e 80 be
       -0.3693926 0.42519262 0.286164 -0.25022995
000200 d4 2e 69 be 9d 9d 78 be c7 35 dd 3d 45 17 af 3e
       -0.2277177 -0.24278875 0.10801273 0.3419744
000210 f5 c5 20 3e d8 a0 cd be c7 8e b5 3e 32 3e 5e bd
       0.15700515 -0.40161777 0.35460493 -0.054258533
000220 82 0e cb be 9a fd e3 be 76 2f e6 3d 0f c1 03 be
       -0.39659506 -0.4452942 0.11239521 -0.12866615
000230 db a3 96 be 61 2e bc bd 87 03 24 be 07 67 d7 bd
       -0.29421887 -0.091885336 -0.1601697 -0.10517698
000240 b4 83 99 3d e6 fe 23 be 1e bb 89 be 74 30 d6 3e
       0.074958235 -0.16015205 -0.26900572 0.41833842
000250 73 ea ba 3e ec cc 3c bd b0 07 31 be 01 58 d6 be
       0.36506996 -0.046093866 -0.17288089 -0.41864017
000260 5f 88 19 be 90 37 b9 be 1f ee 0d be e4 73 b4 3e
       -0.14993428 -0.36175203 -0.13860367 0.35244668
000270 7f 88 5e be 4f 9d 86 be 81 b7 b2 bd d8 4c 41 3e
       -0.21731757 -0.26291892 -0.08726407 0.1887697

fc1.bias f4 [32]
000000 25 9e d8 be a4 ba f3 3e f8 a5 8d be 49 9d f2 3c
       -0.42308155 0.47603333 -0.27665687 0.029616015
000010 39 19 80 bd 67 11 93 be 26 11 04 be b3 a9 ad be
       -0.06254811 -0.28724214 -0.12897167 -0.33918533
000020 ec b0 b5 be 3c 08 2b bd 43 ba c8 3e fa db dc bd
       -0.35486543 -0.0417559 0.39204606 -0.10784145
000030 61 dc a7 be c5 c1 d7 3e 48 dc 62 bd 63 ed a5 be
       -0.32785323 0.42140022 -0.055385858 -0.32407674
000040 38 75 97 be 35 bc 35 3e 8c 91 92 3e 93 e1 0f 3e
       -0.29581618 0.17747577 0.28626668 0.14050893
000050 37 27 8a 3e 0b c9 5b 3e 29 1c 4c 3e 7b 63 06 3e
       0.26983044 0.2146341 0.19932617 0.13123886
000060 41 d3 c9 3e 0e 0a a4 3e 1b 3c b2 be 41 96 60 3e
       0.39418986 0.3203892 -0.34811482 0.21932317
000070 69 f8 c2 be a5 83 c8 3e 5d ea ae be 38 af 76 3e
       -0.38080147 0.39162937 -0.3416318 0.24090278

fc2.weight f4 [16, 32]
000000 83 a0 42 3b ab 26 24 3e a6 67 a9 3d 6e da ce 3d
       0.0029697723 0.16030376 0.082717225 0.10100256
000010 b8 28 10 3d 53 d9 0b 3e b9 77 00 3d 1d ba 9d bd
       0.035195082 0.13657121 0.031364176 -0.07701514
000020 1b 08 40 bd 11 80 ee 3d f6 0f 1a bd 40 39 23 3e
       -0.04688273 0.116455205 -0.037612878 0.15939808
000030 a5 ed 16 3e f6 50 f1 bc 3e 70 16 3e 26 03 8c 3d
       0.14739092 -0.02945755 0.14691254 0.06836538
000040 fd da ab 3c d0 46 d7 bd d4 37 20 3e 59 36 c4 bd
       0.020978445 -0.10511553 0.15646297 -0.095806785
000050 63 a4 03 3e b8 64 64 3d 5c ec 9f bc a1 3b 2a 3e
       0.12855677 0.055760115 -0.019521885 0.16624309
000060 c5 e8 fa 3d 46 f7 ee bb 9a d7 3a 3e c9 c3 c5 3d
       0.122514285 -0.007292661 0.18246308 0.09656484
000070 54 ae 6b bc 5c 10 71 bb 31 d5 c2 bb 5a ea f6 bd
       -0.014384825 -0.0036783433 -0.0059458246 -0.12056418
000080 30 6d 16 3e a2 c3 7e 3d 25 e0 5e bd 2f 6c bf bc
       0.14690089 0.06219829 -0.05441298 -0.023367016
000090 9b c9 d3 3d 1c 88 e9 3d cd 5e 1c be a1 51 00 3d
       0.103411876 0.11402914 -0.15270539 0.031327847
0000a0 9a ba 4a bc 62 f3 18 be 24 6c 9a 3d 9c ae a5 bd
       -0.012373591 -0.14936593 0.075401574 -0.08089945
0000b0 47 53 89 3d 7b 88 81 39 bb 1b 85 3c 07 c1 48 bd
       0.06705337 0.00024706483 0.016248574 -0.04901221
0000c0 4c 45 eb bc d4 00 4c bd 9b e2 fa 3d d6 e4 dc 3d
       -0.028719567 -0.049805477 0.12250253 0.107858345
0000d0 c5 31 da 3d cd 5b 89 bd df 3f 0e be de 93 7c 3d
       0.10654024 -0.06706963 -0.13891552 0.061664455
0000e0 b8 c8 a1 bd 7b 55 d4 3d 0b e1 30 be 37 57 1e 3e
       -0.07899612 0.103678666 -0.17273347 0.15462957
0000f0 c8 38 86 bd e1 b1 01 3e 56 13 74 3d 09 b8 96 bc
       -0.06553799 0.12665512 0.059588753 -0.018398302
000100 c6 60 17 3e 05 3a e4 3d 26 fb 8e 3d bd ce ba 3c
       0.1478301 0.11143879 0.069814965 0.022803659
000110 96 87 ef bd 6a 8c 3f 3c 0b 16 0e be 83 0a 0d 3d
       -0.11695783 0.011691192 -0.13875596 0.034433853
000120 f6 60 1e be 68 14 7c bd c1 9a 9a 3d fb ef b8 bb
       -0.15466675 -0.0615429 0.07549048 -0.0056438423
000130 13 23 f3 3c ab dc 34 bd 44 d5 e6 3d 0e cc 03 3e
       0.02967981 -0.044155758 0.11271146 0.1287081
000140 b9 16 a2 bd 21 39 07 3e 4f 6a d7 bd 05 8e b9 ba
       -0.0791449 0.13205387 -0.10518324 -0.0014156705
000150 24 15 da bc 8e 60 e1 3d 58 6e 04 3e b6 18 a8 3c
       -0.026621409 0.110047445 0.12932718 0.020519596
000160 f0 f5 8d 3d 77 72 09 3e 62 c4 c8 bd 9c 44 35 bd
       0.069316745 0.13422571 -0.09803082 -0.044254884
000170 35 53 aa bc 5a e3 8c bd 93 0f f3 bd 78 75 08 be
       -0.02079163 -0.06879301 -0.11868205 -0.13326061
000180 2b db 05 3d 95 33 67 3d f6 5c 6f bd 9f 12 14 bd
       0.032679718 0.056445677 -0.058438264 -0.03615057
000190 46 01 34 be 2a bd d8 bd f7 dc e5 3d b5 af 41 3d
       -0.17578611 -0.10582955 0.11223786 0.047286708
0001a0 46 b5 0f 3e 00 99 c9 bd ad f3 22 bd c6 7b 61 bd
       0.14033994 -0.098436356 -0.03978317 -0.05504968
0001b0 74 85 e1 3d 72 cb 2d bd 49 63 0b bc dd 6e 0e bc
       0.11011782 -0.04243035 -0.008507558 -0.008693424
0001c0 41 22 e1 3c 0c 63 a6 bd da 05 0c 3e c8 09 0b 3e
       0.027482154 -0.081243604 0.13674107 0.1357795
0001d0 a0 80 0b 3d 34 0b f8 3d 2c 2b 98 bc b3 d4 e9 bc
       0.034058213 0.12111512 -0.018575273 -0.028543806
0001e0 36 6b 01 be 3e 5f 98 3d ae 29 a2 3d 3a 51 fd 3d
       -0.12638554 0.07440041 0.07918106 0.12369008
0001f0 cb 3a 17 3e c7 5f 45 3d 5e ea 94 bd 14 a3 9e bd
       0.14768521 0.048187044 -0.072712645 -0.077459484
000200 9f 74 2b be d5 ed b9 bc cf d5 26 3e 00 d5 f5 3d
       -0.16743706 -0.022696415 0.16292499 0.12003517
000210 4d 91 aa bc 8d a4 99 bd 46 df 1b 3d 8b c0 1d 3e
       -0.020821238 -0.07502089 0.038054727 0.1540548
000220 c7 56 99 bd d6 59 df bd 4e fa e5 bd 89 75 1f be
       -0.074872546 -0.10905807 -0.112293825 -0.1557218
000230 d9 e8 ce bd a0 a2 e9 3b 03 57 08 bd 2f 26 f2 3d
       -0.10103006 0.007129982 -0.033286106 0.11823689
000240 b3 78 12 be ec 2c 2b be 0d 5d 4a 3d c3 5f 23 3e
       -0.14303856 -0.16716355 0.049405146 0.15954499
000250 36 d5 19 3e 41 b9 17 3e 11 5b d4 bd 07 95 b0 bc
       0.1502274 0.14816763 -0.10368932 -0.021555437
000260 44 9d f4 bd cb 48 5a 3d f2 fb ef bd 39 e6 60 bc
       -0.119440585 0.053292077 -0.11717977 -0.013726764
000270 3a 26 74 3c f3 76 34 be 17 2e 25 3e c7 3a df bc
       0.014901692 -0.176235 0.16130863 -0.027249707
000280 d1 ef b1 bb ec 5d 85 bd 7e d2 1f bd 7f f1 06 3e
       -0.0054301997 -0.06512055 -0.0390191 0.13178061
000290 68 a8 21 be 95 a9 09 be 35 46 f3 bd a4 b5 09 be
       -0.15786898 -0.13443597 -0.11878625 -0.13448197
0002a0 d4 a6 fd bd 61 d3 8b bc ce 50 29 3d 1d 4a 34 be
       -0.123853356 -0.017068567 0.041336827 -0.17606397
0002b0 80 8b 22 be e2 70 1f 3e d1 75 53 3d de 2b 1b bd
       -0.15873528 0.15570405 0.05162603 -0.037883632
0002c0 37 59 32 be 0c d7 f9 3d 8b 0f 02 be e0 c7 33 3e
       -0.17416845 0.1219922 -0.12701242 0.17556715
0002d0 7e 7a 92 bd a7 cc 1d 3e e1 ad 2b 3e 58 86 21 bd
       -0.0715227 0.154101 0.16765548 -0.03943476
0002e0 9a a9 e4 bd c9 92 0c be e0 49 08 3e 57 bf 2d 3c
       -0.111651614 -0.13727869 0.13309431 0.010604701
0002f0 42 3b 25 bd f4 15 ec 3d 2f 77 82 3d 7a f3 32 be
       -0.040339716 0.11527625 0.06370389 -0.17475691
000300 25 0c bf 3c 37 6b 00 3e 9e 3a 27 bd dd 69 50 3e
       0.02332122 0.12540899 -0.040827386 0.20352884
000310 03 c7 ed bd cd f6 cb bc e2 3f ef 3d ea d2 d8 3d
       -0.11610224 -0.024897957 0.116821066 0.10587104
000320 2b de a8 3d 74 fa de bd 8d 92 a8 3d b2 42 2d 3e
       0.082455 -0.10887614 0.08231077 0.16919973
000330 a5 52 a4 bd c2 a7 01 3e 5a c6 d6 bd 68 bb c1 3d
       -0.08023576 0.12661651 -0.10487051 0.09459573
000340 37 c2 27 3e 0e f4 52 3c 0a 11 0f bd 80 d0 d2 bd
       0.16382681 0.01287557 -0.03492836 -0.102936745
000350 c4 d4 81 3d 3c ca a2 bd 00 62 f4 3c 4b 0d ff bd
       0.0633941 -0.079487294 0.029831886 -0.12453707
000360 25 a2 38 bd 3d 76 e4 bc 64 a8 93 3d 83 4f 8e 3c
       -0.045076508 -0.027888412 0.07209852 0.017371899
000370 31 54 06 be 52 57 2d 3e cc 2d 65 bd f3 fd 05 be
       -0.13118054 0.16927841 -0.05595188 -0.13085155
000380 a2 e1 bb 3d c2 99 d1 bd 0b 68 58 bc 13 75 e9 bd
       0.091738954 -0.10234405 -0.0132083995 -0.11399283
000390 36 9a 97 3c 03 a2 b1 3d aa aa a3 bd a3 fd 00 be
       0.01850615 0.086734794 -0.07991536 -0.12596755
0003a0 7d 49 2e bc c8 9d 2d bb 86 77 63 bd c2 f0 f9 3c
       -0.010637638 -0.002649175 -0.05553391 0.03051031
0003b0 96 d0 36 3e bf d2 5e bd 36 cb cc 3d b1 6a 3d 3e
       0.17853007 -0.054400202 0.09999697 0.18497731
0003c0 db 6e 02 3e a9 5e 02 be d9 ea b6 3d 4b 0d 17 3e
       0.127376 -0.12731422 0.089315124 0.14751165
0003d0 1c 2c 83 bd 32 b9 16 be 1e f7 1d 3e 69 8f c8 3d
       -0.064048976 -0.14719084 0.15426299 0.09792978
0003e0 c9 d2 08 be ec ac 65 3d 7b 09 3a bd 8e 67 c0 3d
       -0.13361658 0.056073114 -0.045419198 0.093947515
0003f0 16 20 0b be 97 4f cb 3d 15 3f 0c 3e d8 97 5b 3d
       -0.13586459 0.0992729 0.13695939 0.053611606

fc2.bias f4 [16]
000000 58 f6 c3 bd 25 30 cf bd a6 df 06 be 38 57 8e bd
       -0.09568471 -0.10116605 -0.13171253 -0.069502294
000010 a1 73 ba 3d 7a 4e 7f bd e1 85 9d 3d 62 b7 6f bd
       0.09104086 -0.0623307 0.07691551 -0.058524497
000020 0b 89 3d 3d 01 8c 30 3e dc ae 6f bd 29 54 0d be
       0.046273272 0.17240907 -0.05851637 -0.13801636
000030 38 83 fa bd 54 e5 08 3e d5 59 94 3d 95 58 9f bd
       -0.12232059 0.13368732 0.072436966 -0.077805676

fc3.weight f4 [1, 16]
000000 ca 48 05 be bd 7f 5d 3d 2a 33 f6 3d 0a a6 0b 3e
       -0.13016048 0.0540769 0.120214775 0.13637558
000010 88 c2 b9 3d 10 f3 88 bd fd b8 56 be f0 f1 03 be
       0.09070307 -0.066869855 -0.20969005 -0.1288526
000020 59 ce 6d be db 3e 73 be 5a f2 1d 3e bc 3f af bd
       -0.23223247 -0.23754446 0.15424481 -0.08557078
000030 e8 e2 80 bd 8c ae 56 3e 73 6d 17 3d ac 47 16 be
       -0.06293279 0.20965022 0.036969613 -0.14675778
