DRL_Nets6/actor_target_9_51.pth (torch, 5676 bytes, 5 tensors)

fc1.weight f4 [32, 5]
000000 08 ee 8f be 57 ec 63 3e 84 00 c0 be 9a eb 97 be
       -0.2811129 0.22258125 -0.37500393 -0.29671937
000010 0e c2 93 3e f8 66 b9 be 8b 3a 6c 3e 97 c2 b8 bd
       0.2885899 -0.3621137 0.23069207 -0.0902149
000020 c3 b0 7b be 47 e7 cd be f5 4e 0b be 67 9e 7a 3d
       -0.24579148 -0.40215513 -0.13604338 0.06118622
000030 25 d9 30 3e fd 1d a1 bd 2f 24 87 3e 56 81 57 bd
       0.17270334 -0.07867048 0.26394793 -0.05261358
000040 74 37 90 3e e6 b5 d1 be a4 4c 37 3e 58 ef 2a be
       0.28167307 -0.4095909 0.1790033 -0.16692865
000050 a0 a1 53 3e bd cd f5 bd e9 91 bb 3e e2 38 ed bd
       0.20667124 -0.12002132 0.36634758 -0.11583115
000060 c1 7a b2 3e b3 7f 99 bd 83 30 cd bd c1 3a ab 3e
       0.3485928 -0.0749506 -0.100190185 0.33443263
000070 74 a0 8d 3e 7f f4 9a be 4f 53 a6 be ce 94 63 3e
       0.2766148 -0.3026466 -0.32485434 0.22224733
000080 93 cb c7 be b7 27 4b be 06 e0 1d be 3b 92 f0 bb
       -0.39022502 -0.19839369 -0.1541749 -0.007341651
000090 38 4c be be 5e 63 21 be 5f 72 b5 3d 42 c2 94 be
       -0.37167525 -0.15760562 0.08859705 -0.29054457
0000a0 25 ab da 3e 59 28 57 3e 3f 15 90 be 89 f0 3f 3e
       0.42708698 0.21011485 -0.2814121 0.187441
0000b0 a5 69 41 be fa 61 92 3c b2 6a e6 be d7 20 01 3e
       -0.18887956 0.017868984 -0.45003277 0.12610184
0000c0 21 2b 8e be 2c 9a 83 3e 87 b6 74 be b3 4a b3 3e
       -0.2776728 0.2570356 -0.23897754 0.35017928
0000d0 d6 39 76 3d b0 34 b1 3e 9f 06 6f be b3 4c 29 be
       0.06011375 0.3461051 -0.2334237 -0.16533165
0000e0 23 77 e3 be 0b b6 e4 be ca 35 af be 10 d8 cf 3e
       -0.44426832 -0.44670138 -0.34220725 0.4059453
0000f0 99 42 22 be 33 02 c5 3e 10 96 0d 3e 92 3f 81 bd
       -0.15845717 0.3847824 0.13826776 -0.06310953
000100 96 c1 d2 3d 89 9a 47 3e 78 0b b7 be fe b1 d7 3e
       0.1029083 0.19492544 -0.35750937 0.42127985
000110 27 2c 8f 3e 19 ea 5f 3e f1 74 a7 bb 40 06 8d 3e
       0.27963373 0.21866645 -0.005110376 0.2754383
000120 74 b4 b9 3e 17 77 d4 be f7 19 41 3e fa 16 cf 3e
       0.36270487 -0.41497108 0.18857561 0.40447217
000130 f2 7f 92 3d 95 54 b2 3e d1 c2 91 be 83 e5 3c 3d
       0.0715331 0.34830156 -0.28468946 0.046117317
000140 aa 41 c7 3e 40 e6 a8 3e 69 69 af 3e fe c4 5c 3d
       0.38917285 0.32988167 0.3426011 0.053898804
000150 e7 d7 0d be b0 33 3b be 85 b6 a6 3d a1 a5 3b be
       -0.13851891 -0.18281436 0.081402816 -0.18324901
000160 9f 56 aa bd 28 fc 33 3c b8 af e7 3e 26 2c bd 3e
       -0.08317303 0.010985412 0.4525125 0.36947745
000170 99 6f 9a bc 42 36 ab 3e e8 de 95 be 5f a7 dc 3e
       -0.018852042 0.33439833 -0.29271626 0.43096444
000180 03 95 5c be e1 d0 06 3e c0 51 3a be dc e1 ba bb
       -0.21541218 0.13165618 -0.18195248 -0.005703194
000190 03 13 b1 3e 73 81 1f 3d 15 5e 97 3e 17 e4 c1 3e
       0.34584817 0.03894181 0.29563966 0.3786933
0001a0 ef 73 a5 3e 65 19 30 be fe 78 d2 bd 59 a4 3e 3e
       0.32315013 -0.17197187 -0.10276984 0.18617381
0001b0 bd b6 25 3e e7 1c d7 3d 97 ab 5d be fc 84 9e be
       0.1618299 0.105035596 -0.21647488 -0.30960834
0001c0 bf 99 6f 3e 8e fe 5a 3e db f0 03 3e c8 b6 70 bd
       0.23398493 0.21386167 0.12884848 -0.058768064
0001d0 57 ec 0c 3d 18 a4 a2 3e d9 70 6a be 6f 5a 8f be
       0.03440508 0.3176582 -0.2289461 -0.27998683
0001e0 d7 12 e5 3e 88 71 a3 3e 02 7b 59 be 15 14 78 be
       0.44740936 0.31922555 -0.2123833 -0.2422641
0001f0 cd 6f e4 3d 4f bd ab 3e 78 4f 75 3d 57 29 aa 3d
       0.11154137 0.33542868 0.05989024 0.08308666
000200 0f 4a f7 3c c8 e6 82 bd af cc cc 3e 3e 86 b7 3e
       0.030186681 -0.06391674 0.3999991 0.35844606
000210 82 92 1d be 0e 71 c6 3d 89 33 e5 be 31 01 43 3e
       -0.1538792 0.09689532 -0.4476588 0.19043423
000220 b7 ab 81 be 15 35 b4 3e 9a a4 cd bb 45 a0 a7 3e
       -0.2532632 0.35196748 -0.0062757256 0.32739463
000230 f2 a5 67 3e 9f 20 a2 3e 37 fa 87 3e 69 eb 49 be
       0.22621897 0.31665513 0.26558086 -0.19718708
000240 39 7c b5 3e 8b c4 ba be 86 8d fb 3c 0e 57 db 3e
       0.35446337 -0.36478075 0.030707132 0.42839855
000250 47 56 c3 bd 18 96 22 3e 8d 7c e7 be 5a 48 da bb
       -0.095379405 0.15877569 -0.45212212 -0.006661457
000260 3d 84 53 3d ad ce cb 3e c6 30 96 bd a1 1d 1c bc
       0.051639784 0.3980612 -0.073335215 -0.009528548
000270 30 70 9c be d5 4c ba 3d af 7b 82 be 80 72 99 be
       -0.30554342 0.09096686 -0.25484988 -0.2997017

fc1.bias f4 [32]
000000 0f 7f 95 bd 4a 48 7a be ab ec 52 be 47 f1 69 3e
       -0.07299625 -0.24441639 -0.20598094 0.22845946
000010 4f 2a 20 3e 10 a4 21 3e c8 41 e0 3b 70 2d 58 3e
       0.1564114 0.15785241 0.0068437792 0.21111083
000020 a8 0c 41 be b5 cd 83 be 75 b9 b0 3e 5d 4c bc be
       -0.18852484 -0.2574288 0.34516492 -0.3677701
000030 25 32 3e be 81 41 16 be 1a b8 03 3e 39 9f 88 be
       -0.18573816 -0.14673425 0.12863198 -0.26683977
000040 67 3a 79 3e 0d 17 32 be 42 e9 94 be ed b4 7f be
       0.24338685 -0.17391606 -0.29084212 -0.24971361
000050 9d f0 8c 3e be ea 94 be bf 3f 85 be 68 a0 86 bc
       0.27527323 -0.29085344 -0.26025197 -0.01643391
000060 44 f6 48 3e 98 cb cd 3e e2 c0 c4 be 91 6a 7f 3d
       0.19625193 0.40194392 -0.38428408 0.06235749
000070 8d 96 cd 3e 0b dd a6 3d e7 7d 85 3e 6b 47 b0 3e
       0.40153924 0.08147629 0.26072618 0.34429488

fc2.weight f4 [16, 32]
000000 eb 49 b4 3c fe 2f 33 3e 73 1e d7 3d cb 60 27 be
       0.022007903 0.17498776 0.105038546 -0.16345517
000010 a8 bc 10 3e 84 73 b4 bd 74 30 4b 3c 08 ef 92 bc
       0.14134467 -0.08811095 0.012401689 -0.017936245
000020 c4 28 c2 3d f9 6c 27 3e f8 0c 1c be 1b b0 12 be
       0.09480432 0.16350164 -0.15239322 -0.14324991
000030 45 3d 25 bd 5b 2d b7 3d 29 3d 5c 3c 1b 1b 0c 3c
       -0.040341634 0.08944198 0.013442316 0.008551384
000040 df b0 27 3d 82 fd 4c 3d 65 ea 93 bd a9 5d 24 be
       0.04094016 0.05004645 -0.072224416 -0.16051354
000050 e3 a2 20 3e 25 98 07 be f8 8b 34 bd 66 e2 c3 3d
       0.15687136 -0.13241632 -0.044078797 0.095646665
000060 57 71 30 bd 6f c2 6b bd 0a fb 0e be 32 c1 20 be
       -0.04307684 -0.057558473 -0.13962951 -0.15698698
000070 b8 0b a9 bd 5b 15 37 3d 04 0c b6 bd 05 81 e4 bd
       -0.08254188 0.0446981 -0.088890105 -0.11157421
000080 66 43 92 bd d3 ed f5 3d bc 82 03 be 37 1c 92 3d
       -0.071417615 0.12008252 -0.1284284 0.07134288
000090 3b 0f 23 3d 7e 11 7a 3d c0 83 27 be 3f c1 7b 3b
       0.039809447 0.061051838 -0.16358852 0.0038414744
0000a0 1b ca 5a 3d 07 27 c1 bd 0b e4 8f bd 28 fe 00 3e
       0.0534154 -0.09431272 -0.070259176 0.12596953
0000b0 52 76 95 bd c9 7d 9e bc 38 b7 8d bc 6b 2e f1 bd
       -0.072979584 -0.019347088 -0.01729928 -0.11776432
0000c0 3e 2b c2 3d 77 17 29 be d0 d8 32 be 3a 88 6c bd
       0.09480904 -0.16512857 -0.1746552 -0.057747103
0000d0 cb 32 eb bd 96 4b 2c be 47 36 f5 bd af c0 31 3e
       -0.11484297 -0.16825709 -0.11973243 0.17358659
0000e0 a4 33 9c bd 53 db c4 3b ec 65 a6 3c b3 e8 31 be
       -0.07627037 0.006007591 0.020312272 -0.17373924
0000f0 da 19 0b be 3a df 97 bd 0c 75 8f 3c d8 79 aa bd
       -0.1358408 -0.07415624 0.017511867 -0.08324021
000100 27 c0 93 bd dc 1a 9f bd b8 22 2e be 27 ea 05 3d
       -0.072143845 -0.07768795 -0.17005432 0.03269401
000110 8f 68 41 bd 2b 08 3e 3d ec 6a ac bc 8a 01 b6 bd
       -0.047218855 0.04639451 -0.021047078 -0.08887012
000120 02 70 99 3d 1c 4d 6e bd ca 13 f0 bd 93 6b e2 3d
       0.07492067 -0.058179006 -0.117225245 0.110556744
000130 8e 66 e6 bc f6 4e 01 be 24 6f 1a 3e 5f 17 9a 3d
       -0.028125074 -0.12627777 0.1508146 0.07523989
000140 db 50 94 bd 1c 13 27 be d6 73 04 3e 59 5b ce bd
       -0.072419845 -0.16315883 0.12934813 -0.10076017
000150 e3 b9 ab bc 95 93 24 3e 3c f7 04 3c 06 48 05 be
       -0.020962661 0.16071923 0.008115586 -0.13015756
000160 50 74 36 bd d0 dc 01 3d 14 e4 07 bd d1 81 d8 3d
       -0.044544518 0.031704724 -0.033176497 0.105716355
000170 46 fd 16 bd a9 a1 d3 3d d5 ee dc 3d 8b 53 0a be
       -0.036862634 0.103335686 0.10787741 -0.13508432
000180 3d 93 fc 3c 94 30 c0 3d 29 b7 65 3d 0a 00 28 3d
       0.030831927 0.093842655 0.05608288 0.041015662
000190 61 31 f7 bc 23 f8 98 bd 1b 59 cb 3b ab 49 23 3e
       -0.030174913 -0.07469203 0.0062056906 0.15946071
0001a0 7e e2 95 3d 8b 06 19 be 9c 14 ed bd 9e e5 12 bc
       0.073185906 -0.14943902 -0.115761966 -0.008965878
0001b0 2d 46 9d bd 5f 71 c3 3d 7d 2a 2d 3e b5 40 c0 3d
       -0.076794006 0.09543108 0.16910739 0.09387342
0001c0 fd 03 31 3d 1f 9c 14 3e 16 e2 2c 3e b0 15 86 bd
       0.043216694 0.1451268 0.1688312 -0.06547105
0001d0 ab d7 cc bc fe 3c 8c 3d 0b eb 64 bd 47 ab 6a 3d
       -0.025005182 0.06847571 -0.055888217 0.05729225
0001e0 5f 30 0d 3e aa 54 0a be 13 8c 0c be ad e1 40 3d
       0.13787983 -0.1350886 -0.13725309 0.04709022
0001f0 a3 70 f8 3c 6c e9 bc 3c 15 1a fa bd cd 0c 8c bc
       0.030327147 0.023060523 -0.12212006 -0.017095948
000200 20 a9 18 be cb a6 1d 3e 5a 79 c6 3d 20 b3 0e 3b
       -0.14908266 0.15395658 0.09691115 0.0021774247
000210 01 1f ef bd f3 cc 15 be 7e e1 44 bd 15 c3 1a be
       -0.116758354 -0.14628963 -0.04806661 -0.1511348
000220 b3 9f 02 3e ac 4d ac 3c a1 7f 23 bd 12 b8 3d bc
       0.12756233 0.02103313 -0.03991664 -0.01157953
000230 ef fd 4e bd 0e 04 cd bd 91 e7 b2 3c 7f 62 89 3d
       -0.05053514 -0.10010539 0.021838935 0.0670824
000240 99 45 30 3e 0b 4d 36 bd a7 86 70 3d c6 72 86 3d
       0.1721405 -0.044507068 0.058722164 0.0656486
000250 da 3b b1 bc 76 a3 40 bd 59 c8 47 3d 51 4b b5 3d
       -0.021634985 -0.04703089 0.04877505 0.08852256
000260 45 f5 f7 3c 5e 26 30 3e d5 3b d6 3d 62 01 0f be
       0.03026832 0.17202136 0.10460631 -0.13965371
000270 af bb 7c 3d 3f 91 1f 3d 99 49 b3 bc 22 fb f2 bd
       0.061702427 0.038956877 -0.02188568 -0.11864306
000280 a6 e2 ee 3d 42 c1 01 be 97 63 cc bd 22 b8 9c 3d
       0.116643235 -0.12671378 -0.09979933 0.07652308
000290 5d e8 00 3e 4d f8 01 3e 46 a3 c4 bd 14 8f 8f 3d
       0.1258864 0.12692375 -0.096014544 0.07009712
0002a0 63 1f f0 bd aa ac 0a 3e eb c5 34 be 80 00 bb 3d
       -0.117247365 0.13542429 -0.17653625 0.09130955
0002b0 f3 78 0f 3e f9 dc 25 3e f6 53 95 bc 9d 14 09 be
       0.14010982 0.16197576 -0.018228512 -0.1338677
0002c0 15 a6 a0 3d 1d a1 0a 3d 5d 1c aa 3d 04 50 2c be
       0.07844178 0.033845056 0.08306191 -0.16827399
0002d0 cb 6e 57 3b 51 2a f8 3d 90 79 2b 3d 15 47 90 3d
       0.0032872434 0.12117446 0.041863978 0.07044808
0002e0 5c 85 f3 bd b6 c7 83 bd a3 28 08 be d3 69 78 bc
       -0.11890671 -0.06434576 -0.13296752 -0.015161949
0002f0 e4 9f 8e 3d 0f f4 2d 3e a9 64 b1 bd 38 8a 25 be
       0.069640905 0.16987632 -0.086617775 -0.16166008
000300 36 de 11 3e ab d2 d5 bd 7f 69 35 3e f3 8e a9 bd
       0.14244923 -0.10440572 0.17716025 -0.082792185
000310 32 5b 00 3e 06 e6 95 3d 38 2c b7 bd eb 3a 6d bd
       0.12534788 0.07319264 -0.08943981 -0.057917517
000320 50 cc ce bd c5 3a 11 be 2d 47 0a 3d 5d 7d 2a 3e
       -0.10097563 -0.14182575 0.033759285 0.16649385
000330 33 3f e9 bd 5f 83 c6 bb 0d c4 73 3d f6 ab bd bc
       -0.113890074 -0.006058141 0.05951314 -0.023153286
000340 33 25 1d 3e 67 97 7a bd 16 15 9d 3d 56 63 a1 bd
       0.15346222 -0.061179545 0.076700374 -0.07880275
000350 92 a6 94 bd 1f 0e 00 3e 6e 62 9e bc 00 43 28 be
       -0.07258333 0.12505387 -0.019334044 -0.16431808
000360 b9 98 10 be f7 a6 ec 3d 88 5a 20 3e de 16 af 3d
       -0.14120759 0.115552835 0.15659535 0.085492834
000370 5d 30 20 3e 4b e2 31 bd 38 2d 40 3d c9 5c 31 3e
       0.15643449 -0.0434287 0.046918124 0.17320551
000380 11 0d e4 bd 68 5e 81 3b 46 fa ce 3d 1b 0b c3 3c
       -0.11135305 0.0039480217 0.101063296 0.023809006
000390 1c f2 19 be 76 f5 81 bd 88 59 08 3d 93 ae ff bd
       -0.15033764 -0.06345646 0.03328851 -0.12484469
0003a0 48 49 a3 bc cd fd d8 3d b2 b2 68 bd c1 5c 2d be
       -0.019932404 0.10595284 -0.056811042 -0.16929914
0003b0 8c 93 22 be 14 c5 f9 bd 33 f6 04 3e 85 07 f5 bd
       -0.15876597 -0.12195793 0.12984543 -0.11964325
0003c0 bb e5 a9 3d f7 98 d9 bd 83 b1 e3 3d 5e b8 31 be
       0.08295771 -0.10624879 0.11117842 -0.17355487
0003d0 d0 27 da bd 54 25 ab bd b0 55 79 3d e0 f9 80 bd
       -0.10652125 -0.08356729 0.060872734 -0.0629766
0003e0 50 e6 2a be 9f cd 55 bd 25 1f c4 bc a0 98 39 bc
       -0.1668942 -0.05219805 -0.023940632 -0.011327893
0003f0 67 85 19 3e d9 56 b8 3c 4b 1c 81 bc 3f c2 10 be
       0.14992295 0.02250235 -0.015760561 -0.14136599

fc2.bias f4 [16]
000000 de c3 a2 bd 16 b7 33 3e 30 c9 d4 bd 7d aa cb bd
       -0.07947515 0.1755031 -0.10389936 -0.099446274
000010 d3 96 12 3e 1f 2b 8b bd 61 94 9d 3d 58 38 2c be
       0.14315347 -0.06795334 0.07694317 -0.16818368
000020 f1 ee 95 bd 1d 3a f1 bd 59 75 28 bd 87 cf 8f 3d
       -0.07320965 -0.11778662 -0.041127536 0.070220046
000030 41 90 3d 3e cd a2 03 3e c6 ec eb 3c 61 b6 95 3d
       0.1851206 0.12855072 0.028799426 0.07310177

fc3.weight f4 [1, 16]
000000 e2 78 4d be 12 34 28 be 2d fe 72 3e 8e db e1 bc
       -0.20065644 -0.16426113 0.23729773 -0.027570512
000010 66 a8 02 bd 4e 33 66 3e 71 bb 4d be d0 3c b8 bc
       -0.03189888 0.22480509 -0.20091034 -0.022489935
000020 63 f4 72 be 9a 7b 1d 3e 41 8c 60 be 02 8d f1 bc
       -0.23726039 0.15379182 -0.21928503 -0.029486183
000030 aa b3 84 be 7b ee 46 3e 5f c9 89 bd f8 57 f1 bd
       -0.25918323 0.1942691 -0.067278616 -0.11784357
