DRL_Nets6/actor_target_0_447.pth (torch, 5686 bytes, 5 tensors)

fc1.weight f4 [32, 5]
000000 00 72 d3 be ff 6a de be b9 f5 70 be aa f1 11 be
       -0.41297913 -0.43441007 -0.23531236 -0.14252344
000010 d6 fe 9e be 7c 85 31 3e e3 21 88 3c 02 1b a9 be
       -0.310538 0.17336076 0.016617721 -0.33028418
000020 32 dd df 3e d6 12 08 3e 4c 0e 6e 3e 16 d9 08 be
       0.43723446 0.13288435 0.23247641 -0.13364062
000030 87 af 37 bc 49 16 14 3e d2 a6 d8 be c0 b8 dd bb
       -0.011211283 0.14461626 -0.42314774 -0.0067664087
000040 d6 6c d0 3d e4 e4 26 3e 28 7c ab be 30 fc ab 3d
       0.10177009 0.16298252 -0.3349316 0.0839771
000050 27 15 95 3e c4 07 ca be 89 b6 ae be 0a 68 09 3e
       0.291177 -0.3945905 -0.34123638 0.13418594
000060 9a a7 95 3e bc 53 f3 3e ae ca a2 bd be ba 35 be
       0.29229432 0.47524822 -0.07948814 -0.17747018
000070 e5 1b bf be e2 59 3f 3e d7 25 c9 3e a0 89 73 bd
       -0.3732597 0.18686631 0.39286682 -0.05945742
000080 67 25 4b 3d e7 68 92 bd 10 ca a7 3e 25 a7 a8 3e
       0.049596217 -0.07148915 0.3277135 0.3294002
000090 2a c7 45 3e b3 05 82 3e f2 f5 a2 3c c1 49 a0 be
       0.19314256 0.25394973 0.019892666 -0.3130627
0000a0 22 60 f6 3d aa df 9c bd 41 00 48 3e bd 3c f2 3d
       0.12030055 -0.07659848 0.19531347 0.11827991
0000b0 69 c4 a9 be b2 c9 8d 3e fc 82 8b 3e 2b e1 3d be
       -0.33157662 0.27692944 0.2724837 -0.18542926
0000c0 23 38 b8 be 32 22 12 be 5c d8 95 be 62 21 f9 bd
       -0.3598033 -0.14270857 -0.29266632 -0.121645704
0000d0 42 dc ae be 4f 6a 27 3e 57 9f e1 3d 00 9e 8b 3e
       -0.34152418 0.16349147 0.1101672 0.27268982
0000e0 37 31 59 be 46 f5 08 bd 29 51 a9 3e 08 27 59 3e
       -0.2121018 -0.033437036 0.33069733 0.21206295
0000f0 68 9c 7f be 36 bd b2 be 9b 31 c2 bd 49 80 c5 3e
       -0.24962008 -0.3490998 -0.09482118 0.38574436
000100 27 d2 9b 3e 6b f6 df 3e f1 d3 8d 3e a5 36 d6 3e
       0.3043377 0.4374269 0.2770076 0.41838565
000110 94 e7 4c 3e 09 c0 d4 be 74 04 ee 3e 22 9f cc be
       0.20010215 -0.4155276 0.46487772 -0.3996516
000120 a0 e1 d4 be 1c 40 fd 3e a7 2b e2 3e 7d 10 03 3e
       -0.41578388 0.49462974 0.4417393 0.12799259
000130 1b 8d 38 3e cf d2 8f bc d7 6e a6 3d dc ae 33 3c
       0.18022577 -0.017556576 0.0812661 0.010966983
000140 d7 fe a8 be f4 a5 90 3e bd 65 93 3e a2 63 57 be
       -0.33006927 0.28251612 0.28788558 -0.210341
000150 9a 81 99 be 6d 6e 1c 3d 79 3f b6 be 30 60 15 3e
       -0.2998169 0.038191248 -0.355953 0.14587474
000160 d8 a5 1d 3e e6 f6 1b 3d 6a 79 45 be 3c 8d 56 be
       0.15395296 0.038077258 -0.19284597 -0.20952314
000170 31 0d 91 be e7 df ac 3e b8 ab 41 3e 40 ea 6c be
       -0.28330377 0.33764574 0.18913162 -0.23136234
000180 6d fd 8e bd 60 42 83 bd c8 c5 99 3e bf 7f e9 3e
       -0.06981931 -0.064091444 0.30033708 0.45605275
000190 76 39 c9 3e 3f f8 42 be 0d 0f 8b 3d 90 51 bc bd
       0.39301652 -0.19040011 0.0678998 -0.09195244
0001a0 37 d2 18 bb d0 58 4c 3e f8 26 1f bd 27 10 d5 3e
       -0.0023318657 0.19955754 -0.038855523 0.41613886
0001b0 6c c9 66 be de b6 cb 3d 0c 21 0f 3d 2a 28 d4 bc
       -0.22537774 0.099469885 0.034943625 -0.025898058
0001c0 f1 2d cf be 01 31 d5 be 7a ac d2 be 5b 00 4c be
       -0.40464738 -0.4163895 -0.41147214 -0.1992201
0001d0 f6 5c e5 3e b3 40 14 be f3 c7 4d 3e 11 ba 21 3d
       0.44797486 -0.14477806 0.20095806 0.039484087
0001e0 10 db 46 3e cb 60 7c 3e 26 01 ab 3e 7d 92 01 3e
       0.19419503 0.24646299 0.33399314 0.12653537
0001f0 f3 b8 97 be 09 9c ac 3d bf 57 9c 3e 7f e4 ef 3e
       -0.29633293 0.08428199 0.30535695 0.46854016
000200 dd dd 9d bd 87 31 8d 3e b6 51 b7 3e 2d e1 df 3e
       -0.07708333 0.2757685 0.35804528 0.43726483
000210 35 e0 a7 3e 3e 87 90 be ba 57 91 be e6 0a e1 be
       0.32788244 -0.28228182 -0.28387243 -0.43953627
000220 8d a1 86 bd 45 59 b0 be a0 e9 be 3d dc b8 b3 bd
       -0.06573782 -0.34443107 0.09321904 -0.087754935
000230 4a d9 b4 3e 19 60 ea bc d9 17 6a 3e a0 e2 c6 3c
       0.35322028 -0.028610276 0.2286066 0.024277985
000240 1f 53 d9 bc 3c e4 b7 3e 0f e0 16 be 15 f5 b2 3d
       -0.026528893 0.35916317 -0.14733909 0.08738152
000250 81 67 af 3e c6 d1 8b be 1d a1 54 3e 88 20 dc 3e
       0.34258655 -0.27308482 0.20764585 0.4299357
000260 fb 6f d3 be 89 68 50 3e 58 76 c5 3d ae 2e cb 3e
       -0.41296372 0.20352377 0.09641713 0.3968405
000270 73 fb 0b 3e 3f a7 b8 be 22 3f 98 3e 96 a4 39 3e
       0.13670139 -0.360651 0.29735667 0.18129191

fc1.bias f4 [32]
000000 f7 10 a7 3e c2 38 2c 3e 9f dd 33 3e 11 60 e0 3b
       0.3263013 0.16818526 0.1756501 0.0068473895
000010 cb 13 d5 be 23 9d bf be 87 df cc be 41 f7 0f bd
       -0.41616663 -0.37424573 -0.40014288 -0.03514791
000020 eb fc 06 be e5 46 99 bd 2a 37 cf 3e fc 35 5f 3e
       -0.13182418 -0.07484225 0.40471774 0.21797937
000030 f3 f0 3e be 3a 95 93 3e 9c b8 31 3e a5 04 70 3e
       -0.18646602 0.28824788 0.17355579 0.23439272
000040 9c c4 17 bb a7 7e 8b 3e 4f 1b d7 3e e9 24 22 be
       -0.002315796 0.27245066 0.42013022 -0.15834393
000050 a6 76 8b 3e 3b a9 5d 3e aa 07 68 3e 0e 6b 7c be
       0.2723896 0.21646588 0.22659174 -0.24650213
000060 12 ef b7 3e ac 0a 3a be 2a e5 8e bd 7a 64 d3 bd
       0.35924584 -0.18168133 -0.06977303 -0.10321899
000070 0c 74 62 be 54 18 b4 be 82 96 a9 3d a6 86 6f bd
       -0.22114581 -0.3517481 0.0828066 -0.05847802

fc2.weight f4 [16, 32]
000000 8f 10 85 bd 54 e1 86 3d b4 fb ff bd 6d 37 11 3e
       -0.06497299 0.06585947 -0.124991804 0.141813
000010 2f bc 05 be ff 18 a7 bd c3 78 e1 bd 85 42 1b 3e
       -0.13060068 -0.081590645 -0.110093616 0.15162094
000020 80 25 40 3d 16 17 16 be 15 4a ce 3d 05 f4 0c be
       0.046910763 -0.14657244 0.10072724 -0.13764961
000030 ea af db 3c e8 ce cc 3d c8 ee 24 bd 9e 08 a4 3d
       0.02681728 0.10000402 -0.040266782 0.08009456
000040 fc 74 07 3d 13 ad 7d 3d 9c bb ba bd 6a 42 d9 bd
       0.03307055 0.061932635 -0.09117815 -0.106083706
000050 4f 69 36 3b 6c af 7d bd da 97 fc bc 39 9d 47 be
       0.0027833765 -0.061934873 -0.030834127 -0.1949357
000060 c6 13 a8 3d 9c 22 0f 3c 05 2b 08 be 58 ca 28 3e
       0.082068965 0.008736279 -0.1329766 0.16483438
000070 7d 24 0a be f9 7c 43 bc 78 52 c8 3d a8 c9 37 be
       -0.13490482 -0.011931651 0.09781355 -0.1794802
000080 ac 32 32 3e a6 ac 98 bc ac 8c 25 bd 13 8e d5 3d
       0.17402142 -0.018637013 -0.04041736 0.10427489
000090 bf 1a 73 3d a7 f9 59 bd 5e a3 e8 3d 6d 37 79 3d
       0.05935168 -0.053216603 0.11359285 0.060843874
0000a0 a4 90 fe bd 2f 03 eb 3d 07 73 21 be 95 2c 53 3c
       -0.12429932 0.114752166 -0.15766536 0.012889047
0000b0 11 d3 7d bd ac 6e 98 3d 56 b8 9a bd d4 ea d0 bd
       -0.061968867 0.07442984 -0.075546905 -0.1020104
0000c0 57 81 64 3c 8e 03 94 bc 96 8a 19 bd 11 0a 1a be
       0.013946853 -0.018068101 -0.03748568 -0.15042903
0000d0 1b eb 37 3e 6a c8 21 be 04 78 77 3c e0 73 17 3d
       0.1796078 -0.15799108 0.015104298 0.03697574
0000e0 b0 07 0e be bf f4 6f 3d 0b bb 19 3e 2c 1e 8f 3d
       -0.1387012 0.058583017 0.15012757 0.06988177
0000f0 38 4a 1b 3c 9e 87 f0 3d 17 e7 65 3d ff c0 ce bd
       0.009478144 0.11744617 0.056128588 -0.10095405
000100 ef 41 cf 3d 97 95 04 be 41 6f e4 bd 22 e9 ee 3d
       0.10119998 -0.12947689 -0.111540325 0.1166556
000110 4c f0 f6 3d 1a ba 00 3e 27 f1 90 bd 4b 9c 0f bd
       0.12057552 0.12570992 -0.07077246 -0.035061162
000120 a9 bb 01 be dd 0a 32 3e 52 31 06 be be 34 99 3c
       -0.12669243 0.17386957 -0.13104752 0.018701907
000130 d0 2b 07 be 66 70 02 be ac 8c 06 bd be d5 2b 3e
       -0.13200307 -0.12738189 -0.032849 0.16780755
000140 8a a4 23 3e df 5a 16 3e 02 92 29 3e bc bf 53 3d
       0.15980735 0.14683102 0.16559604 0.051696524
000150 5e 82 21 3d 05 b8 e2 3d f8 8a 0c be eb a5 eb 3d
       0.03943097 0.11070255 -0.13724887 0.11506256
000160 9e 7d 5c bd 28 8b f2 bd 20 d4 1b be df c4 c4 3d
       -0.053830735 -0.11842948 -0.15217638 0.09607863
000170 cc c4 16 be 7a da 5b bd 60 5f 07 be 50 8d 8f 3c
       -0.1472351 -0.053675152 -0.13219976 0.017523438
000180 45 77 28 3e 0a 37 51 3d 4c 5e d1 bd 5b e7 1c be
       0.16451748 0.05107788 -0.10223064 -0.1532263
000190 e2 48 2d 3e ba 55 54 bd 71 55 7a 3c 12 55 12 be
       0.16922334 -0.051839568 0.01527916 -0.14290264
0001a0 5d 8c 63 bd 50 8b 10 3e 6f ce 9d bd d1 60 d9 3d
       -0.055553783 0.14115644 -0.0770539 0.106141694
0001b0 17 eb f6 3d 2b c7 21 be b7 af 0c be fd 33 60 3d
       0.120565586 -0.15798633 -0.13738905 0.05473708
0001c0 72 ca 9d 3c ad df 0f 3e 23 a4 8f 3d 5c 60 8a bd
       0.019261573 0.1405017 0.070137285 -0.0675666
0001d0 cc 03 a3 bd 89 16 19 be 5c 06 16 3e 02 ef 00 be
       -0.079597086 -0.14950003 0.14650863 -0.12591174
0001e0 41 14 a6 bd 93 f8 9f bc 57 99 6a 3d 17 24 8a 3c
       -0.08109332 -0.01952771 0.057275143 0.016862912
0001f0 aa c8 01 be d6 d6 ea 3d 46 e9 75 3c 1e 89 d6 3c
       -0.12674204 0.11466758 0.01500923 0.02618843
000200 58 60 14 3e fc b3 1c 3e 66 c0 17 bc 20 f8 47 3e
       0.14489877 0.15303034 -0.00926218 0.19528246
000210 2d 53 94 3d ef 20 d3 bd f7 0e c6 bc 58 7f e9 bd
       0.07242427 -0.10309016 -0.024177058 -0.11401242
000220 34 9d c7 3c 59 03 19 be 23 55 12 3e 5d 95 28 be
       0.024366952 -0.14942683 0.1429029 -0.16463228
000230 38 34 b3 bd a2 03 9e 3d ae d3 17 be 54 fe a2 bd
       -0.08750194 0.07715537 -0.14826843 -0.079586655
000240 7f 44 92 3c d9 64 ff 3c de 39 22 be 8a df b9 3d
       0.017854927 0.031176018 -0.15842387 0.0907584
000250 1c f6 d4 bc d3 f6 22 3e 19 29 c5 3d 3e 77 ec 3c
       -0.02599626 0.15914468 0.096269794 0.028865453
000260 d0 6a 23 3e 36 a1 9a bd f7 b3 27 3e 21 72 e8 bc
       0.15958714 -0.0755028 0.16377245 -0.028374733
000270 0b 69 f8 3d 6b c3 93 3d 52 54 57 3d b3 a9 3f bc
       0.1212941 0.072150074 0.05257065 -0.011698174
000280 29 21 2f 3e dc 01 0a bd 37 14 b1 bd 23 ca 83 3d
       0.17102493 -0.03369318 -0.08646434 0.06435039
000290 26 5e c3 bb e9 79 96 3d 52 1d 20 3e 20 77 1f 3e
       -0.005962151 0.07347471 0.15636185 0.15572786
0002a0 fd 2f f7 bd 7a 96 6c bd 31 da 9b 3c 8e cb 8a 3b
       -0.120697 -0.057760693 0.01902494 0.0042356914
0002b0 c0 b5 82 bd 15 14 01 3e 0a b1 06 3e 41 3f 93 bd
       -0.06382322 0.12605317 0.13153473 -0.07189799
0002c0 9f 11 d8 bd 1d 31 6e bd b1 92 25 3e 72 5e e0 3d
       -0.10550236 -0.058152307 0.1616924 0.10955514
0002d0 19 31 86 3d 11 2f 2a 3e 3e 56 a2 3d b0 22 c8 3c
       0.065523334 0.16619517 0.07926606 0.024430603
0002e0 c4 9e 00 be ae c8 ff 3d e1 91 c5 bd a0 4b f0 bd
       -0.12560564 0.124894485 -0.09646965 -0.11733174
0002f0 3c 3c c5 bd 6e a3 16 3e d7 3f 1b bd ce 0c 01 3e
       -0.096306294 0.14710781 -0.03790268 0.12602541
000300 0a 38 16 be 5f cf bf bd b3 61 27 bd 37 47 8e bd
       -0.14669815 -0.09365725 -0.040864658 -0.06947177
000310 03 02 2d be 9a 70 8a bd 05 4d 37 ba 58 12 bd bc
       -0.16895299 -0.06759758 -0.0006992373 -0.023080036
000320 2b d3 d5 3d 01 8b 2e bd cb a0 2e 3e 64 59 85 bc
       0.10440668 -0.042613033 0.17053525 -0.016277976
000330 eb 6d f5 bd cf 59 ef 3b 7c 5b ac 3d dc 26 97 bd
       -0.11983856 0.007304407 0.08415887 -0.07380459
000340 92 0c f7 bd ff d3 c0 bd 49 d7 99 bd d8 43 da 3d
       -0.120629445 -0.09415435 -0.075117655 0.106574714
000350 ae 2c 1e be 1a d5 2d bd 21 6c be bd 10 8b 27 3c
       -0.15446731 -0.042439558 -0.09297968 0.010226026
000360 cd fd 3a bd 9d 68 77 3d 94 f2 42 3d 8f d8 0f be
       -0.0456522 0.0604025 0.04759462 -0.14047454
000370 f9 38 98 bd 09 8c 66 3d f1 08 7a 3d 87 41 17 be
       -0.07432742 0.05628589 0.061043683 -0.1477109
000380 af 2d 2b be 58 c8 35 3e e9 62 df bd 1b 0c 9c 3d
       -0.16716646 0.17752206 -0.109075375 0.076194964
000390 50 9f 8f bd 0d 88 10 be 75 b1 30 3e f7 9c 34 3e
       -0.07012808 -0.14114399 0.17255194 0.17638002
0003a0 91 18 46 3e e9 43 bb bd 49 f9 1a bc 66 7f b5 bd
       0.19345309 -0.09143812 -0.009458848 -0.0886219
0003b0 e7 a3 05 3e 63 29 2a 3e d9 c3 f3 3d 5b fc 07 bc
       0.13050805 0.1661735 0.11902589 -0.008299912
0003c0 4e 92 84 bd ee ed 15 be b9 3a 0a 3e 9a 0e 26 3d
       -0.06473218 -0.14641544 0.13498963 0.04054127
0003d0 c5 bc 0d bd d5 43 2d 3d b0 5b 3e 3c 5d 0d 32 bc
       -0.034603853 0.042301018 0.01161854 -0.010867444
0003e0 84 d4 16 bd 1d d6 0e 3e dc 80 0a be b3 e5 34 be
       -0.036823764 0.13948865 -0.13525718 -0.17665748
0003f0 32 71 c9 3d 72 fd 0a be 6f 92 dc 3b b9 33 79 3d
       0.098360434 -0.13573244 0.0067313234 0.060840342

fc2.bias f4 [16]
000000 84 cc 04 3e 7c 8b 17 be b5 50 dd bd a3 b2 c9 bd
       0.12968642 -0.14799303 -0.10806409 -0.098485254
000010 9a f5 14 3e 38 94 e2 3d ac d4 e1 bd 6a b7 c8 bb
       0.14546815 0.11063427 -0.11026892 -0.0061253803
000020 63 73 39 be ce e0 9b 3d c0 7b e2 3d f6 31 b1 bc
       -0.18110423 0.076112375 0.1105876 -0.021630269
000030 dd 63 a8 3d 3c 57 0d 3d 69 0d d4 3d a7 ab 2b 3e
       0.082221724 0.03450702 0.1035412 0.16764699

fc3.weight f4 [1, 16]
000000 57 c3 3d 3e 17 01 84 be 18 16 5c 3d 0b 3d e9 bc
       0.18531547 -0.2578208 0.053732008 -0.02847149
000010 a4 34 5b bd 58 57 c7 3b 5c d7 74 3e cf 6b d1 bc
       -0.053517 0.0060834102 0.23910278 -0.025564102
000020 ea 08 6f 3e ad d8 94 bd 85 a4 76 be 58 3d 23 3d
       0.23343244 -0.0726789 -0.24086197 0.039853424
000030 e8 5e 2b bd 3a dc 62 3e 8c 96 55 3d 0b 5f da bc
       -0.041838557 0.22154322 0.052145526 -0.026656648
