DRL_Nets6/actor_7_600.pth (torch, 5616 bytes, 5 tensors)

fc1.weight f4 [32, 5]
000000 db f6 2c bd 42 82 b9 3e c9 8a c3 bd 16 32 69 be
       -0.042227607 0.3623219 -0.095479555 -0.22773013
000010 7c cc 17 3e 9e 3d e5 3e 5b 62 f8 bc 22 53 8f 3e
       0.14824098 0.44773573 -0.030320337 0.27993113
000020 a5 ae 98 3e a6 81 fd 3d 31 fc da be a1 cf 34 3e
       0.29820743 0.12378244 -0.42770532 0.17657329
000030 60 de 96 be d2 ce a0 bd ea 76 92 3e 15 d3 d9 be
       -0.29466534 -0.07851948 0.2860635 -0.42543855
000040 02 bf d9 3e 46 4d bf be 4a 9f 9b be 05 d9 c5 be
       0.4252854 -0.37363642 -0.30394965 -0.38642135
000050 69 17 68 3e 84 9b 41 bc 64 d9 ad be db 62 fe 3d
       0.2266518 -0.011816863 -0.33954918 0.12421199
000060 f4 4e 09 be e7 34 6c 3e 23 2b 82 3e 67 ce f8 3d
       -0.13409024 0.23067056 0.25423536 0.12148743
000070 93 a9 83 3e 75 93 9c 3e b0 73 a7 be c6 5a b2 be
       0.25715312 0.3058125 -0.3270545 -0.3483488
000080 1d 76 cb 3e 84 1b 9c 3e 58 75 60 3e 12 81 2c be
       0.3973855 0.30489743 0.21919763 -0.16846111
000090 17 d7 9d be 72 95 c7 be 67 e0 dc be ee 63 9b 3e
       -0.30828163 -0.38981205 -0.43139955 0.30349678
0000a0 1d ac f9 3d 13 8f eb 3e 89 42 80 bb 5e 82 0e bd
       0.12191031 0.46007594 -0.0039141816 -0.034792297
0000b0 9e e7 bb 3e 4b 34 24 3d 3d 62 c3 3d d7 72 f7 bd
       0.36700147 0.040088933 0.09540222 -0.12082451
0000c0 cb d2 ba 3e 8a 44 da 3e 18 54 e3 3d 1e c7 45 be
       0.36488947 0.42630416 0.11100024 -0.19314238
0000d0 f6 62 c0 3e 23 82 e6 bd 0a c0 75 be 18 cb cf 3e
       0.375755 -0.1125529 -0.23999038 0.40584636
0000e0 ae 3e 59 3e b7 11 2d be 96 d4 13 be 44 e1 87 be
       0.21215317 -0.16901289 -0.14436564 -0.26539052
0000f0 f6 66 95 3d cb f1 67 bd 7d 96 5d 3e d8 fa 0f 3e
       0.07295029 -0.056627076 0.21639438 0.14060533
000100 7b 15 d4 3e 3e 08 5a 3e d6 6e 2c 3e 8d 08 88 3d
       0.41422638 0.21292207 0.16839156 0.06642256
000110 59 f1 18 bd fa e9 14 be e2 33 fe bd a8 d4 84 3e
       -0.037339542 -0.1454238 -0.124122396 0.25943494
000120 85 80 93 3e 9c dc 1d 3e ed 61 9a be 35 93 dc 3e
       0.2880899 0.15416187 -0.30152836 0.4308106
000130 96 1a 67 be 11 6a b0 3e 4b de 95 3e ca bb 4f bd
       -0.22568735 0.34455922 0.2927116 -0.0507162
000140 88 37 b4 3e 28 00 1e be 27 27 a2 3e b7 e3 75 be
       0.35198617 -0.15429747 0.31670496 -0.24012648
000150 1c f2 2d bd 4c ce 38 3e 90 29 d0 3e 84 d7 e8 3d
       -0.04246722 0.18047446 0.4065671 0.11369231
000160 94 0c 4f be c8 01 8f 3d 71 cd 47 bd d6 58 24 be
       -0.20219642 0.069827616 -0.04877991 -0.16049513
000170 9a cf 0f be 41 62 68 3d 53 1f dc 3e 2d b0 5e be
       -0.14044037 0.056734327 0.42992648 -0.21746893
000180 33 d5 58 be b2 9f 7b bd 2c d3 c4 be 76 17 36 be
       -0.21175079 -0.061431594 -0.3844236 -0.17782387
000190 24 c3 04 3f 5a 0e 87 3e bd 13 62 3e c3 ce 6e be
       0.5186026 0.26378137 0.22077842 -0.23321061
0001a0 9d 66 08 3e 1a 9f a0 be 08 2c 83 be ae 0a 2a be
       0.13320394 -0.31371385 -0.2561953 -0.16605636
0001b0 e9 af c0 3e c5 df f2 bd 35 91 13 be b6 80 24 3d
       0.3763421 -0.11859087 -0.14410861 0.04016181
0001c0 d5 22 72 3e fa 8d fb 3e 27 9f e6 3d 4f 5b c1 3e
       0.236461 0.49131757 0.11260825 0.37764975
0001d0 a8 06 5d 3d e5 75 90 3d 91 8b e0 3e 19 97 6d be
       0.053961426 0.070537366 0.4385648 -0.2320217
0001e0 1a dc 87 3e 39 29 89 be 6a 50 4b 3e f1 62 a7 3e
       0.26535112 -0.26789263 0.19854894 0.32692674
0001f0 d5 20 85 3d f8 89 41 be a4 a1 da be 57 62 db 3d
       0.06500403 -0.18900287 -0.42701447 0.10712116
000200 02 f9 bc 3e 4e a6 72 be 28 65 4c 3e f6 98 00 3e
       0.36908728 -0.23696253 0.19960463 0.1255835
000210 4a 99 e8 3e f4 f1 7d be fe a0 ac be 81 d9 9e 3e
       0.4542945 -0.24799329 -0.33716577 0.31025317
000220 72 29 16 3d 4a b0 96 be f8 3d 8e 3e d5 59 6e 3e
       0.03666062 -0.29431373 0.27781653 0.23276456
000230 bc 50 9d 3e 76 fa aa be bf 85 82 3e 69 98 1f be
       0.30725658 -0.33394212 0.25492665 -0.15585484
000240 39 8a b2 be bf 3c 1a 3e 78 15 b9 be f6 68 c5 3e
       -0.3487108 0.15062235 -0.36149192 0.3855664
000250 60 6d 83 be e0 30 89 3e aa 5b a9 3e 1e df 9c 3e
       -0.25669384 0.267951 0.33077747 0.30638975
000260 a8 5c cd 3e c2 0b ac 3d 8f 7b 00 3f 45 25 b4 3e
       0.40109754 0.0840068 0.50188535 0.35184684
000270 5c bf 07 3f 24 ad c6 3e 9d c2 c1 be e4 0a 80 3d
       0.53026366 0.3880397 -0.3784379 0.06252077

fc1.bias f4 [32]
000000 f5 b2 83 3e b6 6e 20 bd 4b 44 87 3e d8 6d 24 bd
       0.2572247 -0.039168082 0.2641929 -0.040143818
000010 3a ab 27 3d ab 3d d3 3e 59 93 b9 3e 76 9e 79 3d
       0.04093478 0.41257986 0.3624523 0.060942136
000020 18 4d 9c be fe ab bb 3e 73 5b 8b be 28 0b e0 3e
       -0.30527568 0.36654657 -0.27218208 0.43758512
000030 68 50 b9 be ad 8d 03 3e eb a9 cb 3e 83 02 fd 3d
       -0.36194158 0.12847014 0.39778075 0.12353995
000040 e8 90 ac bd 08 4f be bd 59 2f 11 be c5 9e 1e be
       -0.08426076 -0.09292418 -0.14178218 -0.15490253
000050 15 0f 70 bc 24 81 52 3e e0 4d a5 be 92 89 a3 3e
       -0.014652033 0.20557076 -0.32285976 0.31940895
000060 9a d3 8d be 37 57 bb be 40 64 cd bc e9 0f 02 be
       -0.27700502 -0.36589977 -0.025072217 -0.12701382
000070 cb 2d 2b be d7 3c 9e bd de f7 d8 3d eb 08 f9 bd
       -0.16716687 -0.07726448 0.10594152 -0.12159904

fc2.weight f4 [16, 32]
000000 b6 67 d7 bd a2 11 07 be e3 7e 1b bd ee 71 fd bd
       -0.10517828 -0.1319032 -0.037962805 -0.12375246
000010 fd 52 b0 3d 49 57 93 3d 76 6d 28 be 7e 68 a1 b9
       0.08609579 0.07194383 -0.16448006 -0.00030786166
000020 a9 6f 1e be 8e 0d b7 3c 00 ac 64 bd 6f 95 2b be
       -0.15472282 0.02234533 -0.055828094 -0.16756223
000030 3d 9d 04 3e 37 e8 15 3e 2b f3 16 be 6c de 9b bd
       0.12950607 0.14639364 -0.14741199 -0.07610783
000040 9b df 86 bd 82 b7 ae bb 38 16 f2 bd ef 2a b9 3c
       -0.06585618 -0.0053319344 -0.11820644 0.02260348
000050 f0 94 1f 3e 1f 8e bf 3c b2 99 1c 3e e2 e5 73 3b
       0.15584159 0.023383198 0.15293005 0.0037215878
000060 a3 50 f5 bd 8a 45 b9 3b 4c 5e 27 3e 2a f3 55 bc
       -0.11978271 0.0056540417 0.16344565 -0.013058463
000070 64 9b 21 be dd f3 12 be a3 e0 8b bc 62 88 23 be
       -0.15781933 -0.14350839 -0.017074889 -0.15969995
000080 b0 2b e3 3d 58 57 a3 bc 43 d5 69 3e 2b 90 c3 bd
       0.11092317 -0.01993911 0.22835259 -0.09548982
000090 ed 00 5d be 5e 41 5b 3e e5 77 3a 3d d8 e8 ff 3d
       -0.21582384 0.21411654 0.045524497 0.12495583
0000a0 a3 e5 95 bd 7c d8 37 3e 30 15 c0 3d ab dd 4f bc
       -0.0731919 0.17953676 0.09379041 -0.012687127
0000b0 74 4a 1c 3e d0 7d a4 3d 37 88 a3 3c 9d 7d 08 be
       0.15262777 0.08031809 0.019962413 -0.13329168
0000c0 94 ca b4 3d 69 a4 ae 3d c4 dc 60 bc 95 b2 a5 bc
       0.08827701 0.085274525 -0.01372451 -0.020226756
0000d0 56 07 26 3e 57 cd ef 3d 78 92 14 3e c4 6c 7a bd
       0.16213736 0.11709087 0.14508998 -0.061138883
0000e0 b2 e2 d6 3d ee 9f 91 bd 71 43 b1 bb 30 23 1c be
       0.104924574 -0.07110582 -0.005409651 -0.15247798
0000f0 e5 34 e1 bd 7f 4c aa bd f0 ed 57 3e ba 6c 16 3e
       -0.10996417 -0.08315372 0.2108686 0.14689913
000100 c5 99 6c bd 7e d2 03 3e ab 8c 03 be 9c e7 89 bd
       -0.057763834 0.12873265 -0.1284663 -0.06733629
000110 ec 56 dc bd 8b 73 07 be 3d 9c 8b bd 39 cf 19 be
       -0.107587665 -0.1322767 -0.068169095 -0.15020455
000120 9e ac 79 bc 6c 9b bb bd 90 4e d1 3c 6a 2c 2e be
       -0.015238909 -0.09160504 0.025550157 -0.1700913
000130 73 03 82 bd 51 d2 be 3d f0 e5 60 bd 9b 85 1f bd
       -0.06348314 0.093174584 -0.054906785 -0.038945775
000140 c6 c3 a5 bb 3e 9a 8e bd 69 a3 2c bd bc 15 f6 3b
       -0.0050587384 -0.06963013 -0.042148028 0.007509915
000150 af 79 f9 bd 5b 6c 2a 3d 60 7c e5 bc 2f c9 3b 3c
       -0.121814124 0.041607242 -0.028013408 0.01146154
000160 08 e6 20 be 0d ce 0c bd d4 21 81 3d 47 b6 18 3e
       -0.1571275 -0.034376193 0.0630528 0.14913283
000170 a5 24 12 3e a8 3b 33 3e 77 a0 a3 bd c5 17 69 bd
       0.14271791 0.17503226 -0.079895906 -0.056907434
000180 f4 d7 45 3d a3 37 32 bc d3 c7 ba 3d ec 2d 2e 3d
       0.048301652 -0.010877523 0.09120145 0.042524263
000190 f7 98 99 be 26 3d 82 bd 73 ab 34 be bb 60 65 bd
       -0.29999515 -0.063593194 -0.17643528 -0.056000452
0001a0 e3 40 47 3e 5b 3c 26 bd 78 e8 5f 3e f4 fe 4a 3e
       0.19458346 -0.040584903 0.21866024 0.1982382
0001b0 3d 2f 2b 3e f2 a3 f3 3c 23 57 03 3e 66 1d 25 be
       0.16717239 0.029741261 0.12826209 -0.16124496
0001c0 5b b2 61 bb 92 c8 8a bd a1 66 ff 3a 48 a9 21 be
       -0.0034438584 -0.06776537 0.0019485542 -0.15787232
0001d0 97 cb bf bd 00 8b b5 3d 4c 0d 33 3e 84 ae cd 3d
       -0.093650036 0.08864403 0.17485541 0.10043052
0001e0 bf b8 a1 bd 13 ee cc bd ab 4f 86 bd 07 f6 d1 3d
       -0.07896566 -0.100063466 -0.06558164 0.10252004
0001f0 83 98 59 bd 87 62 c4 bc de d9 37 3e 3f f3 2b 3e
       -0.053123962 -0.023972763 0.17954203 0.1679201
000200 21 b2 81 3e 2c 76 01 3e 1e 03 5b 3e 17 88 9a 3d
       0.25331214 0.12642735 0.21387908 0.07545488
000210 ec d5 88 be b4 ba 34 bd 7e 54 5c 3c be 4a 10 3e
       -0.2672571 -0.044123366 0.013447879 0.14091012
000220 46 22 9c bd 46 78 19 bd 3c 57 14 3e c6 9b 04 be
       -0.07623725 -0.037468217 0.14486402 -0.12950048
000230 1b 77 20 be 79 21 61 bc 4e c3 79 3e d7 b9 0b bd
       -0.15670435 -0.013740891 0.24390909 -0.034112778
000240 33 c0 8f 3d 2a bd b7 bd dc bb 2d 3e c1 0f 1c 3d
       0.07019081 -0.08971627 0.16966194 0.03810096
000250 4e d0 9b 3d ab f7 d8 3d bc 29 84 3d fe 2e a2 3c
       0.0760809 0.10594114 0.06453273 0.019797798
000260 85 21 79 be f3 d8 0b 3e c6 f0 1c 3e 15 39 35 3e
       -0.24329193 0.13656978 0.15326223 0.17697556
000270 a4 52 e1 bd 09 c4 3b 3e d9 f3 22 3e f1 35 85 3d
       -0.110020906 0.183365 0.15913333 0.06504429
000280 2a 1c 04 3d 76 b9 ab 3d cf c5 93 3c 33 73 c3 3d
       0.03225342 0.08384983 0.018038658 0.09543457
000290 dc e3 45 3d d9 c9 87 3c be d3 f7 bb d3 6f ac bd
       0.048313007 0.01657574 -0.0075630834 -0.08419766
0002a0 49 4a 19 bd 0a c3 5a 3d 1f 80 80 bd ca 9e 80 bd
       -0.03742436 0.05340866 -0.06274437 -0.062802866
0002b0 59 f3 5a 3e d7 0d f6 3d 3c 3b cd bd 0e 65 54 3d
       0.21381892 0.120143585 -0.10021064 0.051854186
0002c0 3c f2 d4 3d 62 84 dd bc c9 16 45 3d 79 71 56 bc
       0.10397765 -0.027040664 0.048117433 -0.013088577
0002d0 fb 21 df 3d ca 27 5c bd 17 45 ab 3d 79 db 4a 3e
       0.10895153 -0.053748883 0.08362787 0.19810285
0002e0 c3 64 50 3e 75 90 ec 3d f8 39 bc bd 86 72 c2 bc
       0.20350938 0.115509905 -0.09190744 -0.02373625
0002f0 70 4e cc 3d 87 bf c1 bb 76 99 9b 3d 32 e8 71 bd
       0.09975898 -0.0059127244 0.0759763 -0.05905933
000300 69 c7 20 3e 20 74 11 3e 98 6f 00 be 64 f4 15 3e
       0.15701069 0.14204454 -0.1254257 0.14644009
000310 96 c6 b7 3d ab 9c e3 bd 0c 5f be 3d fd 9c 44 bd
       0.08973424 -0.111138664 0.092954725 -0.04800128
000320 3c 3c 1f be c2 de 94 bd 69 b7 ae bd ea 95 2a 3e
       -0.15550321 -0.0726905 -0.085310765 0.1665875
000330 1e 7b 2c 3e ab 53 33 3c 7c 9f 1e 3e 03 93 1d be
       0.1684384 0.010945241 0.15490526 -0.15388112
000340 bd a5 21 be 35 41 8b bd a1 50 ad bd cf be dd bd
       -0.1578588 -0.06799547 -0.08462644 -0.108274095
000350 22 a5 d0 bd 76 fa 2d 3e 7b f0 b1 bc cf 28 d3 3d
       -0.101877466 0.16990075 -0.021721115 0.10310518
000360 28 96 e2 bd c7 d3 8b 3c 17 1a 9b 3d 66 1a 14 be
       -0.11063796 0.017068757 0.075733356 -0.14463195
000370 30 79 b6 bd 7a fe 96 bc 88 05 27 be 78 d0 b4 bd
       -0.089098334 -0.01843189 -0.16310704 -0.08828825
000380 75 84 90 3d f6 e6 ac bc c3 ae 69 bd 54 7a 12 bd
       0.07056514 -0.021106225 -0.05705143 -0.035761192
000390 4e 7e 01 be b2 a2 da 3d b4 9c ac bd 40 6f 16 3e
       -0.12645838 0.10675563 -0.08428326 0.14690876
0003a0 b9 25 5c 3e 55 b0 27 3e a0 1b c5 3d c5 86 76 bb
       0.21498765 0.16375859 0.0962441 -0.003761695
0003b0 ce d4 ba 3d 38 d1 2b bb 11 6b 1d 3e cc bd a7 bd
       0.091226205 -0.0026217233 0.15372874 -0.08190498
0003c0 fe e2 c3 3c d0 fd 52 3e ba 0d b8 3d e3 a0 35 bd
       0.02391195 0.20604634 0.08986993 -0.044342887
0003d0 2a 65 eb ba cf b8 31 be b1 fb 9a 3d 3c a9 7a 3d
       -0.0017959226 -0.17355655 0.075675376 0.06119655
0003e0 5e 5b 65 be 80 86 94 3c da 1b 36 3e d0 1f e1 bb
       -0.22398135 0.01813054 0.17784062 -0.0068702474
0003f0 e6 87 04 3e 73 50 2a 3e d6 20 66 3d fc da 46 bc
       0.12942466 0.16632251 0.05618366 -0.012137171

fc2.bias f4 [16]
000000 9a a3 f9 ba 46 74 af bc 49 06 2d 3e 68 24 60 3e
       -0.001904595 -0.021417748 0.16896929 0.21888888
000010 1c 25 f8 3d 2a 52 1f 3e 54 ee b7 bd a3 81 e8 bd
       0.12116453 0.15558687 -0.08981004 -0.11352851
000020 bc 32 13 3e 30 37 09 3d 21 61 15 bc 1f 7e 4c 3c
       0.14374822 0.033499897 -0.009117396 0.0124812415
000030 45 89 ec 3c f1 46 57 3d 25 d2 7c bd 7e a1 02 3e
       0.028874049 0.05255789 -0.061723847 0.12756917

fc3.weight f4 [1, 16]
000000 98 cb ec bd 9f 47 bc bd 70 6e d1 3d f6 af 1c be
       -0.1156227 -0.09193348 0.102261424 -0.15301499
000010 43 e6 42 be f4 21 7c 3e 98 86 66 3d ff 19 33 be
       -0.1903315 0.24622327 0.056280702 -0.17490385
000020 a2 15 33 3e b4 97 ac 3d 18 ad 0d bd 04 e1 91 3d
       0.17488721 0.084273726 -0.034588903 0.071229964
000030 d2 52 5e 3e 72 ab 94 3d 68 09 6f be b4 78 ae bd
       0.21711281 0.07259263 -0.23343432 -0.08519116
