DRL_Nets6/actor_target_1_26.pth (torch, 5676 bytes, 5 tensors)

fc1.weight f4 [32, 5]
0.17123142 -0.16710459 0.1575282 -0.065576605 0.04441424 0.26194313 -0.0128539 0.007542104
-0.028541813 0.26349714 0.2920205 -0.33541137 0.0874952 0.40042755 -0.30937895 -0.30334926
-0.04524047 -0.41782448 0.22232193 0.009229163 0.003297668 0.24447434 -0.10426535 -0.401027
0.33490723 0.37316555 -0.26296368 -0.044070482 -0.15970612 -0.36417997 -0.12574327 0.10574444
-0.14751542 0.15332605 0.03569133 0.08458634 -0.12836792 0.16829254 0.03962922 0.3031665
-0.26494515 0.109430216 -0.319265 0.12535873 0.33883134 -0.14557421 0.30085996 0.3785624
0.13092194 -0.1578404 -0.05764047 0.008301853 -0.08550991 0.01841125 -0.11032415 -0.40598613
0.16637048 -0.091817364 0.034028687 0.100581855 0.09314105 0.26643896 0.2751051 0.30703124
-0.15658656 0.075523876 -0.058722384 0.30628306 0.42111337 -0.099849515 -0.38653582 0.062022503
-0.15022217 0.3576099 0.04816863 -0.0007951487 0.3722273 0.37717143 0.2547583 0.360316
0.21413544 -0.36357963 0.15163878 0.03900051 -0.30026647 0.4113538 0.4096299 0.027015757
-0.028043559 0.007833081 0.14254092 -0.09430869 0.33443475 -0.22021876 -0.2197589 0.07419508
-0.032354742 0.37172624 0.03581773 0.095598675 -0.14785266 -0.3578371 0.39128444 0.32680643
-0.069339365 -0.06853798 0.37998176 0.09154515 0.34984532 -0.32734942 -0.2892648 -0.42125207
-0.41490203 0.16887876 -0.20966282 0.033839375 -0.18166575 0.37930194 -0.4215824 0.07192382
0.4027109 0.39563608 0.21309793 -0.024584515 -0.3318165 0.22148061 0.3284986 -0.37720862
-0.13862818 -0.010490205 0.09987926 -0.3070955 -0.15296406 0.34252515 0.41044164 -0.3801249
0.38132462 -0.0813986 0.112476625 -0.13907419 -0.3722409 -0.29614508 0.2728049 -0.27191672
-0.24811624 0.3540332 -0.4351969 -0.09933073 -0.36455235 -0.14964826 0.22358382 -0.0843926
-0.05736202 -0.41871986 0.20013373 -0.15012856 0.28882578 0.214885 0.31563917 -0.34405315
00000000: 4a57 2f3e 771d 2bbe 134f 213e 074d 86bd
00000010: b5eb 353d 691d 863e 2a99 52bc c123 f73b
00000020: 85d0 e9bc 19e9 863e b683 953e 0abb abbe
00000030: af30 b33d d704 cd3e eb66 9ebe 9850 9bbe
00000040: 124e 39bd 17ed d5be 5ca8 633e ea35 173c
00000050: b01d 583b 7b57 7a3e 1289 d5bd 6953 cdbe
00000060: f678 ab3e 8e0f bf3e 2da3 86be 4083 34bd
00000070: 008a 23be cc75 babe d8c2 00be 8a90 d83d
00000080: 480e 17be 8101 1d3e 1231 123d 9a3b ad3d
00000090: e172 03be e154 2c3e 4052 223d a438 9b3e
000000a0: e4a6 87be f31c e03d b476 a3be 0a5e 003e
000000b0: 4d7b ad3e 6811 15be 510a 9a3e eed2 c13e
000000c0: 6710 063e eaa0 21be 6a18 6cbd 7f04 083c
000000d0: d21f afbd 31d3 963c a1f1 e1bd 6add cfbe
000000e0: 065d 2a3e be0a bcbd aa61 0b3d dcfd cd3d
000000f0: bcc0 be3d b06a 883e 93da 8c3e 3333 9d3e
00000100: 3a58 20be 43ac 9a3d e286 70bd 22d1 9c3e
00000110: 2c9c d73e e77d ccbd 06e8 c5be 4f0b 7e3d
00000120: d7d3 19be a518 b73e 784c 453d 8771 50ba
00000130: 9494 be3e 9d1c c13e ae6f 823e 577b b83e
00000140: 5246 5b3e 1c27 babe 3247 1b3e 00bf 1f3d
00000150: 87bc 99be f79c d23e 03bb d13e 2650 dd3c
00000160: 9bbb e5bc 5356 003c 3ff6 113e ea24 c1bd
00000170: 083b ab3e 0781 61be 7a08 61be 97f3 973d
00000180: 6886 04bd e752 be3e 9db5 123d 3dc9 c33d
00000190: b066 17be 6d36 b7be 6f56 c83e 2c53 a73e
000001a0: cc01 8ebd a45d 8cbd f88c c23e 067c bb3d
000001b0: ed1e b33e 589a a7be 841a 94be 5aae d7be
000001c0: 0a6e d4be 8eee 2c3e dab1 56be 289b 0a3d
000001d0: 9606 3abe dd33 c23e a6d9 d7be cc4c 933d
000001e0: 2030 ce3e d090 ca3e 5836 5a3e 7765 c9bc
000001f0: dae3 a9be d0cb 623e f830 a83e 7d21 c1be
00000200: 8cf4 0dbe 1cdf 2bbc 7f8d cc3d 9f3b 9dbe
00000210: 9ca2 1cbe 755f af3e 6825 d23e bb9f c2be
00000220: fb3c c33e 4fb4 a6bd 255a e63d 7769 0ebe
00000230: 5c96 bebe 54a0 97be 15ad 8b3e ab38 8bbe
00000240: 2f12 7ebe d743 b53e 21d2 debe e96d cbbd
00000250: 9ba6 babe 653d 19be 28f3 643e 07d6 acbd
00000260: 70f4 6abd 7362 d6be dbef 4c3e 4dbb 19be
00000270: f9e0 933e d00a 5c3e 759b a13e bc27 b0be

fc1.bias f4 [32]
0.40250805 0.41433862 0.05163029 -0.17718238 -0.19487524 -0.31786653 -0.17975916 0.3849146
-0.2539095 -0.09138756 -0.09748161 0.0008801814 0.09983714 -0.18749243 -0.11837949 -0.4194425
0.3362812 0.054787103 0.38012335 0.25485936 0.19418378 0.40664512 -0.074023575 0.42710894
0.16327007 0.16316168 -0.013886713 0.366347 -0.016507106 0.34780017 -0.058280375 -0.37084386
00000000: 8915 ce3e 3124 d43e 487a 533d 4c6f 35be
00000010: 608d 47be 67bf a2be c912 38be 8713 c53e
00000020: 6d00 82be 6729 bbbd 70a4 c7bd f9bb 663a
00000030: 6a77 cc3d 04fe 3fbe f270 f2bd 2bc1 d6be
00000040: 0d2d ac3e 7168 603d 879f c23e ed7c 823e
00000050: 1dd8 463e ca33 d03e ac99 97bd 06ae da3e
00000060: 4530 273e db13 273e 1985 63bc d591 bb3e
00000070: e939 87bc dd12 b23e 67b7 6ebd 3fdf bdbe

fc2.weight f4 [16, 32]
-0.11637571 -0.17107056 0.14678207 0.10931225 0.03812821 -0.16810954 -0.030917326 -0.009671016
0.14393893 0.13975966 0.024093099 0.021737343 0.101657376 -0.11194365 0.14042512 0.043926436
-0.06186066 0.056054484 0.16139099 -0.13223757 0.019276261 -0.0582598 -0.0067964112 0.11471805
-0.052094977 0.010780194 0.0060982276 0.08687496 0.13851422 0.15714149 -0.114041045 -0.10189323
-0.018538691 0.04688388 -0.085741274 -0.023717254 0.16719764 0.103160754 0.052886203 -0.011656617
0.08804961 0.06318799 -0.10212933 -0.091418535 -0.11658336 0.08400644 -0.10074736 -0.1515114
0.04958684 -0.17376277 -0.15317239 0.010053667 -0.13418011 0.09287039 0.12193311 0.0823266
-0.08422386 -0.05480734 0.070177495 0.026427232 -0.12526517 0.00778467 0.12314936 -0.045338355
-0.059262536 -0.07822455 -0.07005445 0.0051952736 -0.003448982 -0.049450476 0.01991818 0.16112725
0.13227834 0.16458502 0.03763176 -0.15049414 -0.000681641 -0.17653249 -0.15673098 0.0750322
-0.084505044 0.055886384 0.15248418 0.17635198 0.057745922 0.030547298 0.06422033 -0.13180333
-0.104113184 0.13513377 -0.14284393 -0.13429977 -0.020440103 -0.17313494 -0.017313546 0.0014823468
-0.08318848 -0.0028516557 0.038018584 0.17643628 -0.17180175 -0.0293875 0.16548328 -0.09908966
0.17637604 -0.14065737 -0.04746346 -0.037085075 -0.09747706 0.14458604 -0.0033494732 -0.050316233
-0.053771034 -0.09633221 -0.06534774 -0.07924353 -0.121253654 -0.057292107 0.027892405 0.09344915
-0.09427017 0.06530249 0.077506386 0.15077676 0.12758406 0.0060649104 -0.019710943 0.12526625
0.0970778 -0.017946696 -0.09629737 -0.14302419 -0.13871768 -0.009473494 -0.049816836 0.089290164
-0.0652363 -0.10944849 0.13209155 0.068984255 -0.12576023 -0.13867863 0.16161944 0.11307525
-0.15813413 -0.06596346 -0.039924234 0.0013097976 -0.03574398 -0.0035853903 0.010008949 -0.016013715
-0.09130327 -0.081728175 -0.15104248 0.15741314 -0.009358202 0.14171807 0.14301758 0.026040873
-0.17315486 -0.067383625 0.10741204 -0.1163956 0.0864356 0.11789982 0.09006727 -0.092984885
-0.07148485 -0.065874174 0.17121162 0.12932992 0.029784271 -0.16527179 0.049439136 0.12784958
-0.06831477 0.07016677 0.14391667 -0.17217565 0.17511205 -0.15357439 -0.15675439 0.09416282
-0.1480767 0.13600668 -0.1258805 0.031201312 -0.1271744 -0.14949618 -0.052172612 0.077252224
-0.004332148 0.16890982 -0.009198086 0.11642416 0.14021078 0.07888373 0.13843738 -0.057390478
0.08499468 0.099241436 -0.08798833 0.052620173 -0.08149118 -0.022982212 -0.008120771 -0.17038645
0.10665671 -0.02810788 0.026031157 -0.10850365 0.13493419 0.096648246 -0.07643091 -0.049264167
0.12663238 0.014486462 0.16094269 0.13397074 0.13756582 -0.12376173 -0.14306514 -0.1719991
-0.08888871 -0.1705466 0.09980781 0.088398926 -0.17158158 -0.14141455 -0.15386039 -0.057157554
-0.054026674 -0.086917885 -0.12536217 -0.037565105 -0.0953921 -0.14584666 0.04841952 0.17522259
0.014145915 -0.121216275 0.06795155 -0.033186387 0.13320751 -0.048239786 0.02307717 -0.16132239
-0.082258195 -0.14903115 -0.12035066 -0.0014647505 -0.09027423 0.16117223 0.029093232 0.010968485
00000000: 6356 eebd 1f2d 2fbe 0a4e 163e 1adf df3d
00000010: 532c 1c3d e824 2cbe 5546 fdbc 2e73 1ebc
00000020: ba64 133e 281d 0f3e e45e c53c 8312 b23c
00000030: be31 d03d b642 e5bd 9acb 0f3e 35ec 333d
00000040: 9a61 7dbd 6399 653d ae43 253e 4969 07be
00000050: 40e9 9d3c d4a1 6ebd 6eb4 debb 4cf1 ea3d
00000060: 8b61 55bd 699f 303c a4d3 c73b 80eb b13d
00000070: acd6 0d3e b3e9 203e 5a8e e9bd 66ad d0bd
00000080: 74de 97bc 5009 403d 1f99 afbd b04a c2bc
00000090: dc35 2b3e f245 d33d 349f 583d 65fb 3ebc
000000a0: 5b53 b43d b468 813d 2f29 d1bd a439 bbbd
000000b0: 42c3 eebd 920b ac3d a254 cebd ce25 1bbe
000000c0: 921b 4b3d deee 31be 39d9 1cbe 23b8 243c
000000d0: 8366 09be d532 be3d 11b8 f93d d99a a83d
000000e0: 8f7d acbd a97d 60bd 38b9 8f3d ec7d d83c
000000f0: 8345 00be 8c16 ff3b bb35 fc3d b6b4 39bd
00000100: 46bd 72bd 3134 a0bd b578 8fbd 1d3d aa3b
00000110: 5108 62bb 958c 4abd 732b a33c 8bfe 243e
00000120: f973 073e fa88 283e c323 1a3d 231b 1abe
00000130: 27b0 32ba efc4 34be 167e 20be 7baa 993d
00000140: fb10 adbd 1fe9 643d d024 1c3e 9d95 343e
00000150: fd86 6c3d 543e fa3c f385 833d 74f7 06be
00000160: 4b39 d5bd 8260 0a3e ae45 12be e185 09be
00000170: 0172 a7bc 494a 31be 23d5 8dbc 4e4b c23a
00000180: b95e aabd d8e2 3abb 60b9 1b3d b6ab 343e
00000190: ccec 2fbe 0ebe f0bc 7374 293e 85ef cabd
000001a0: ec9b 343e 7c08 10be 0c69 42bd 85e6 17bd
000001b0: 0ea2 c7bd 5d0e 143e d682 5bbb 6518 4ebd
000001c0: 043f 5cbd d249 c5bd 09d5 85bd 6f4a a2bd
000001d0: d653 f8bd 21ab 6abd 9d7e e43c 4562 bf3d
000001e0: b810 c1bd 50bd 853d abbb 9e3d 3965 1a3e
000001f0: 65a5 023e 28bc c63b d878 a1bc cc45 003e
00000200: bad0 c63d f304 93bc 8e37 c5bd ef74 12be
00000210: 020c 0ebe b736 1bbc bd0c 4cbd c3dd b63d
00000220: 9c9a 85bd 8826 e0bd 0243 073e 9e47 8d3d
00000230: 4ac7 00be c501 0ebe 917f 253e ff93 e73d
00000240: eaed 21be da17 87bd 9887 23bd 84ad ab3a
00000250: 4868 12bd def8 6abb 93fc 233c 322f 83bc
00000260: 35fd babd 1a61 a7bd e1aa 1abe e930 213e
00000270: 2553 19bc 8b1e 113e 3373 123e ab53 d53c
00000280: 824f 31be 6d00 8abd d8fa db3d d160 eebd
00000290: 2605 b13d 7675 f13d 3075 b83d dc6e bebd
000002a0: a666 92bd 0ae9 86bd 1952 2f3e 106f 043e
000002b0: 25fe f33c 023d 29be b180 4a3d 00eb 023e
000002c0: 9de8 8bbd 98b3 8f3d e45e 133e d04e 30be
000002d0: 9350 333e 9b42 1dbe 3984 20be 70d8 c03d
000002e0: 6ba1 17be 5645 0b3e d1e6 00be e599 ff3c
000002f0: 023a 02be 8715 19be f3b2 55bd 6a36 9e3d
00000300: b1f4 8dbb b2f6 2c3e 92b3 16bc ca6f ee3d
00000310: 6a93 0f3e cb8d a13d 87c2 0d3e 4712 6bbd
00000320: b111 ae3d 183f cb3d 3a33 b4bd 4088 573d
00000330: d9e4 a6bd 3145 bcbc fb0c 05bc c979 2ebe
00000340: d56e da3d 7f42 e6bc 4b3f d53c 2937 debd
00000350: 302c 0a3e 84ef c53d cf87 9cbd 39c9 49bd
00000360: ebab 013e a058 6d3c 29ce 243e a02f 093e
00000370: 0ede 0c3e ca76 fdbd ab7f 12be 8820 30be
00000380: 490b b6bd c5a3 2ebe 0968 cc3d 7f0a b53d
00000390: 15b3 2fbe face 10be 948d 1dbe 0a1e 6abd
000003a0: 134b 5dbd 0102 b2bd f15e 00be dedd 19bd
000003b0: ef5c c3bd d458 15be 8c53 463d 8d6d 333e
000003c0: 45c4 673c 3d40 f8bd 2f2a 8b3d 73ee 07bd
000003d0: 8d67 083e 1597 45bd 550c bd3c b231 25be
000003e0: fc76 a8bd 9f9b 18be 687a f6bd dffc bfba
000003f0: b2e1 b8bd 550a 253e ee54 ee3c 29b5 333c

fc2.bias f4 [16]
-0.08885388 0.1329679 0.039728798 0.015982907 0.013080211 0.095237754 -0.008308493 0.059966367
0.043245595 0.1630556 -0.068675004 -0.08310393 -0.094593056 0.1338118 -0.025524193 0.11845026
00000000: 06f9 b5bd bd28 083e aaba 223d 96ee 823c
00000010: 624e 563c 030c c33d 5820 08bc 4b9f 753d
00000020: 4b22 313d 0cf8 263e 7ba5 8cbd 6532 aabd
00000030: 01ba c1bd f605 093e 1d18 d1bc 0d96 f23d

fc3.weight f4 [1, 16]
0.066215664 -0.14340127 -0.14070043 -0.13267589 0.058924586 0.24895129 0.22769555 0.08378023
-0.2295546 0.19457227 0.21034065 -0.17981282 0.15484902 -0.039753586 -0.13609424 -0.118842155
00000000: 149c 873d c8d7 12be c613 10be 30dc 07be
00000010: e85a 713d 16ed 7e3e 0629 693e f894 ab3d
00000020: 5c10 6bbe f43d 473e 8a63 573e da20 38be
00000030: be90 1e3e a8d4 22bd 4a5c 0bbe 8463 f3bd
