DRL_Nets6/actor_target_0_100.pth (torch, 5686 bytes, 5 tensors)

fc1.weight f4 [32, 5]
00000000: 0072 d3be ff6a debe b9f5 70be aaf1 11be
00000010: d6fe 9ebe e3fc 453e 1930 e33c 9fc8 a7be
00000020: bc9f ed3e d5b2 123e d279 6f3e 6cde 18be
00000030: 0316 cfbc d1dc 473e 22e4 dbbe 57c3 cfbb
00000040: c160 c13d c82b 193e 8d61 a0be 8784 983d
00000050: e9a2 a63e ddaa b9be 0941 a5be 35ed 663e
00000060: d232 a73e 04d4 df3e 1156 05be 412f 55be
00000070: 2e30 d8be 3eff 0e3e f444 d73e e1fb 27bd
00000080: 7e8a 7e3d be51 a2bc 78c1 b03e a169 b43e
00000090: 2ef9 513e 89f1 853e 0ee8 8d3d 9d8b 9abe
000000a0: 6310 da3d 7a8b cfbd 6977 2b3e 423c 0b3e
000000b0: d759 b3be c483 903e 430c 863e db1a 48be
000000c0: c5c4 adbe c62f 1ebe 5cd8 95be 6221 f9bd
000000d0: 42dc aebe 4f6a 273e 579f e13d 991c 653e
000000e0: 1c22 88be 7abf c6bd bdf1 bc3e b086 253e
000000f0: 689c 7fbe 36bd b2be 9b31 c2bd 4980 c53e
00000100: 27d2 9b3e 2f16 e93e 6fae 903e 785b d73e
00000110: aad1 793e 3a34 d2be a78b d43e f2c0 e6be
00000120: dd46 eabe 4480 e23e af43 c83e eb33 c63d
00000130: 1b09 1c3e 85ec 15bd 7b02 1c3d f332 8ebc
00000140: 91eb a0be aa06 983e b889 933e fb3c 29be
00000150: 5296 92be b701 813d 9f0f adbe f591 1c3e
00000160: 5912 653e d595 7d3d 6a79 45be 3c8d 56be
00000170: 310d 91be e7df ac3e b8ab 413e d71b 89be
00000180: 9f76 dbbd 6aa7 c7bd f2e0 863e f968 d63e
00000190: 2515 d73e 2781 2ebe 129b a33d 71a5 10bd
000001a0: d5ca a63c fd08 313e 8459 72bd 87be cd3e
000001b0: e5b4 8fbe 0667 9d3d b522 0f3d 0125 d4bc
000001c0: f12d cfbe 0131 d5be 7aac d2be ed4c 35be
000001d0: 54c3 ed3e 6b8b 0dbe a48b 683e 6305 5f3d
000001e0: d783 263e c652 603e 1836 a13e 6dcd a53d
000001f0: bfbd a5be f886 da3d df00 a23e d531 f33e
00000200: 6974 d0bc a1ab 923e 541c c33e 036c e63e
00000210: 5418 ac3e c4c1 70be fa42 8bbe e60a e1be
00000220: 8da1 86bd 4559 b0be a0e9 be3d dcb8 b3bd
00000230: 5ea4 a53e e22f 66bd 3878 543e bee1 2bbc
00000240: 8282 62bd 8f8f c43e 101b 05be fbbf c43d
00000250: 7efa cc3e 387d 81be 5e5a 6d3e c6e2 e33e
00000260: a60c cfbe 9106 783e ae6a e23d 69e3 b53e
00000270: dc51 ac3d 4843 d1be 733f 8f3e f635 083e
-0.41297913 -0.43441007 -0.23531236 -0.14252344 -0.310538 0.1933475 0.027732896 -0.3277025
0.4641093 0.14326032 0.23386315 -0.14928597 -0.02527905 0.19517829 -0.4294749 -0.006340425
0.094422825 0.14958107 -0.31324425 0.074471526 0.32546166 -0.3626317 -0.3227618 0.22551425
0.3265596 0.43716443 -0.13021113 -0.20818807 -0.42224258 0.13964555 0.42044795 -0.041011695
0.062143795 -0.019814368 0.34522605 0.35236838 0.20505211 0.2616084 0.069290265 -0.3018464
0.10647657 -0.10134025 0.1674477 0.13597205 -0.3502948 0.2822553 0.2618123 -0.19541495
-0.33939186 -0.15447912 -0.29266632 -0.121645704 -0.34152418 0.16349147 0.1101672 0.2237419
-0.26588523 -0.0970449 0.36903182 0.1616466 -0.24962008 -0.3490998 -0.09482118 0.38574436
0.3043377 0.45524737 0.28258082 0.42061973 0.24396387 -0.4105547 0.41512796 -0.4506908
-0.4575719 0.44238484 0.39114138 0.09677871 0.15237848 -0.036602516 0.038088303 -0.017358279
-0.31429723 0.29692584 0.2881601 -0.16527168 -0.2863031 0.06299155 -0.3380098 0.15290053
0.2237028 0.06191047 -0.19284597 -0.20952314 -0.28330377 0.33764574 0.18913162 -0.26779053
-0.107159846 -0.097487286 0.26343495 0.41876963 0.4200832 -0.17041455 0.07988562 -0.035314027
0.02036039 0.17288585 -0.0591674 0.40184423 -0.280677 0.07685666 0.03494521 -0.025896551
-0.40464738 -0.4163895 -0.41147214 -0.17705126 0.46438086 -0.13822715 0.22709519 0.054448497
0.1626123 0.21906576 0.31486583 0.080958225 -0.32371327 0.106702745 0.3164129 0.47498956
-0.025446134 0.28646567 0.3810755 0.4500428 0.3361231 -0.23511416 -0.27199537 -0.43953627
-0.06573782 -0.34443107 0.09321904 -0.087754935 0.32351965 -0.05619801 0.20748985 -0.010490833
-0.055300243 0.38390777 -0.12998605 0.0960693 0.4003486 -0.25290847 0.23179004 0.44508952
-0.40439337 0.24221255 0.11055504 0.35525063 0.08414051 -0.40871644 0.27978095 0.13301834

fc1.bias f4 [32]
00000000: f710 a73e acb3 3a3e f003 2f3e 4610 113b
00000010: 3097 c3be febe d6be 0040 c1be edf1 98bc
00000020: 5312 19be 4ed9 a1bd 2a37 cf3e f2c1 2b3e
00000030: f3f0 3ebe c5f7 983e 2053 fc3d 6cea 513e
00000040: c6b9 533c f8ab 973e 4f1b d73e 0659 48be
00000050: e3be 973e 8224 453e bf07 683e f3c4 69be
00000060: 49f0 a83e 19e9 29be f547 58bd 7a64 d3bd
00000070: c0db 7fbe 8d24 a9be 10c4 cf3d 437f dbbd
0.3263013 0.18232602 0.17091346 0.0022134944 -0.38201284 -0.4194259 -0.3774414 -0.018670047
-0.14948396 -0.07902776 0.40471774 0.16773203 -0.18646602 0.29876533 0.12320542 0.20499581
0.01292271 0.2962339 0.42013022 -0.1956521 0.29637823 0.19252208 0.22659205 -0.22829036
0.32995823 -0.16592826 -0.052803 -0.10321899 -0.24986172 -0.330357 0.10144818 -0.107176326

fc2.weight f4 [16, 32]
00000000: 8f10 85bd d499 8b3d 12eb ffbd 9535 123e
00000010: 2fbc 05be a096 a6bd 57ae debd b4b0 1c3e
00000020: a79c 413d 270f 15be 154a ce3d 05f4 0cbe
00000030: eaaf db3c 5c93 cf3d c8ee 24bd 5a16 a63d
00000040: 9765 0e3d 32ad 7d3d 9cbb babd 123b d9bd
00000050: 8634 773b 2698 7abd da97 fcbc 6313 46be
00000060: 4c5c aa3d b5fb 243c 68dd 06be 58ca 283e
00000070: e852 09be 7454 1abc 4e33 cb3d 42de 36be
00000080: ac32 323e 2686 233b 0e0c e2bb f6a5 ea3d
00000090: a055 d93d df74 c6bc c934 0f3e 773c ab3d
000000a0: a80e c2bd a99b 0c3e 0773 21be 3fb1 5a3d
000000b0: 11d3 7dbd 29d6 c73d 6043 a2bc 8166 9ebd
000000c0: 8fba c13c a832 4c3c 968a 19bd 97b4 e5bd
000000d0: 2257 543e b3df 0bbe 3573 773c 2464 583d
000000e0: adff eabd 6608 a03d 57a6 2f3e 2c1e 8f3d
000000f0: 2977 1a3d 7b6c 183e 0eaf 9b3d e289 96bd
00000100: ef41 cf3d 9795 04be 416f e4bd 22e9 ee3d
00000110: 4cf0 f63d 1aba 003e 27f1 90bd 4b9c 0fbd
00000120: a9bb 01be dd0a 323e 5231 06be be34 993c
00000130: d02b 07be 6670 02be ac8c 06bd bed5 2b3e
00000140: 8aa4 233e df5a 163e 0292 293e bcbf 533d
00000150: 5e82 213d 05b8 e23d f88a 0cbe eba5 eb3d
00000160: 9e7d 5cbd 288b f2bd 20d4 1bbe dfc4 c43d
00000170: ccc4 16be 7ada 5bbd 605f 07be 508d 8f3c
00000180: 4577 283e 0a37 513d 4c5e d1bd 5be7 1cbe
00000190: e248 2d3e ba55 54bd 7155 7a3c 1255 12be
000001a0: 5d8c 63bd 508b 103e 6fce 9dbd d160 d93d
000001b0: 17eb f63d 2bc7 21be b7af 0cbe fd33 603d
000001c0: 72ca 9d3c addf 0f3e 23a4 8f3d 5c60 8abd
000001d0: cc03 a3bd 8916 19be 5c06 163e 02ef 00be
000001e0: 4114 a6bd 93f8 9fbc 5799 6a3d 1724 8a3c
000001f0: aac8 01be d6d6 ea3d 46e9 753c 1e89 d63c
00000200: 5860 143e ef59 2e3e 98f5 a73c 3d49 4e3e
00000210: 4b1e ee3d 6bfb 9cbd 51af a0ba ba47 c2bd
00000220: 6ac8 4f3d e9d7 05be 2355 123e f80e 03be
00000230: 3834 b3bd 360a c63d 1dbb c0bd 6397 6fbd
00000240: bbe1 bd3c df04 6f3d de39 22be 0045 043e
00000250: 8765 a1ba 2fdf 353e 1929 c53d 2ea8 263d
00000260: ef7b 383e ff79 74bd 67e0 393e 2172 e8bc
00000270: bb78 163e c4d6 cd3d 6464 8c3d 1171 413c
00000280: 2921 2f3e 57a2 8ebd 1770 bfbd 0dd6 ea3c
00000290: b9d3 a93a bf39 8f3d b098 123e 5351 083e
000002a0: b375 03be a8cc a8bd 31da 9b3c 9c5d 35bb
000002b0: c0b5 82bd c7d3 d33d 4c2d 1b3e 11b7 c5bd
000002c0: 91be 1ebe d4c5 7abd b192 253e 009e f33d
000002d0: 4c79 6c3d d0a3 1b3e 3e56 a23d ca62 c6bc
000002e0: eb6f 16be ea5c c63d e682 f8bd a04b f0bd
000002f0: 2df1 d2bd dfd4 0e3e ea9a 99bd 0b88 c83d
00000300: 0a38 16be 5fcf bfbd b361 27bd 3747 8ebd
00000310: 0302 2dbe 9a70 8abd 054d 37ba 5812 bdbc
00000320: 2bd3 d53d 018b 2ebd cba0 2e3e 6459 85bc
00000330: eb6d f5bd cf59 ef3b 7c5b ac3d dc26 97bd
00000340: 920c f7bd ffd3 c0bd 49d7 99bd d843 da3d
00000350: ae2c 1ebe 1ad5 2dbd 216c bebd 108b 273c
00000360: cdfd 3abd 9d68 773d 94f2 423d 8fd8 0fbe
00000370: f938 98bd 098c 663d f108 7a3d 8741 17be
00000380: af2d 2bbe 154a 433e f70e aabd a77e 9c3d
00000390: 1e5c e4bc c6ea efbd f89b 443e 4dd0 433e
000003a0: a3b2 5d3e 76cb 9ebd 49f9 1abc c387 63bd
000003b0: e7a3 053e b1bf 393e a534 303e 7819 073c
000003c0: d0e1 84bd ba63 f6bd b93a 0a3e bf74 a13d
000003d0: a85f 50bc 160c 6c3d a15b 3e3c a82a 87bb
000003e0: 3cb3 a8bc e518 1a3e 49fc f9bd b3e5 34be
000003f0: 3af3 f73d 130a e2bd b63b 943c d387 a33d
-0.06497299 0.0681645 -0.12496008 0.14278252 -0.13060068 -0.08134198 -0.108730964 0.15301782
0.047268536 -0.14556561 0.10072724 -0.13764961 0.02681728 0.101355284 -0.040266782 0.08109732
0.034764852 0.06193275 -0.09117815 -0.1060697 0.0037720515 -0.061180256 -0.030834127 -0.19343333
0.083183855 0.010069777 -0.13170397 0.16483438 -0.13410532 -0.009419549 0.09921895 -0.17858222
0.17402142 0.0024951785 -0.0068984097 0.11457436 0.10612035 -0.02422565 0.1398498 0.08361142
-0.09475452 0.13731255 -0.15766536 0.05339169 -0.061968867 0.09757645 -0.019807518 -0.07734395
0.023648528 0.012463249 -0.03748568 -0.112160854 0.20736364 -0.13659553 0.015103151 0.052829877
-0.114745475 0.07814102 0.17153297 0.06988177 0.037711296 0.14885132 0.076017484 -0.07350518
0.10119998 -0.12947689 -0.111540325 0.1166556 0.12057552 0.12570992 -0.07077246 -0.035061162
-0.12669243 0.17386957 -0.13104752 0.018701907 -0.13200307 -0.12738189 -0.032849 0.16780755
0.15980735 0.14683102 0.16559604 0.051696524 0.03943097 0.11070255 -0.13724887 0.11506256
-0.053830735 -0.11842948 -0.15217638 0.09607863 -0.1472351 -0.053675152 -0.13219976 0.017523438
0.16451748 0.05107788 -0.10223064 -0.1532263 0.16922334 -0.051839568 0.01527916 -0.14290264
-0.055553783 0.14115644 -0.0770539 0.106141694 0.120565586 -0.15798633 -0.13738905 0.05473708
0.019261573 0.1405017 0.070137285 -0.0675666 -0.079597086 -0.14950003 0.14650863 -0.12591174
-0.08109332 -0.01952771 0.057275143 0.016862912 -0.12674204 0.11466758 0.01500923 0.02618843
0.14489877 0.17026494 0.02050285 0.20145126 0.11626872 -0.07665142 -0.001225928 -0.09486337
0.05072824 -0.13070644 0.1429029 -0.12798679 -0.08750194 0.09669916 -0.09410689 -0.058493983
0.023178926 0.058354255 -0.15842387 0.12916946 -0.0012313583 0.17760919 0.096269794 0.040687732
0.18016027 -0.059686657 0.18152009 -0.028374733 0.14694493 0.10050729 0.068550855 0.011806742
0.17102493 -0.069645576 -0.09347551 0.02866652 0.0012956775 0.06993436 0.14316058 0.13312273
-0.12837867 -0.0824216 0.01902494 -0.0027674204 -0.06382322 0.10343128 0.15153998 -0.09654058
-0.15502383 -0.06122382 0.1616924 0.118953705 0.057732865 0.15199208 0.07926606 -0.024217028
-0.14691131 0.09685691 -0.12134342 -0.11733174 -0.10299907 0.13948391 -0.07500251 0.09791573
-0.14669815 -0.09365725 -0.040864658 -0.06947177 -0.16895299 -0.06759758 -0.0006992373 -0.023080036
0.10440668 -0.042613033 0.17053525 -0.016277976 -0.11983856 0.007304407 0.08415887 -0.07380459
-0.120629445 -0.09415435 -0.075117655 0.106574714 -0.15446731 -0.042439558 -0.09297968 0.010226026
-0.0456522 0.0604025 0.04759462 -0.14047454 -0.07432742 0.05628589 0.061043683 -0.1477109
-0.16716646 0.19071229 -0.083036356 0.076413445 -0.027875956 -0.11714701 0.19200122 0.19122429
0.21650176 -0.07753651 -0.009458848 -0.055549394 0.13050805 0.1813953 0.17207582 0.008245818
-0.06488383 -0.1203074 0.13498963 0.07883596 -0.012718119 0.057628714 0.011618526 -0.004124958
-0.020593278 0.15048559 -0.12206323 -0.17665748 0.12106939 -0.11037078 0.018094879 0.07984891

fc2.bias f4 [16]
00000000: 4601 063e fcaf ffbd b550 ddbd a3b2 c9bd
00000010: 27f5 283e 4d3a b03d acd4 e1bd eea1 123c
00000020: 508e 47be 6a12 c63d 4c3c 083e f631 b1bc
00000030: 00c9 bc3d 2e5c 0d3d 5e96 a03d 368e 3a3e
0.13086423 -0.12484738 -0.10806409 -0.098485254 0.16499768 0.0860487 -0.11026892 0.00894974
-0.19487882 0.09671481 0.13304251 -0.021630269 0.09218025 0.034511738 0.0784118 0.18218312

fc3.weight f4 [1, 16]
00000000: 48ed 3d3e 0147 8cbe 1816 5c3d 0b3d e9bc
00000010: 48c2 8fbd e53a 15bc 5cd7 743e f528 2dbd
00000020: 3fb5 5d3e a9b4 b6bd f2e6 82be 583d 233d
00000030: 9d66 48bd 8ddc 623e 2663 db3c 3a21 22bd
0.18547547 -0.27397922 0.053732008 -0.02847149 -0.07019478 -0.00910828 0.23910278 -0.042275388
0.21651171 -0.08921177 -0.25566822 0.039853424 -0.048925985 0.22154446 0.026780676 -0.03958247
