DRL_Nets6/actor_1_43.pth (torch, 5606 bytes, 5 tensors)

fc1.weight f4 [32, 5]
000000 c1 c8 2a 3e ea 9a 2c be 53 2b 1c 3e 5e 03 7b bd
       0.16678144 -0.1685597 0.15250902 -0.061282508
000010 72 24 1e 3d c8 eb 84 3e b0 b1 83 bc 7e 49 aa 3b
       0.038608976 0.25961137 -0.016075939 0.005196749
000020 a8 4e e3 bc 82 4f 85 3e 2f d9 93 3e ae 55 ad be
       -0.027747467 0.26037222 0.28876635 -0.3385443
000030 26 7c ac 3d ed b5 ce 3e 39 0b a0 be 98 50 9b be
       0.08422117 0.40373173 -0.31258562 -0.30334926
000040 f5 3f 48 bd 17 ed d5 be dc ea 5f 3e f9 05 b7 3b
       -0.04888912 -0.41782448 0.21866935 0.005585429
000050 9c 5a 6a 3a dc df 76 3e 44 88 da bd 3b 56 cd be
       0.00089398935 0.24108833 -0.10670522 -0.4010485
000060 c3 b1 a9 3e 3b 7d bd 3e ae 3b 88 be 7c 27 41 bd
       0.33143434 0.37009606 -0.26608032 -0.047156796
000070 29 66 20 be f4 06 bc be 55 f5 03 be 43 51 d1 3d
       -0.15663971 -0.36724055 -0.12886555 0.102205776
000080 aa 4c 1a be 27 1f 19 3e 25 71 03 3d e0 7b a6 3d
       -0.15068308 0.1495329 0.032090325 0.08129096
000090 e5 bf 03 be c7 e8 28 3e c3 0b 32 3d 65 e9 99 3e
       -0.1286617 0.16495048 0.043468248 0.30060878
0000a0 7c 62 86 be 39 c9 e5 3d 43 29 a2 be eb 74 03 3e
       -0.26247013 0.11220021 -0.31672105 0.1283757
0000b0 0a eb ae 3e 3e 06 11 be fd 0c 9c 3e 90 db c3 3e
       0.34163696 -0.14162537 0.3047866 0.3825345
0000c0 8f e8 00 3e 56 89 1d be 6a 18 6c bd 7f 04 08 3c
       0.12588714 -0.15384421 -0.05764047 0.008301853
0000d0 d2 1f af bd 31 d3 96 3c a1 f1 e1 bd 41 07 d1 be
       -0.08550991 0.01841125 -0.11032415 -0.40825847
0000e0 11 97 27 3e 2e d3 c0 bd b8 07 fe 3c 22 4f c8 3d
       0.16366221 -0.09415279 0.03100954 0.097807184
0000f0 99 a5 c5 3d cb 4b 8a 3e db 97 8e 3e 61 73 9b 3e
       0.09650726 0.2701095 0.27850232 0.30361465
000100 6e 8c 1c be dc ee 93 3d f9 8c 7d bd 4e 1e 9b 3e
       -0.15287945 0.07223293 -0.06190202 0.30296558
000110 6b 55 d9 3e 62 0a d3 bd 73 48 c7 be 0f 19 71 3d
       0.4244798 -0.10304715 -0.38922462 0.05886179
000120 7a a1 1c be f7 5e b5 3e 30 47 38 3d c8 71 0d 3b
       -0.15295973 0.35424015 0.044989765 0.0021582711
000130 2d 5b c0 3e 82 a3 c2 3e a1 43 81 3e 4f 45 ba 3e
       0.37569562 0.38015372 0.2524691 0.36381003
000140 1c a2 59 3e e3 6e bb be 98 a8 19 3e bd 10 25 3d
       0.21253246 -0.36608037 0.1500572 0.040299166
000150 d8 b8 9a be 2c 82 d4 3e 6d a4 d3 3e c6 fc fb 3c
       -0.3021915 0.41505563 0.41336384 0.03076018
000160 a3 6c 02 bd f1 2f 38 3c d4 8a 12 3e a4 32 c5 bd
       -0.031841885 0.011241899 0.14310771 -0.096287996
000170 92 52 ab 3e 6c 92 65 be 93 b6 62 be ba 86 9e 3d
       0.33461434 -0.22419137 -0.22139959 0.07740541
000180 57 dc ed bc d3 fa bf 3e 4e 6c 03 3d e1 c0 ca 3d
       -0.02903573 0.3749605 0.03208571 0.0990007
000190 b0 66 17 be 6d 36 b7 be 6f 56 c8 3e 2c 53 a7 3e
       -0.14785266 -0.3578371 0.39128444 0.32680643
0001a0 cc 01 8e bd 95 bb 92 bd b8 f7 c0 3e 17 17 b5 3d
       -0.069339365 -0.07164685 0.37688994 0.08842295
0001b0 b9 ad b5 3e 67 2c a9 be 84 1a 94 be 5a ae d7 be
       0.35484102 -0.3304169 -0.2892648 -0.42125207
0001c0 0a 6e d4 be 8e ee 2c 3e da b1 56 be f3 04 18 3d
       -0.41490203 0.16887876 -0.20966282 0.037114095
0001d0 84 94 36 be a7 e4 c3 3e 5f 8a d9 be 8c 0f 9a 3d
       -0.17830092 0.38260385 -0.4248838 0.075224966
0001e0 50 44 d0 3e 6c 49 cc 3e d0 53 5e 3e 94 d3 c0 bc
       0.40677118 0.39899766 0.2171166 -0.023538388
0001f0 5e 14 a8 be 35 9f 66 3e 8a 2f aa 3e 36 33 bf be
       -0.3282804 0.2252167 0.33239394 -0.37343758
000200 98 29 12 be c5 c3 d6 bb 7f 8d cc 3d 9f 3b 9d be
       -0.1427368 -0.0065540993 0.09987926 -0.3070955
000210 9c a2 1c be 75 5f af 3e 68 25 d2 3e af 3c c4 be
       -0.15296406 0.34252515 0.41044164 -0.38327548
000220 44 75 c1 3e 1e 3c ad bd 83 75 de 3d 8a 0b 12 be
       0.3778478 -0.08458732 0.10862257 -0.14262214
000230 5c 96 be be 54 a0 97 be 15 ad 8b 3e ab 38 8b be
       -0.3722409 -0.29614508 0.2728049 -0.27191672
000240 2f 12 7e be 34 18 b4 3e b0 60 df be c3 e8 d0 bd
       -0.24811624 0.35174716 -0.43628454 -0.10200646
000250 7d 5a b9 be bc 57 1b be a4 af 67 3e 56 d6 a6 bd
       -0.3620185 -0.15170187 0.22625595 -0.0814635
000260 e1 ec 5f bd 5c b0 d7 be 69 d1 4f 3e 58 30 16 be
       -0.054669265 -0.4212674 0.20294727 -0.14666879
000270 a0 b7 95 3e fc 9b 5f 3e 2f 29 a3 3e 54 4e ae be
       0.29241657 0.21836847 0.31867358 -0.34044135

fc1.bias f4 [32]
000000 42 6c ca 3e bf b2 d2 3e b5 42 46 3d e2 28 39 be
       0.3953572 0.41151997 0.04840346 -0.18082002
000010 5c ad 4a be 99 53 a4 be 9a a5 3b be 9c a1 c3 3e
       -0.19792694 -0.3209503 -0.1832489 0.38209236
000020 38 99 80 be da 06 b3 bd 70 a4 c7 bd 8b 4a e9 ba
       -0.25116897 -0.08741541 -0.09748161 -0.0017798705
000030 d6 d0 d3 3d b7 52 43 be f7 d9 f8 bd 79 1a d5 be
       0.10342567 -0.19074522 -0.121509485 -0.4162176
000040 dd 37 ab 3e 70 e8 6f 3d 4a 04 c2 3e 53 2d 84 3e
       0.33441058 0.05857128 0.37893897 0.2581583
000050 1d d8 46 3e 9e 9a ce 3e ac 99 97 bd 36 5f dc 3e
       0.19418378 0.4035234 -0.074023575 0.4304139
000060 07 da 2a 3e 62 06 2b 3e 19 85 63 bc 21 d1 b9 3e
       0.16684733 0.16701654 -0.013886713 0.36292365
000070 e9 39 87 bc f3 01 b1 3e af 3e 63 bd f0 0b bc be
       -0.016507106 0.345718 -0.0554797 -0.36727858

fc2.weight f4 [16, 32]
000000 d7 f9 f1 bd fa ea 31 be dd 10 17 3e 71 09 da 3d
       -0.11815231 -0.17374793 0.14752527 0.10646332
000010 c5 be 0f 3d 0a 35 2d be dd 72 0c bd 0a 14 3b bc
       0.03509404 -0.16914764 -0.03428923 -0.011418352
000020 ab b3 0f 3e bb da 0b 3e e4 5e c5 3c b4 08 96 3c
       0.14033382 0.13657658 0.024093099 0.018314697
000030 e7 c8 c9 3d 76 ca ea bd 90 10 0c 3e fb fa 26 3d
       0.09852772 -0.114643976 0.13678193 0.040766697
000040 ba 99 7f bd 49 27 59 3d ba fa 22 3e 6d 34 0a be
       -0.062402464 0.05301598 0.15915957 -0.13496561
000050 40 e9 9d 3c 84 a8 7b bd 6e b4 de bb 0e af e6 3d
       0.019276261 -0.061440006 -0.0067964112 0.11263858
000060 63 af 61 bd 6f eb fa 3b a4 d3 c7 3b 26 30 ab 3d
       -0.055098902 0.0076574604 0.0060982276 0.08358793
000070 ac d6 0d 3e 1d e8 1f 3e e0 f4 ed bd 40 68 d7 bd
       0.13851422 0.15615888 -0.11618972 -0.10517931
000080 74 de 97 bc 50 09 40 3d 1f 99 af bd b0 4a c2 bc
       -0.018538691 0.04688388 -0.085741274 -0.023717254
000090 dc 35 2b 3e f2 45 d3 3d 34 9f 58 3d 65 fb 3e bc
       0.16719764 0.103160754 0.052886203 -0.011656617
0000a0 5b 53 b4 3d b4 68 81 3d 2f 29 d1 bd a4 39 bb bd
       0.08804961 0.06318799 -0.10212933 -0.091418535
0000b0 42 c3 ee bd 92 0b ac 3d a2 54 ce bd ce 25 1b be
       -0.11658336 0.08400644 -0.10074736 -0.1515114
0000c0 92 1b 4b 3d de ee 31 be 39 d9 1c be 23 b8 24 3c
       0.04958684 -0.17376277 -0.15317239 0.010053667
0000d0 83 66 09 be d5 32 be 3d 11 b8 f9 3d d9 9a a8 3d
       -0.13418011 0.09287039 0.12193311 0.0823266
0000e0 8f 7d ac bd a9 7d 60 bd 38 b9 8f 3d ec 7d d8 3c
       -0.08422386 -0.05480734 0.070177495 0.026427232
0000f0 83 45 00 be 8c 16 ff 3b bb 35 fc 3d b6 b4 39 bd
       -0.12526517 0.00778467 0.12314936 -0.045338355
000100 c9 69 64 bd ae 68 99 bd 66 8c 87 bd c6 42 05 3c
       -0.055764947 -0.07490669 -0.06618576 0.008133596
000110 97 c3 09 b9 a5 c4 3b bd 85 95 bf 3c c7 7c 28 3e
       -0.00013138201 -0.04584183 0.023386726 0.16453849
000120 76 3c 0b 3e 5e 0a 2c 3e c3 23 1a 3d 1c 81 16 be
       0.13597283 0.1680083 0.03763176 -0.14697689
000130 3d f2 33 3b be 59 31 be 50 ac 1c be 93 ac a0 3d
       0.0027457618 -0.1731939 -0.15300107 0.07845416
000140 ab 16 a5 bd ff d8 72 3d d4 a4 1f 3e 8a 1c 38 3e
       -0.08060964 0.059288975 0.1559022 0.17979637
000150 fd 86 6c 3d a0 e6 0a 3d f3 85 83 3d be 3c 03 be
       0.057745922 0.033911347 0.06422033 -0.1281614
000160 60 43 ce bd f9 db 0d 3e ae 45 12 be d5 0c 06 be
       -0.100714445 0.13853444 -0.14284393 -0.13090833
000170 01 72 a7 bc 18 41 2d be 44 33 61 bc 0c 12 a1 3b
       -0.020440103 -0.16919363 -0.013745133 0.0049154814
000180 b9 5e aa bd d8 e2 3a bb 60 b9 1b 3d b6 ab 34 3e
       -0.08318848 -0.0028516557 0.038018584 0.17643628
000190 cc ec 2f be 0e be f0 bc 73 74 29 3e 85 ef ca bd
       -0.17180175 -0.0293875 0.16548328 -0.09908966
0001a0 ec 9b 34 3e 7c 08 10 be 0c 69 42 bd 85 e6 17 bd
       0.17637604 -0.14065737 -0.04746346 -0.037085075
0001b0 0e a2 c7 bd 5d 0e 14 3e d6 82 5b bb 65 18 4e bd
       -0.09747706 0.14458604 -0.0033494732 -0.050316233
0001c0 04 3f 5c bd d2 49 c5 bd 09 d5 85 bd 6f 4a a2 bd
       -0.053771034 -0.09633221 -0.06534774 -0.07924353
0001d0 d6 53 f8 bd 21 ab 6a bd 9d 7e e4 3c 45 62 bf 3d
       -0.121253654 -0.057292107 0.027892405 0.09344915
0001e0 b8 10 c1 bd 50 bd 85 3d ab bb 9e 3d 39 65 1a 3e
       -0.09427017 0.06530249 0.077506386 0.15077676
0001f0 65 a5 02 3e 28 bc c6 3b d8 78 a1 bc cc 45 00 3e
       0.12758406 0.0060649104 -0.019710943 0.12526625
000200 ba d0 c6 3d f3 04 93 bc 8e 37 c5 bd ef 74 12 be
       0.0970778 -0.017946696 -0.09629737 -0.14302419
000210 02 0c 0e be b7 36 1b bc bd 0c 4c bd c3 dd b6 3d
       -0.13871768 -0.009473494 -0.049816836 0.089290164
000220 9c 9a 85 bd 88 26 e0 bd 02 43 07 3e 9e 47 8d 3d
       -0.0652363 -0.10944849 0.13209155 0.068984255
000230 4a c7 00 be c5 01 0e be 91 7f 25 3e ff 93 e7 3d
       -0.12576023 -0.13867863 0.16161944 0.11307525
000240 ea ed 21 be da 17 87 bd 98 87 23 bd 84 ad ab 3a
       -0.15813413 -0.06596346 -0.039924234 0.0013097976
000250 48 68 12 bd de f8 6a bb 93 fc 23 3c 32 2f 83 bc
       -0.03574398 -0.0035853903 0.010008949 -0.016013715
000260 35 fd ba bd 1a 61 a7 bd e1 aa 1a be e9 30 21 3e
       -0.09130327 -0.081728175 -0.15104248 0.15741314
000270 25 53 19 bc 8b 1e 11 3e 33 73 12 3e ab 53 d5 3c
       -0.009358202 0.14171807 0.14301758 0.026040873
000280 2d fc 31 be fd 6b 8f bd d8 fa db 3d e8 56 f4 bd
       -0.17381354 -0.07003019 0.10741204 -0.119306386
000290 f7 d1 aa 3d 0d 72 f3 3d 40 7b b1 3d 25 6f bf bd
       0.08340829 0.11886988 0.08666086 -0.09347371
0002a0 4b e0 99 bd 8e 5f 8d bd 19 52 2f 3e 78 e2 00 3e
       -0.075134836 -0.06902991 0.17121162 0.12586391
0002b0 31 6f da 3c 1f 12 2c be 7d 66 3b 3d ba 62 ff 3d
       0.026664348 -0.16803788 0.045752037 0.124700025
0002c0 9d e8 8b bd b7 7c 89 3d 0a 9b 11 3e f2 fd 32 be
       -0.06831477 0.067132406 0.14219299 -0.17479685
0002d0 93 50 33 3e 07 80 20 be 39 84 20 be fe 20 be 3d
       0.17511205 -0.15673839 -0.15675439 0.092836365
0002e0 6e b2 1a be e8 14 08 3e d1 e6 00 be 69 c5 e4 3c
       -0.15107128 0.13289225 -0.1258805 0.027926164
0002f0 02 3a 02 be 09 66 18 be 53 77 5c bd 8d 8e 97 3d
       -0.1271744 -0.14882673 -0.053824734 0.07400236
000300 72 6a d0 bb ea 5a 2a 3e 75 93 2e bc df 79 e8 3d
       -0.0063603455 0.16636243 -0.010655274 0.1135137
000310 a0 75 0c 3e 32 de 9d 3d e4 41 0a 3e d8 4c 73 bd
       0.13716745 0.07708396 0.13501698 -0.059399456
000320 e0 97 a6 3d aa 8c c4 3d 3a 33 b4 bd 75 51 49 3d
       0.081344366 0.09597142 -0.08798833 0.04914995
000330 cb 4d ad bd 7f 94 d0 bc e9 76 41 bc 86 be 31 be
       -0.084621035 -0.025461433 -0.011808136 -0.17357835
000340 e4 52 d7 3d 29 ab fe bc 86 e8 c2 3c 02 7b e3 bd
       0.10513857 -0.031087475 0.023792516 -0.11107446
000350 30 2c 0a 3e 1d 37 bf 3d cf 87 9c bd 86 6f 52 bd
       0.13493419 0.09336684 -0.07643091 -0.05137589
000360 ac 59 fd 3d cb 7a 39 3c 29 ce 24 3e 06 c4 05 3e
       0.12370619 0.01132078 0.16094269 0.13063058
000370 0e de 0c 3e 41 73 00 be f6 c0 14 be 46 95 33 be
       0.13756582 -0.12543966 -0.14526734 -0.17537412
000380 49 0b b6 bd c5 a3 2e be 09 68 cc 3d 7f 0a b5 3d
       -0.08888871 -0.1705466 0.09980781 0.088398926
000390 15 b3 2f be fa ce 10 be 94 8d 1d be 0a 1e 6a bd
       -0.17158158 -0.14141455 -0.15386039 -0.057157554
0003a0 13 4b 5d bd 01 02 b2 bd f1 5e 00 be de dd 19 bd
       -0.054026674 -0.086917885 -0.12536217 -0.037565105
0003b0 ef 5c c3 bd d4 58 15 be 8c 53 46 3d 8d 6d 33 3e
       -0.0953921 -0.14584666 0.04841952 0.17522259
0003c0 45 c4 67 3c 3d 40 f8 bd 2f 2a 8b 3d 73 ee 07 bd
       0.014145915 -0.121216275 0.06795155 -0.033186387
0003d0 8d 67 08 3e 15 97 45 bd 55 0c bd 3c b2 31 25 be
       0.13320751 -0.048239786 0.02307717 -0.16132239
0003e0 fc 76 a8 bd 9f 9b 18 be 68 7a f6 bd df fc bf ba
       -0.082258195 -0.14903115 -0.12035066 -0.0014647505
0003f0 b2 e1 b8 bd 55 0a 25 3e ee 54 ee 3c 29 b5 33 3c
       -0.09027423 0.16117223 0.029093232 0.010968485

fc2.bias f4 [16]
000000 81 2d bc bd bd 28 08 3e 7f 9a 30 3d 96 ee 82 3c
       -0.09188367 0.1329679 0.04311609 0.015982907
000010 62 4e 56 3c 61 d8 bc 3d aa d9 38 bc 4b 9f 75 3d
       0.013080211 0.092209585 -0.011282364 0.059966367
000020 c1 e6 3e 3d 18 be 23 3e b9 6e 93 bd c6 4c a3 bd
       0.046606783 0.15990484 -0.07198853 -0.07973628
000030 97 d9 c6 bd 4e af 0d 3e b5 89 a3 bc 9d 83 f9 3d
       -0.09709471 0.13836405 -0.019963125 0.12183306

fc3.weight f4 [1, 16]
000000 47 16 81 3d c8 d7 12 be be c0 13 be 30 dc 07 be
       0.06303077 -0.14340127 -0.14428994 -0.13267589
000010 e8 5a 71 3d 5c c8 7b 3e 88 61 66 3e f8 94 ab 3d
       0.058924586 0.2458815 0.22498143 0.08378023
000020 1a a4 6e be 66 eb 43 3e 24 57 54 3e 69 ad 3b be
       -0.23304787 0.19132766 0.20736367 -0.1832787
000030 a6 7d 1c 3e ae 40 38 bd b5 bc 11 be 23 d9 fa bd
       0.15282306 -0.04498356 -0.14232142 -0.12248447
