DRL_Nets6/actor_target_7_700.pth (torch, 5686 bytes, 5 tensors)

fc1.weight f4 [32, 5]
00000000: 45d1 bcbc 946b c23e 095e adbd f86d 62be
00000010: 1303 273e 1ffd e23e dc54 0fbd 8213 8e3e
00000020: 9b78 973e dfbd f53d 413f d8be 253e 383e
00000030: 6119 96be 5136 9abd f5d7 933e 7275 dabe
00000040: 5e88 d93e 4a70 bfbe e2d1 9bbe 7be6 c5be
00000050: 0271 623e 2bbc c7bc 9c64 b5be f1ac fc3d
00000060: aa58 12be 9043 6c3e 5eb6 823e a5f0 fa3d
00000070: f1fc 823e 5bd0 9c3e b073 a7be c65a b2be
00000080: 1d76 cb3e 841b 9c3e 6375 603e 1281 2cbe
00000090: 17d7 9dbe 7295 c7be 67e0 dcbe ee63 9b3e
000000a0: aa40 043e d580 f23e 666a 6e3b 5aea 07bd
000000b0: 0e56 c13e 93d8 3a3d e5d9 d73d a3cd e0bd
000000c0: bc61 bc3e 4c25 de3e 35a2 db3d 0009 40be
000000d0: ee85 c23e 40e2 f5bd 4cea 76be 3cb7 d23e
000000e0: 5498 603e 0b3e 28be 8983 10be c0fe 84be
000000f0: 23d7 9d3d 944e 40bd 6581 613e 66e2 103e
00000100: 3358 d83e 494c 563e 7e94 273e e5e7 813d
00000110: e6fd 1cbd 0875 18be e2cd ddbd 4625 8b3e
00000120: 5b5d 973e 78ee 243e 1f2f 95be 9fa3 d93e
00000130: 3f8a 75be 773f ad3e e14f 963e 05b4 7ebd
00000140: 89d2 b23e b837 2ebe 6881 9f3e 4762 70be
00000150: ae44 51bd 3c04 413e 5d35 d73e ee85 f83d
00000160: 8aef 4cbe a806 a53d 71cd 47bd d658 24be
00000170: 9acf 0fbe 4b62 683d 531f dc3e 2db0 5ebe
00000180: 33d5 58be b29f 7bbd 2cd3 c4be 7617 36be
00000190: d9c4 053f d330 8b3e bc13 653e 0d94 6bbe
000001a0: a574 0e3e 1a9f a0be 082c 83be ae0a 2abe
000001b0: e9af c03e c5df f2bd 67ab f6bd 9668 823d
000001c0: e847 813e 56e8 023f f6d3 053e 0b00 bf3e
000001d0: 9107 473d e4da 893d 3d5c df3e 32d5 71be
000001e0: 9d94 863e ffaa 90be 5f49 433e 614e a93e
000001f0: d724 6b3d f889 41be a4a1 dabe 5762 db3d
00000200: 02f9 bc3e 4ea6 72be d541 533e e031 0c3e
00000210: 6edc eb3e e90b 7cbe 100f a8be 11f1 a03e
00000220: 8e56 303d a786 93be 18f2 8e3e d427 733e
00000230: 5a99 9e3e 7985 b2be f76e 7e3e 06cf 13be
00000240: 0f3b b4be 7d7c 153e d499 b6be 6b6d c73e
00000250: 6768 87be 70f2 873e f124 ad3e d1b2 a43e
00000260: 81c7 d13e 1620 af3d 8798 033f 6fc9 b73e
00000270: c73f 0b3f 537e ca3e fd1f c1be 8d7f 953d
-0.023049006 0.379727 -0.084652014 -0.22112262 0.16309766 0.4433374 -0.034993038 0.27749258
0.29584202 0.11999106 -0.4223576 0.17992456 -0.29316238 -0.07529891 0.288757 -0.4266773
0.42486852 -0.37390357 -0.30433565 -0.38652405 0.22113422 -0.024381718 -0.3542832 0.123376735
-0.14291635 0.23072648 0.2552976 0.122529306 0.25583604 0.30627713 -0.3270545 -0.3483488
0.3973855 0.30489743 0.2191978 -0.16846111 -0.30828163 -0.38981205 -0.43139955 0.30349678
0.12915292 0.47363916 0.0036379336 -0.03318248 0.37760967 0.045616698 0.10539607 -0.10976722
0.36793315 0.4338783 0.10724298 -0.18753433 0.37992805 -0.120060444 -0.24112815 0.41155422
0.21933109 -0.16429918 -0.14112677 -0.2597561 0.0770705 -0.046949938 0.22022016 0.14148864
0.4225479 0.20927538 0.16365239 0.063430585 -0.038328074 -0.14888394 -0.10830285 0.27176875
0.29563412 0.16106594 -0.29137513 0.42507645 -0.23978518 0.33837482 0.29357818 -0.0621834
0.3492625 -0.17013443 0.31153417 -0.2347499 -0.05109089 0.18849272 0.420329 0.1213492
-0.20013252 0.0805791 -0.04877991 -0.16049513 -0.14044037 0.056734364 0.42992648 -0.21746893
-0.21175079 -0.061431594 -0.3844236 -0.17782387 0.5225349 0.27185687 0.2237081 -0.23005696
0.13911684 -0.31371385 -0.2561953 -0.16605636 0.3763421 -0.11859087 -0.12044411 0.063676044
0.25250173 0.51135767 0.13069138 0.3730472 0.0485912 0.06731203 0.4362506 -0.23616484
0.26285258 -0.2825546 0.19070958 0.3306761 0.05740818 -0.18900287 -0.42701447 0.10712116
0.36908728 -0.23696253 0.20630582 0.13690901 0.46066612 -0.24613918 -0.32823992 0.3143392
0.043051295 -0.2881367 0.27919078 0.23745662 0.30976373 -0.34867457 0.24847017 -0.14434442
-0.35201308 0.1459827 -0.35664237 0.38950667 -0.2644684 0.26552153 0.33817247 0.32167676
0.40972522 0.08551042 0.51404613 0.3589587 0.5439419 0.39549503 -0.37719718 0.07299719

fc1.bias f4 [32]
00000000: e032 8d3e 9ded 34bd 2120 893e 17c1 26bd
00000010: de76 f13c 33a6 d33e 5993 b93e 769e 793d
00000020: 05a9 95be e4dd c03e f456 8cbe 5bd9 e33e
00000030: 6f3b b5be 7f3f fd3d 8ec3 d23e 53b4 e63d
00000040: fff1 bbbd 29d1 a2bd 592f 11be c59e 1ebe
00000050: ba66 f8bb 2481 523e b502 99be c8a3 a03e
00000060: f636 91be 3757 bbbe 8f3a 66bc 97ea f6bd
00000070: 5c26 2dbe 2cb2 a4bd a948 f63d 7580 debd
0.27577877 -0.04417192 0.26782325 -0.04071149 0.029475626 0.41337737 0.3624523 0.060942136
-0.29230514 0.3766929 -0.2741009 0.44501767 -0.35396907 0.123656265 0.4116482 0.11264863
-0.091770165 -0.079500504 -0.14178218 -0.15490253 -0.0075806053 0.20557076 -0.29884878 0.31374955
-0.28362244 -0.36589977 -0.014052047 -0.12056463 -0.16909164 -0.08041796 0.120255776 -0.10864345

fc2.weight f4 [16, 32]
00000000: b667 d7bd a211 07be e37e 1bbd ee71 fdbd
00000010: fd52 b03d 4957 933d 766d 28be 7e68 a1b9
00000020: a96f 1ebe 8e0d b73c 00ac 64bd 6f95 2bbe
00000030: 3d9d 043e 37e8 153e 2bf3 16be 6cde 9bbd
00000040: 9bdf 86bd 82b7 aebb 3816 f2bd ef2a b93c
00000050: f094 1f3e 1f8e bf3c b299 1c3e e2e5 733b
00000060: a350 f5bd 8a45 b93b 4c5e 273e 2af3 55bc
00000070: 649b 21be ddf3 12be a3e0 8bbc 6288 23be
00000080: cffc fc3d 572b 71bc 8653 6e3e 81ee b8bd
00000090: 5992 5bbe f99d 643e e577 3a3d d8e8 ff3d
000000a0: 759e 7ebd d445 413e b3ac c23d ce47 26bb
000000b0: c5f2 1d3e 6761 b73d 60a8 003d 7f11 08be
000000c0: 1aaa ba3d feca c53d c4dc 60bc 95b2 a5bc
000000d0: ae17 303e 57cd ef3d 92d1 293e d19d 61bd
000000e0: b533 cb3d ee9f 91bd de15 ba3b c7b4 16be
000000f0: 7781 eabd db50 a8bd 3e57 623e 1872 213e
00000100: c599 6cbd 85d2 033e ab8c 03be 9ce7 89bd
00000110: ec56 dcbd 8b73 07be 459c 8bbd 39cf 19be
00000120: 9eac 79bc 6c9b bbbd 904e d13c 6a2c 2ebe
00000130: 7303 82bd 51d2 be3d f0e5 60bd 9b85 1fbd
00000140: c6c3 a5bb 3e9a 8ebd 69a3 2cbd bc15 f63b
00000150: af79 f9bd 5b6c 2a3d 607c e5bc 2fc9 3b3c
00000160: 08e6 20be 0dce 0cbd d421 813d 47b6 183e
00000170: a524 123e a83b 333e 77a0 a3bd c517 69bd
00000180: 1fe5 743d 18ba c8bb be9c c23d ebd7 403d
00000190: 1aed 98be 3c16 63bd 73ab 34be c360 65bd
000001a0: 0266 513e ae7b 04bd 701e 613e 8b72 543e
000001b0: e1be 2c3e 0997 1b3d 1efc 0d3e 94b0 24be
000001c0: fe8c 4bba e4cd 6bbd a166 ff3a 48a9 21be
000001d0: 26a3 adbd 008b b53d e81f 473e a1e5 d83d
000001e0: 7581 acbd 13ee ccbd fa08 63bd 31ea db3d
000001f0: 9bb7 6abd e6eb bcbc 7d39 413e 6fe1 353e
00000200: da86 873e 9d53 063e 6ae3 5e3e c8c5 a33d
00000210: 6428 88be 888b 13bd 7e54 5c3c be4a 103e
00000220: 8d00 88bd 51b3 efbc 288f 153e f462 f6bd
00000230: d3e1 1ebe 3be9 b5bb a728 823e 05f1 09bd
00000240: d43b 953d c406 a3bd dcbb 2d3e c10f 1c3d
00000250: 67dc ad3d abf7 d83d 4b0d ac3d 3bfc ce3c
00000260: a67b 7ebe f3d8 0b3e 2f40 273e 0134 3a3e
00000270: b8ce e9bd a5b5 3c3e 0644 2c3e dae8 983d
00000280: 2442 b93c c66c a33d 8a43 763c e108 bc3d
00000290: 39fa 403d 4e82 223c bed3 f7bb d36f acbd
000002a0: 8fab 3abd a8f3 3e3d ecb1 82bd f990 90bd
000002b0: 057f 593e ac3a e83d b402 dfbd a087 523d
000002c0: ba12 d03d 7d4e 11bd c916 453d 7971 56bc
000002d0: 980d d03d d227 5cbd 9075 873d 7623 463e
000002e0: b404 553e 7590 ec3d 9ad4 cdbd 49ca e4bc
000002f0: fa8f d33d 5972 ddbb cb15 8c3d f35b 89bd
00000300: 69c7 203e 2074 113e 986f 00be 64f4 153e
00000310: 96c6 b73d ab9c e3bd 0c5f be3d fd9c 44bd
00000320: 3c3c 1fbe c2de 94bd 69b7 aebd ea95 2a3e
00000330: 1f7b 2c3e ab53 333c 7c9f 1e3e 0393 1dbe
00000340: bda5 21be 3541 8bbd a150 adbd dabe ddbd
00000350: 22a5 d0bd 76fa 2d3e 7bf0 b1bc cf28 d33d
00000360: 2896 e2bd c7d3 8b3c 171a 9b3d 661a 14be
00000370: 3079 b6bd 7afe 96bc 8805 27be 78d0 b4bd
00000380: 9069 a73d 38e5 86bc 8d98 5abd 8e79 00bd
00000390: 642a 00be c3d0 ea3d b79c acbd 406f 163e
000003a0: fcfc 653e 9be0 2f3e a57e c73d 516c ab3b
000003b0: e5eb bd3d b40e b03b 94c4 273e aedf a6bd
000003c0: 3f5e d93c 5021 5d3e ba0d b83d e3a0 35bd
000003d0: 518e df3b cfb8 31be db71 c23d fc41 883d
000003e0: bc9f 6abe 8086 943c af3f 403e a19c 0abb
000003f0: 935b 003e c73c 2b3e 7745 853d 2d56 32bb
-0.10517828 -0.1319032 -0.037962805 -0.12375246 0.08609579 0.07194383 -0.16448006 -0.00030786166
-0.15472282 0.02234533 -0.055828094 -0.16756223 0.12950607 0.14639364 -0.14741199 -0.07610783
-0.06585618 -0.0053319344 -0.11820644 0.02260348 0.15584159 0.023383198 0.15293005 0.0037215878
-0.11978271 0.0056540417 0.16344565 -0.013058463 -0.15781933 -0.14350839 -0.017074889 -0.15969995
0.12352907 -0.014719806 0.23274049 -0.09029866 -0.21442546 0.22325887 0.045524497 0.12495583
-0.062162835 0.18874294 0.09505596 -0.0025372389 0.1542464 0.08954125 0.031410575 -0.13287924
0.091144755 0.09657858 -0.01372451 -0.020226756 0.17196533 0.11709087 0.16583851 -0.055082146
0.09921972 -0.07110582 0.0056788763 -0.14717399 -0.11450475 -0.08218547 0.22103593 0.1576618
-0.057763834 0.12873276 -0.1284663 -0.06733629 -0.107587665 -0.1322767 -0.068169154 -0.15020455
-0.015238909 -0.09160504 0.025550157 -0.1700913 -0.06348314 0.093174584 -0.054906785 -0.038945775
-0.0050587384 -0.06963013 -0.042148028 0.007509915 -0.121814124 0.041607242 -0.028013408 0.01146154
-0.1571275 -0.034376193 0.0630528 0.14913283 0.14271791 0.17503226 -0.079895906 -0.056907434
0.05978882 -0.0061256997 0.095025524 0.047080915 -0.29868394 -0.055441126 -0.17643528 -0.056000482
0.20449069 -0.032344513 0.21984267 0.2074682 0.1686969 0.037985835 0.13865706 -0.16082984
-0.0007764845 -0.0575694 0.0019485542 -0.15787232 -0.08478384 0.08864403 0.19445765 0.10590673
-0.084231295 -0.100063466 -0.055428483 0.10738028 -0.057304006 -0.023061704 0.18869586 0.17761777
0.2647007 0.13117833 0.21766439 0.07996708 -0.26593316 -0.03602174 0.013447879 0.14091012
-0.0664073 -0.02926031 0.14605391 -0.120305926 -0.15515833 -0.005551485 0.2542164 -0.03367712
0.07286802 -0.07960275 0.16966194 0.03810096 0.08489304 0.10594114 0.08400973 0.025266757
-0.24851856 0.13656978 0.16333078 0.181839 -0.114163816 0.18428667 0.16822824 0.07466288
0.022614546 0.07979731 0.015030751 0.09181381 0.04711363 0.009918762 -0.0075630834 -0.08419766
-0.045573767 0.046619087 -0.06381592 -0.07058901 0.2123986 0.11339316 -0.108891875 0.051398873
0.10159822 -0.035475243 0.048117433 -0.013088577 0.10158843 -0.053748913 0.0661422 0.19349465
0.20802575 0.115509905 -0.10050316 -0.027928488 0.10330196 -0.006758016 0.06840094 -0.06706991
0.15701069 0.14204454 -0.1254257 0.14644009 0.08973424 -0.111138664 0.092954725 -0.04800128
-0.15550321 -0.0726905 -0.085310765 0.1665875 0.16843842 0.010945241 0.15490526 -0.15388112
-0.1578588 -0.06799547 -0.08462644 -0.10827418 -0.101877466 0.16990075 -0.021721115 0.10310518
-0.11063796 0.017068757 0.075733356 -0.14463195 -0.089098334 -0.01843189 -0.16310704 -0.08828825
0.08174431 -0.016466722 -0.05336814 -0.031365924 -0.1251617 0.114655994 -0.084283285 0.14690876
0.22459787 0.17175524 0.097409524 0.005231418 0.09273509 0.0053728465 0.16383582 -0.08148132
0.026534198 0.21594739 0.08986993 -0.044342887 0.0068223854 -0.17355655 0.094943725 0.066532105
-0.22912496 0.01813054 0.18774293 -0.0021150487 0.12534933 0.16722403 0.0650739 -0.002721201

fc2.bias f4 [16]
00000000: 9aa3 f9ba 7105 3cbc 4906 2d3e ed45 693e
00000010: 8725 053e fecd 173e 54ee b7bd 37c9 d6bd
00000020: bc32 133e 3037 093d 2161 15bc 1f7e 4c3c
00000030: 68f6 ca3c 6147 573d 7ce9 58bd 7ea1 023e
-0.001904595 -0.011475907 0.16896929 0.22780581 0.13002597 0.14824674 -0.08981004 -0.104875974
0.14374822 0.033499897 -0.009117396 0.0124812415 0.024775699 0.052558307 -0.052957043 0.12756917

fc3.weight f4 [1, 16]
00000000: 98cb ecbd 607d d1bd 706e d13d c78a 28be
00000010: c149 4fbe 8b97 7a3e 9886 663d ca4e 3ebe
00000020: a215 333e b497 ac3d 18ad 0dbd 04e1 913d
00000030: 06eb 5d3e 06ab 943d bc7c 7bbe b478 aebd
-0.1156227 -0.102289915 0.102261424 -0.1645919 -0.20242979 0.24471872 0.056280702 -0.18584743
0.17488721 0.084273726 -0.034588903 0.071229964 0.21671686 0.07259183 -0.24559301 -0.08519116
