DRL_Nets6/actor_8_784.pth (torch, 5616 bytes, 5 tensors)

fc1.weight f4 [32, 5]
00000000: 97d6 a53e 94c5 a8be 974a 39bd 3177 05be
00000010: b3c3 5abe 2b80 4bbe 12fd de3e 476b c4be
00000020: caad bbbc 8f65 723d 2734 80bc 0124 993e
00000030: 4ff0 e3be 90dd f53e 66c4 ac3e 90f1 e33e
00000040: 8da2 c93d 27ab 45bd cd88 0d3f c250 cf3e
00000050: 9fa0 e2be f6c5 c3be 9764 adbe c838 d2be
00000060: 8122 02bc fb3c ed3e b959 9f3e 6192 d83e
00000070: b103 ffbd 6ebc 9a3e 43be b23e 6f9f 64be
00000080: e06e 133f 9ee1 7fbe 0dab 513e e333 0fbb
00000090: 79f9 9ebe ed2d a1be aead 89be d05b 96be
000000a0: e6a5 de3e a763 e53e 3b4a 843e e959 27bf
000000b0: 2a3a 8dbe 826f 8cbe 252f 0c3e d6dd fa3e
000000c0: 7b43 52bd aae9 03bd 8e00 6bbe 8ab3 c73e
000000d0: fef8 52be ebdc b13e a302 1e3e 3115 85be
000000e0: 7334 0abe b871 29be b115 e33e fbd1 64be
000000f0: e390 ef3e 9eff 7d3e ac22 9d3e c074 9cbe
00000100: 2381 f33d b6cd 1fbe 66bc 263e 2f0e d83e
00000110: b095 ebbe 5976 e83e 894d b7be b8a3 99be
00000120: 9cb9 483e 631a c1be a75c 763e b566 c53a
00000130: 1616 2f3e 9d30 483d a8f6 003f 19e8 7cbc
00000140: 0ab2 603e 68af b93e 14ab 043f 183e bcbe
00000150: f1e0 75be 9317 d1bc fbb0 c53e 4b28 3a3e
00000160: 9a18 14bf 140c b5be ae08 163e dbcf cf3e
00000170: 37ed ad3e 39af 5dbe abce fabd b31d 413e
00000180: dfbc 963e eeb0 fbbe 29cc 103e f331 8c3e
00000190: 6d8d 8d3d 2eae 913e 315b 8cbe 1ef1 983e
000001a0: 8251 b53e e299 e53e ca54 5ebd e5a2 2c3e
000001b0: 6357 a43e d044 ad3e 378e fe3e e8d9 253e
000001c0: 5f58 2dbe f330 b9bd 9406 6a3e cb31 943e
000001d0: fb4b b93e dcc8 4fbe 3920 843e c8b6 dfbd
000001e0: 6c48 1dbe 1dee dd3e a1bd 8dbd 0e00 86be
000001f0: 6607 6e3d dc9e 303e b104 7c3d b5fb d0be
00000200: df12 b73d 4caf 6dbe d2bf b33e a453 b83d
00000210: a502 c13e 16e4 f13d 6f7d 783e 1ace 2dbe
00000220: f6fc efbe 0120 9d3e 82d9 98be 346a a83e
00000230: 646f b4be ec2e c33e 8085 6e3e c658 193e
00000240: a74b e33e f8aa dcbd 828d dd3d d948 e03e
00000250: cdad 833d ca0a c3be cb17 bdbe c279 d43e
00000260: 8e18 80be b228 d0bd 7b68 a1be cc9b 443c
00000270: 1fea b63e 5878 dfbe f2b9 43bd 2cf5 11be
0.32390282 -0.3296324 -0.04523715 -0.13033749 -0.21363716 -0.19873111 0.43552452 -0.38363096
-0.022910018 0.059178885 -0.015649868 0.2991028 -0.44519278 0.480206 0.3374359 0.44520235
0.09845457 -0.048258927 0.55286866 0.404913 -0.4426317 -0.3823697 -0.33865806 -0.41058946
-0.007942797 0.46335587 0.3112314 0.42299178 -0.12451876 0.30221885 0.34910783 -0.22326444
0.57591057 -0.2498841 0.20475407 -0.0021850995 -0.31049708 -0.3148035 -0.2689032 -0.29366922
0.43485945 0.4480259 0.25837883 -0.65371567 -0.27583438 -0.27428824 0.13689859 0.48997372
-0.051333886 -0.03220526 -0.2294943 0.39004165 -0.20602795 0.3473886 0.15430693 -0.2599273
-0.1349657 -0.16547287 0.44352487 -0.22345726 0.46790227 0.24804541 0.30690515 -0.30557823
0.11889865 -0.15605816 0.16282806 0.4219832 -0.4601264 0.45402792 -0.35801342 -0.3000772
0.19602054 -0.37715444 0.24058782 0.0015060516 0.17098269 0.048874486 0.5037637 -0.015436196
0.21942917 0.36266637 0.51823545 -0.36766124 -0.2401159 -0.025523936 0.38611588 0.18179433
-0.5785004 -0.35360777 0.14651749 0.4058827 0.33970043 -0.21648873 -0.1224645 0.18858986
0.29440972 -0.49158424 0.14140381 0.27381858 0.069117405 0.284532 -0.27413324 0.29871458
0.35413748 0.44843966 -0.05428008 0.16859014 0.3209792 0.33841562 0.49717876 0.16196406
-0.16928242 -0.090425394 0.22854072 0.2894424 0.3619078 -0.20291466 0.25805834 -0.10923535
-0.15359658 0.4334573 -0.069209345 -0.26171917 0.058112524 0.172481 0.06152791 -0.40817037
0.08939146 -0.23211402 0.35107285 0.09000328 0.3769733 0.11811082 0.24266599 -0.16973153
-0.4687268 0.3068848 -0.29853445 0.32893527 -0.35241234 0.38121736 0.23293114 0.1497527
0.44393656 -0.10774797 0.10818006 0.43805578 0.06429634 -0.3809417 -0.36932215 0.41499144
-0.25018734 -0.10164012 -0.31525025 0.0120000355 0.35725495 -0.43646502 -0.047784753 -0.14253682

fc1.bias f4 [32]
00000000: eb2a 463e 6643 15be b714 e3bd 70e2 5f3e
00000010: 15c2 70bb ee26 47bd 2a26 86be ff42 7a3e
00000020: 4f7a bcbc f44b fe3e 7deb 74bd abf2 3ebe
00000030: 5bf6 45be 7590 80be 0569 683d b133 99bd
00000040: 316d 6abe b019 033f 5d51 693d ad39 4e3e
00000050: 91dc c93e 5101 4ebe 5cef f13b 7826 2f3e
00000060: e5ce 1c3d 1e99 cebb 4507 bc3e b9dd 04bd
00000070: 6097 5fbe 21a5 fd3e b34d 96bd 7e0d af3e
0.1935231 -0.14576492 -0.110879354 0.21863723 -0.0036736776 -0.04862111 -0.26200992 0.2443962
-0.02300754 0.49667323 -0.05979489 -0.18647258 -0.19332258 -0.25110212 0.05674078 -0.074805625
-0.22893216 0.5121107 0.05696236 0.20139189 0.3942609 -0.2011769 0.00738327 0.17104518
0.038283248 -0.006304874 0.36724296 -0.032438014 -0.21835089 0.49540046 -0.07339039 0.3418998

fc2.weight f4 [16, 32]
00000000: 45b8 28be 0408 33be 2643 b23d c92b dfbd
00000010: 8c6b 74bd cf70 39be a2ad f7bd ebcf d1bc
00000020: bcca c0bd 45d2 7f3a 559a 6d3d 42c2 67bd
00000030: 433e 4e3c a95e 81bd 6a2f cdbd 1a48 d13d
00000040: afb6 72bc ed1d b5bc 3be7 443d c391 c73b
00000050: 980f 87bd e9cf 12be 646c 203a 897d 9dbc
00000060: 959c 043e 4bb9 f63c 0332 42bd fd49 07be
00000070: c130 c33c 0b85 153e 208c 0a3b f744 173e
00000080: c3c6 e4bd c732 503e 19b3 d3bd 51a5 e4bd
00000090: bc79 1b3d c795 123e d2f6 873d 1590 083e
000000a0: 08a4 823d 2492 813e 39c4 b0bc 9052 d5bc
000000b0: fdbd 3a3e 1203 4d3e 6891 b43d 78f9 60bb
000000c0: 19d3 833e 20e5 e53d 5ae1 c9bb f848 2abe
000000d0: 8100 d7bd 5472 493d 6082 fbbd 35dd 973c
000000e0: e353 4e3e 4efd c5bd 0735 2c3e 7f27 abbd
000000f0: 1a12 293e c231 603e 4954 b7bd 0736 b1bc
00000100: aa1e e53d 346f 3dbd 22f7 c1bb a36e 4abd
00000110: 9b91 5139 116b a23d 7fbf 243b bc71 22be
00000120: c362 2cbe 4de9 fcbd d120 0e3e 7187 2d3e
00000130: a850 893d 99d8 51be dda3 89bd ad3a 1d3e
00000140: a366 16be 8ced 34be 811b 003e ad87 1ebc
00000150: f9a6 543d f7fd a5bd 9600 213e 2712 363e
00000160: 9170 e73c be7f 4c3e b9f9 0ebe d635 07bd
00000170: 6efc 07bd ee36 033e 8a94 d9bd 7d95 db3d
00000180: 520f a7bd bf76 57bd a592 1d3e 352f 5a3c
00000190: 72c3 123e f82f 0b3e 42f0 27bc 16d1 9dbd
000001a0: baf9 ffbd 5edd 983d 7370 d5bd f209 133c
000001b0: d0c9 10be a9e8 20be d9d9 cbbd 3f1c 0abd
000001c0: c7b5 e83d baa8 1fbe 338b 19be 11a0 8bbc
000001d0: 8341 fcbd da03 f53d cab7 993d 6f91 eb3b
000001e0: a208 e7bd 897a b5bd 49f2 bdbd 760e 4e3d
000001f0: e886 1cbe d1a6 edbd ac55 173d 5fcf 3f3d
00000200: 7059 c03d 23d9 cdbc a35f 11be 5439 0fbe
00000210: fbb4 f13d ec2c 1bbd 5b93 623e ed40 ae3d
00000220: 6852 893e f4ea 493e 643a ea3b 8c3c 7c3d
00000230: cb91 db3d ba98 d13e c64a 88bd 6d17 eb3d
00000240: 2961 57bd e54c 5e3e 695c c83d de22 0bbe
00000250: a5bb 6cbd 0cff 8d3c b927 403e d435 f43d
00000260: 9494 d73d 572b 83bd 8638 b83d 2183 253e
00000270: ec35 c23b 186c 37bd 073a 593e 4d66 b0bd
00000280: 3d0d f3ba 05f5 dbbd 1a39 54bd 881b 033e
00000290: 2b44 f43d cfd1 6c3e f44f 943e 45df bd3c
000002a0: 1d8e 0a3c 949d 27bc e289 973d bf5e e0bd
000002b0: 8f4c 943d 7d55 433e 6e6d 673d ec0c 4fbe
000002c0: 7589 3ebd 507a 5d3e 5926 243e c3be ab3d
000002d0: f4c0 a23d 8c00 bd3d 8c7a 31bd 8f5c 03be
000002e0: 08d1 843d f29b cebd cc26 ec3d 8716 aabd
000002f0: 42be 373e 0cb2 893d 105c eebd 233f cbbd
00000300: 7030 cb3d 890c 203e c861 e63d 2501 9d3e
00000310: 1de5 ce3d eb8e bcbd 6ae5 19bd c8cf 41bd
00000320: 5b6d d9bc 73b7 2d3e b878 96bc 6d9e 28be
00000330: a4f5 8d3d 0dda 26bb c2cc ac3d 57ac 663e
00000340: b8e9 98bd a145 be3d 0e6f bdbc da9b 6c3e
00000350: d18c 823e 1095 cb3d 2bb2 4f3e 4d6f ab3d
00000360: e25a c3bd 85cf b03d fb8f 683e 590e b23d
00000370: 8517 363d b5da 643e 64dd 033e 270a adbd
00000380: 7638 20be 2615 b7bd 8c08 f4bd 1395 18be
00000390: 9e68 893c 4eca a93c ba75 2fbd 928d 47bd
000003a0: 9547 33bd 55dc d5b9 8aa7 0bba 2e4a 313c
000003b0: c2a0 4b3d e45d d0bd 141c 023c fece 18be
000003c0: 698c c73d edf7 333b 80ab f8bd 603f d2bd
000003d0: 05c8 81bd 5d5e d93d 9507 15bd a396 5f3d
000003e0: 4dfd b63d 1c75 c23d 8a00 67bd 4c82 4c3d
000003f0: 8c11 8b3d 07b8 c4ba cf46 b6bd c614 0a3e
-0.16476543 -0.17483526 0.08704214 -0.10897023 -0.059672877 -0.1810944 -0.12093665 -0.025611838
-0.094136685 0.00097588106 0.05800851 -0.056581743 0.012588087 -0.06316883 -0.10018809 0.102188304
-0.014814063 -0.022108996 0.04807208 0.006090374 -0.06594771 -0.14337124 0.0006119667 -0.019224899
0.12950356 0.030117651 -0.047410976 -0.13211818 0.023826959 0.14601533 0.002114065 0.14772402
-0.11170723 0.2033187 -0.103368945 -0.11164344 0.03795789 0.14314948 0.06638874 0.13336213
0.06378943 0.2530681 -0.021577941 -0.026040345 0.18236537 0.20020702 0.088167965 -0.0034328382
0.25746992 0.11225343 -0.006160897 -0.16629398 -0.10498143 0.049181297 -0.122807264 0.018538097
0.20149188 -0.09667455 0.16817103 -0.08357143 0.16510811 0.21893981 -0.08951623 -0.021632208
0.11187489 -0.04624863 -0.005919353 -0.049421918 0.00019986035 0.079305775 0.0025138555 -0.15863699
-0.1683455 -0.12349186 0.13879706 0.16946198 0.06704837 -0.20492782 -0.067207076 0.15354414
-0.1468759 -0.17668742 0.12510492 -0.009675902 0.05191705 -0.081050806 0.1572288 0.17780362
0.028251918 0.19970605 -0.13962449 -0.033010326 -0.03319972 0.12813923 -0.10624035 0.10721872
-0.08157219 -0.05260348 0.15387972 0.013316919 0.14332369 0.13592517 -0.010250153 -0.077058956
-0.124988034 0.074640974 -0.104218386 0.008974539 -0.14139485 -0.15713753 -0.099536605 -0.033718344
0.11362796 -0.15591708 -0.14994507 -0.017044099 -0.12317183 0.11963625 0.07505758 0.007188968
-0.112809435 -0.08861262 -0.09274728 0.05030676 -0.15285838 -0.11604083 0.036946937 0.046828624
0.09392059 -0.025127953 -0.14196639 -0.13986713 0.118020974 -0.037884638 0.22126524 0.08508477
0.26820683 0.19718534 0.007148074 0.06158118 0.10721167 0.40936834 -0.06654887 0.114790775
-0.052582894 0.2170902 0.09783251 -0.1358752 -0.05779614 0.01733353 0.18765153 0.119243294
0.10526386 -0.06404751 0.08995156 0.16163303 0.005926838 -0.04478082 0.21213542 -0.08613262
-0.0018543374 -0.10740093 -0.05181227 0.12803471 0.119270645 0.2312691 0.2896725 0.023177752
0.008456734 -0.010230441 0.07399346 -0.109555714 0.07241165 0.1907558 0.056500845 -0.20219773
-0.046517808 0.2162869 0.16030253 0.08385994 0.07946959 0.0922862 -0.04332976 -0.12828277
0.06485182 -0.10088338 0.115308374 -0.08305078 0.17943671 0.06723413 -0.11638653 -0.09924152
0.09921348 0.15629782 0.11249119 0.30664936 0.10102294 -0.09206947 -0.037572302 -0.047317296
-0.026541403 0.16964512 -0.01836811 -0.16466685 0.06931618 -0.0025459558 0.08437492 0.2252668
-0.07466453 0.092906244 -0.023124244 0.23106328 0.2549806 0.09940541 0.2028281 0.08370838
-0.09538819 0.08633331 0.22711174 0.08694143 0.044456024 0.22349055 0.12877423 -0.08449202
-0.15646538 -0.089395806 -0.11915693 -0.14900617 0.016773518 0.02072635 -0.042836882 -0.048718996
-0.043769438 -0.00040790686 -0.00053273945 0.0108209085 0.049713857 -0.10174158 0.007941265 -0.14922711
0.09743578 0.0027461008 -0.12142086 -0.10265994 -0.06336979 0.106137015 -0.036384184 0.054587018
0.08935032 0.09494993 -0.056397 0.04992895 0.06790456 -0.0015008458 -0.089002244 0.13484487

fc2.bias f4 [16]
00000000: c7bd 0fbe b77d 293e a91b c03d 55e3 d13d
00000010: afb0 fdbd 3c16 e53d 848e 43bd bc2b c3bd
00000020: b911 a8bc 304e 683d aeb2 e43d f51e 64bd
00000030: ab25 99bd 89f0 053d de7c 423c d3b0 493d
-0.14037238 0.16551863 0.09380276 0.10248438 -0.12387215 0.111858815 -0.047743335 -0.09529826
-0.020516263 0.05671519 0.11166893 -0.055693585 -0.07477888 0.032700095 0.011870591 0.0492409

fc3.weight f4 [1, 16]
00000000: 1725 443d 1efe 82be f67d 523e b13a 423e
00000010: 06e3 0bbe 90ce 15be d3d8 8e3e d7cc 623e
00000020: e493 b4bd f4bf ccbd dbb0 a73e ed72 2f3e
00000030: 446f 96be 7c4a b53d cec3 b1be 3404 8fbd
0.047886934 -0.255845 0.20555863 0.18967701 -0.13660821 -0.14629579 0.278998 0.22148453
-0.088172704 -0.0999755 0.32752118 0.17133684 -0.29381764 0.088520974 -0.347197 -0.069832236
