DRL_Nets6/critic_0_26.pth (torch, 10352 bytes, 5 tensors)

fc1.weight f4 [32, 42]
00000000: 3197 0a3e f10c ccbd c3cc e5bd e2be 213d
00000010: 3d48 8b3d 9c81 da3d ce63 dfbd d687 a0bd
00000020: 27fa c735 8563 753d 82e3 693d ce45 efbc
00000030: 0571 3a3d a7e3 0e3e 8c5f eabc ef2f d2bd
00000040: b2c8 823d 020d 35bd 4e5b a4bd b2f0 cbbb
00000050: 5c9e f2bd 394d 4a3d a8cb 123d f29f b33d
00000060: 2c64 04bd 113d ddbd 7dd5 1fbd b695 29bd
00000070: cad6 e7bd cf09 f93d b05d bebd ef1f d3bd
00000080: 5908 80bc d2bb bf3c 8d8f a13c 973e 5d3b
00000090: dd3e 033d 25d5 483d 1b42 eabd 3e67 8abd
000000a0: 633e 11be b56c 863d df9b 033e 5791 a23d
000000b0: e07d 5d3d 618a abbd 3945 e7bd 9c26 06be
000000c0: 8a15 eb3d c585 0c3e d902 9f3d 1fd4 9f3d
000000d0: f7f8 583d 5303 dfbd d59a d7bd 4c9b bb3d
000000e0: 7671 5ebd 124f ba3d 52c5 083e 6a9e 943d
000000f0: ce59 d4bd 9a11 1a3e fccc 143e db63 83bc
00000100: 7a07 63bd 6744 d63d 1d9f c4bd 4137 10be
00000110: 7d69 dbbd a441 033e 8fc9 debd bf9b c8bd
00000120: efe4 6b3c 1335 053e 93e8 ddbd 4420 c7bd
00000130: 927d 153e e6ca dfbd 9bc1 b83c b3f2 4b3b
00000140: f299 e7bd e5cd 613c 0feb 0b3e e4b3 c13c
00000150: 6114 de3c 5a39 02be 9b29 dd3b fe17 153e
00000160: 522c bd3d 2d5e 0abe 9ec7 a33b c42a 89bd
00000170: 0fc5 813d cbee 21bd 810f 10bc bc59 693d
00000180: de1f 0cbd 4ed8 0fbe 979d 69bc b594 acbd
00000190: 1269 9fbd 56e4 693d a6e8 88bd 43dd dcbd
000001a0: 7b23 8ebd 8980 c43d 8504 893d f688 b53d
000001b0: 74a0 9239 48de bdbd 3c9c 423c a4da b1bd
000001c0: a55b fc3d acc3 fb3d 44bf d7bc 130d 183e
000001d0: 882f 10be 55a1 073e bdf8 e6bb 13d8 0d3d
000001e0: 2882 d3bd 6246 66bd dc02 143e 7191 b13d
000001f0: 2062 3c3c 3cd3 9fbc b977 dbbd 519f 873d
00000200: 4125 013e 38e2 ba3d 5356 43bc 6ad1 7dbd
00000210: 72c0 c3bc 8f82 05be ca89 b43d 27f1 ecbd
00000220: 7b0e 82bd 5c45 9fbd 268c d2bd d6a2 b33c
00000230: b90e 62bd 124c e93d 3847 2c3c 1356 313d
00000240: 57f6 1bbd 11bb 7e3b 7fc7 8ebc e8d7 223c
00000250: 1084 bbbd 03fe d43d 01dd 033e 87ae 6ebd
00000260: 00e9 0cbd e241 173e 0df3 fd3d 94d1 b6bd
00000270: d407 58bd 5dd1 16be a304 cd3d 87f5 053e
00000280: 6f76 9b3d 1c97 183e d32b edbd 9e12 0dbe
00000290: 3e1d d4bc d368 ffbd 4758 90bd 3009 d03d
000002a0: b359 77bd 85ad 9abd 707d 113b 8a09 a83c
000002b0: b4a4 093e 4bab d73d 9b7e d4bd b9d4 ecbd
000002c0: e13a 8cbd c743 20bd 82de 8c3d 9d01 18be
000002d0: 1d29 b93d efe1 8bbd 18b4 af3d 8880 b4bc
000002e0: bdd1 d43b 4796 503d 416c ef3d 5093 263d
000002f0: 5ee5 7cbb c740 a13c b968 f23d 9d04 a7bc
00000300: 95ca 073e 57a0 71bd f05d f23d 90b3 143d
00000310: 668d 053e 8b1d 82bc 7a4a fd3d 3bc2 76bd
00000320: e70c fabb d1b0 093e be7d 8abc 99ac d53d
00000330: 90dc 113e 80ce 373b 90a5 123d bcd2 94bb
00000340: 4b0d c7bd 91b2 e0bd 8b37 413d 2b7b fcbd
00000350: 9871 503d 04cb 18bd 49c8 c33d ac23 de3d
00000360: c466 d43c 7565 07be 9c36 2ebd 200c 063e
00000370: bd5c 163e a115 aabd c8f8 d8bd d617 09bc
00000380: 3ee1 87bd f86f 423d d6d5 f03c 6ef0 233d
00000390: 38c8 0dbd 43e7 d4bd 0e7c f6bd bdf9 c33d
000003a0: b472 44bc 9f4f b1bd 05d5 0ebe 8bf7 643d
000003b0: 12d4 073d 18f8 82bd e1fd 0ebe 111e 19be
000003c0: c004 933c 4409 e1bd 29fc d73d 375a 723d
000003d0: 1e87 1cbe f655 dbbd 9fe8 b3bc 2aa1 51bc
000003e0: 6a3a e6bd 77fa b8bc 0b48 eebd 66f6 1b3d
000003f0: c764 683d f1f8 65bd a9d6 3e3d a24d ab3a
0.13534237 -0.09963406 -0.11220696 0.03948868 0.06800888 0.10669252 -0.10907708 -0.07838409
1.4899459e-06 0.059909362 0.057101734 -0.02920809 0.04551794 0.1395403 -0.028610013 -0.10263049
0.06385936 -0.04420186 -0.080252275 -0.0062237615 -0.11846611 0.04939005 0.035838753 0.087707415
-0.032322094 -0.10802663 -0.039021958 -0.04140254 -0.11320265 0.12160074 -0.09295213 -0.10308825
-0.01562898 0.02340499 0.01972177 0.003375923 0.032042373 0.049031395 -0.1143839 -0.06757973
-0.14183955 0.06563703 0.12852429 0.079378776 0.054075122 -0.08376003 -0.112925 -0.13100666
0.114787176 0.13722904 0.07764215 0.07804131 0.052971806 -0.10889306 -0.10527579 0.0916048
-0.054307424 0.09097113 0.13356522 0.072567776 -0.103686914 0.15045777 0.1453132 -0.016038826
-0.055427052 0.104622655 -0.09600661 -0.14083578 -0.1071348 0.12818009 -0.10878288 -0.09795331
0.014397844 0.13008527 -0.10835376 -0.09722951 0.14598683 -0.10927372 0.022553256 0.0031120002
-0.113086596 0.013781999 0.13663886 0.023645349 0.027109327 -0.1271719 0.0067493445 0.14559934
0.09236969 -0.13512488 0.0049981615 -0.0669761 0.06336414 -0.03953437 -0.008792759 0.056970343
-0.03421008 -0.14047357 -0.014258764 -0.08426801 -0.077837124 0.057102524 -0.06684999 -0.1078439
-0.06940361 0.09594829 0.06690315 0.08864014 0.00027966837 -0.092709124 0.0118780695 -0.086842805
0.12322167 0.12293181 -0.02633632 0.14848737 -0.14080632 0.13245137 -0.007048695 0.034629893
-0.1032756 -0.056219466 0.14454216 0.08670319 0.011498004 -0.019509904 -0.10716195 0.06622184
0.12611867 0.09125179 -0.011922437 -0.06196729 -0.023895476 -0.13038085 0.08815344 -0.11569434
-0.06350418 -0.07776901 -0.102806374 0.021928232 -0.055189822 0.113914624 0.010515027 0.043294977
-0.038076725 0.0038868824 -0.017429112 0.009939171 -0.09156048 0.104000114 0.12877275 -0.05827191
-0.034401894 0.14771226 0.12399874 -0.089266926 -0.05274184 -0.14728303 0.1001065 0.13081942
0.07590949 0.14901394 -0.115806244 -0.13776633 -0.02589285 -0.124711655 -0.070480876 0.101580024
-0.06038828 -0.075526275 0.002220001 0.020512361 0.13441736 0.105307184 -0.103757106 -0.11564011
-0.06847168 -0.039127138 0.068783775 -0.14844365 0.09041045 -0.06830203 0.08579272 -0.022033945
0.0064947293 0.050924566 0.1169057 0.040667832 -0.0038588862 0.019684209 0.118363805 -0.020387942
0.13260873 -0.058990803 0.118343234 0.036304057 0.1304222 -0.015883228 0.12367721 -0.060243826
-0.0076309326 0.13446356 -0.016905662 0.10433311 0.14244294 0.0028046668 0.035802424 -0.004541723
-0.09719332 -0.10971559 0.04717211 -0.1232818 0.05088958 -0.037302986 0.09559686 0.108466476
0.025927909 -0.13222297 -0.04253255 0.13090563 0.14683814 -0.08304907 -0.10594326 -0.008367499
-0.066347584 0.047470063 0.02939884 0.040024213 -0.03461477 -0.10395672 -0.1203538 0.09569118
-0.011990238 -0.08657765 -0.13948448 0.055900138 0.03316123 -0.063949764 -0.13964035 -0.14952876
0.0179466 -0.109880954 0.105461426 0.059168067 -0.15285918 -0.10709755 -0.021961508 -0.012794772
-0.1124161 -0.022580368 -0.11634835 0.03807678 0.056736734 -0.056145612 0.046591435 0.0013069401

fc1.bias f4 [32]
00000000: 59f9 7ebd 757b 813d eea6 dc3d 294e ad3d
00000010: e594 9fbc d92f dbbd b54f e6bd 8de2 73bd
00000020: ebbf 193e 7f46 b33d a4b3 9f3c 9e23 a8bd
00000030: 15f5 953d 9f87 11bd de41 ab3c 7a41 483d
00000040: 557d 0fbe 9432 e2bd d4e5 77bd feb5 0dbe
00000050: cc9b 15be 0168 8cbc e275 883d 10dc a43d
00000060: 489b ecbd 0c0c d23d 7639 07be 6bfb d5bd
00000070: c07f 45bd d83c f9bd a777 17be fafc 1bbd
-0.062249515 0.06322376 0.10774027 0.084621735 -0.019480178 -0.107024856 -0.11245672 -0.059542228
0.15014617 0.087536804 0.019494839 -0.082099184 0.07322136 -0.03552973 0.020905431 0.04889057
-0.14012654 -0.11044803 -0.060521916 -0.13838956 -0.14610213 -0.017139437 0.06663109 0.08049786
-0.11553055 0.10256204 -0.13205513 -0.10448345 -0.048217535 -0.12169808 -0.14791737 -0.038083054

fc2.weight f4 [16, 32]
00000000: c267 b7bd 1275 fabd 31eb a0bd 1fef 513d
00000010: a0c0 cb3d 7ab2 df3d b501 c5bd af16 02be
00000020: 0702 08bd a3d1 063d cac3 ffbb a467 c9bd
00000030: b22c 8cbc cdc5 f63b 5700 16be 6641 053e
00000040: ccdd f03d 3e7d 683d d330 f8bd 9863 a43c
00000050: cfd8 20be 7937 c83d eb03 23bd 0c5d 753d
00000060: b912 6abd 21f7 8e3d 69ed ad3d 8ff4 f4bd
00000070: 43c8 a93c cbd2 be3d 6b6a 683d 8ed9 6e3d
00000080: 7be1 1bbc 3189 a83d 57e8 f2bc c9f9 4a3d
00000090: cfb6 203d e6dd 203e d198 b23d 2ea1 343d
000000a0: 56c0 7c3c 5c39 a53d d178 153d 6cf0 0cbe
000000b0: 3578 983c 8fa2 22bd a071 e13d 049d 07be
000000c0: cc0e 47bd 5b3c d73d a627 b6bd 706c 3c3d
000000d0: e64c 523c f680 bd3c 195c e43d bbe7 b13d
000000e0: ae80 13be 2256 ccbd 9616 9f3d f22c 31bd
000000f0: 1106 b5bd 3201 9b3c ec9c a2bc 5a03 b6bd
00000100: 468d 17be b099 93bd 3bcb 1f3d 0843 d9bc
00000110: eb8b cabd b0b2 25be 5274 843d 72e9 bb3d
00000120: 9e5e 29bd 889b d03d a56c d83b 09f3 f8bd
00000130: 207e 283e 5878 97bd 1b10 023e 0826 023e
00000140: 0d08 1a3e 188f b23d 0365 213e d11f d1bd
00000150: 9209 c13a d39e b93d 71d4 31be ef2a 2f3e
00000160: 5066 203e 6fad c5bd 6a5d 5dbd 8df2 a83d
00000170: c6a0 bebd d769 d3bd 9a32 a2bd 531e fb3d
00000180: d83e 1ebe 904d 523d dc2a 97bd 5ff8 633d
00000190: bed3 183e fe60 2abe 09b3 733d 2244 a9bd
000001a0: 8f1e db3c d39d cdbc c2f2 0f3d a94b a8bd
000001b0: 4e8b 343d 2eb7 0c3d 1552 d0bc c06a 213e
000001c0: 4405 f73c 0a09 fa3d 4cf0 7abd 13b9 8f3d
000001d0: e911 0abe d27e 62bd 7c44 0fbe 213f b1bc
000001e0: d379 993d 09b2 213e 5579 c03d 5e77 9c3d
000001f0: f6e6 2d3e 5e41 a33d 3fb3 da3d 7b8d 54bd
00000200: 0519 cb3d 372f 753c 793b 873d fc03 00be
00000210: ce7c ca3c 0b6e cc3d 0eac ab3c 2ebf abbd
00000220: 565e 083e 00d9 033e 8563 323c 75ec 11be
00000230: 30ec 1dbd dd21 c8bc 8726 263e ed1c 97bb
00000240: 240b 9f3d 66d0 01be aaea 5c3c 8597 9e3d
00000250: e86b 8e3d 582c 68bd 39a7 2c3e d420 2abc
00000260: fdc1 01be b105 e13d 3a1b 453c 0006 8fbd
00000270: e665 9a3c f6e8 01be 183b 403b f14f a53c
00000280: a8e3 dfbd 17d8 d6bc 859b 313e b04a 423c
00000290: 6b13 d1bd 7b09 74bd 6c34 cd3c f401 c2bd
000002a0: 8c71 a6ba 59fe 093d e7c7 d43d 65cd 4e3d
000002b0: 2ed1 a03d fb82 653d ce92 07be d239 1d3e
000002c0: e905 053b 625b a2bc 7569 04be 85cf 92bd
000002d0: 7b10 1abe f7b0 dfbd c66f 11be 3671 18be
000002e0: 8b99 ebbd 3010 fe3d 3525 03bd a275 1c3e
000002f0: 67fa 2d3d e923 c1bc 08d8 59bd fcc7 08be
00000300: aa3e 25be 7a51 f33c d81c ad3d f2da 013e
00000310: b79e 503d 5c27 1fbd ed24 2bbe 4327 183d
00000320: dd56 e3bd f309 dc3d 80e1 5bbd 5ee1 393d
00000330: e292 1fbc d89c 2fbe eda1 04be fcc4 fabd
00000340: 9f0b 70bd 2258 ee3d 7889 d6bd 9454 2abe
00000350: cbc0 e2bd 0f4d 383d a058 cdbd 68be d3bd
00000360: 4a9b 1b3e 29a5 e03d f009 cf3d 3a73 21be
00000370: da6b c93d 86de 343e 4ae2 043e 4f8e 173e
00000380: d593 f83d a7ad 18be 8f6e e23d 816e a53d
00000390: eb3b d4bd 851c dcbd 91c5 a9bc 6b2c ebbd
000003a0: 8d95 29bd fff6 cfbd 2c1a 313e ed59 253e
000003b0: 700c fbbd 366d 0fbe e7a3 553d 982a 803c
000003c0: 694e 9ebd 4e97 1f3c 5c1b 083e 66d2 0dbc
000003d0: b8e4 3f3d 1917 8aba b928 ff3d 28c7 c03d
000003e0: 69d5 ad3c fecf 203e 5a2e 18be a579 ceba
000003f0: 96bf 033e 6ec8 16bd 8414 ab3d 299a 9e3c
-0.08955337 -0.12229361 -0.07857359 0.051253434 0.0994885 0.109227136 -0.09619466 -0.12703966
-0.03320506 0.03291477 -0.0078053223 -0.09834221 -0.017111156 0.007530904 -0.14648567 0.13013229
0.117610544 0.056760065 -0.121186875 0.020067021 -0.15707706 0.097762056 -0.03979866 0.05990319
-0.05714676 0.0698073 0.08492548 -0.11960708 0.020725375 0.09317549 0.056742113 0.058312945
-0.009514208 0.08229292 -0.029651804 0.04955462 0.03923684 0.15709648 0.08720554 0.044099025
0.015426716 0.08067581 0.036492173 -0.13763589 0.018612007 -0.03970581 0.110080004 -0.1324349
-0.048598096 0.10509559 -0.08894281 0.04600185 0.012835717 0.023132782 0.11150379 0.08686777
-0.14404556 -0.09977366 0.0776798 -0.043255754 -0.08839048 0.018921468 -0.019850217 -0.08887358
-0.14799985 -0.07207048 0.039012175 -0.02652122 -0.098899685 -0.16181445 0.06467499 0.091753855
-0.04135 0.10185915 0.0066047483 -0.1215573 0.16454363 -0.073960006 0.12701456 0.1270982
0.15042134 0.08718699 0.15761189 -0.102111466 0.0014727584 0.090634964 -0.17366196 0.17106222
0.15664029 -0.096522205 -0.054044165 0.08249388 -0.09308009 -0.10322922 -0.07919808 0.12261643
-0.1545366 0.0513435 -0.07381222 0.055656787 0.14924523 -0.16638562 0.059496913 -0.082649484
0.02674797 -0.02509967 0.03514362 -0.08217556 0.044078164 0.03435438 -0.025429765 0.15763378
0.030153878 0.12208755 -0.06126432 0.07017722 -0.13483395 -0.055296727 -0.13990968 -0.021636548
0.07493939 0.15790571 0.09398142 0.07639955 0.16982636 0.07971452 0.1067872 -0.05189274
0.099168815 0.01496487 0.066031404 -0.1250152 0.024717715 0.099819265 0.020956066 -0.08386074
0.13317236 0.12875748 0.010887985 -0.14250357 -0.038555324 -0.02443021 0.16225635 -0.0046116025
0.07765797 -0.12677154 0.013483683 0.07743744 0.06954175 -0.056682914 0.16860665 -0.010383803
-0.12671657 0.10987414 0.012030417 -0.06983566 0.018847417 -0.12686524 0.0029332098 0.02017972
-0.10932094 -0.026226087 0.17344482 0.011858627 -0.10208782 -0.059579354 0.02504941 -0.09473029
-0.0012698635 0.03368983 0.10389691 0.05048885 0.07852398 0.056033116 -0.13239595 0.15354088
0.0020297712 -0.019818965 -0.12930854 -0.071684875 -0.1504535 -0.10922425 -0.14202794 -0.14886937
-0.11503895 0.12405431 -0.032017905 0.15279248 0.04247513 -0.023576694 -0.05318454 -0.13357538
-0.16137186 0.029701937 0.08452767 0.12681177 0.050932612 -0.038855895 -0.16713305 0.037146818
-0.11100552 0.10744085 -0.05368185 0.045380943 -0.009739609 -0.17149675 -0.12952395 -0.12244603
-0.058604833 0.11637904 -0.10475439 -0.16633826 -0.110719286 0.044995364 -0.100266695 -0.103390515
0.15195957 0.10969002 0.10109317 -0.15766612 0.09835024 0.17663011 0.12976947 0.1480038
0.12137572 -0.14909993 0.11056244 0.080777176 -0.10362991 -0.10747627 -0.02072409 -0.114830814
-0.04140239 -0.10154533 0.1729514 0.16147585 -0.12258232 -0.14006504 0.052158263 0.01564531
-0.07729799 0.009740664 0.13291687 -0.00865612 0.046848983 -0.0010535448 0.12458939 0.09412986
0.021219926 0.15704343 -0.14861432 -0.0015752806 0.12866053 -0.03681224 0.083535224 0.019360619

fc2.bias f4 [16]
00000000: 03bd 8a3d 7972 a03d b473 97bd 0548 c9bd
00000010: b4b5 34be 6df4 6e3c cfdc 013e ed50 8cbd
00000020: ba1d 21be c7f6 d5bd 96b2 e4bc cee0 7abd
00000030: 2cf1 b0bd 5952 fabd abd9 3bbd 18a7 113e
0.067743324 0.07834334 -0.073951155 -0.0982819 -0.17647439 0.014584643 0.12681888 -0.06851373
-0.15733996 -0.1044746 -0.027917188 -0.061249547 -0.0863975 -0.12222738 -0.04586188 0.14223897

fc3.weight f4 [1, 16]
00000000: 9084 95bd a80e 75be 0800 56bd c013 89bc
00000010: f899 003e 689c 6abe 5c31 01be c87e 613d
00000020: 4006 ee3b a44f f2bd 90f9 97bd 7c8e 5f3e
00000030: e284 5f3e 9c07 9abd 0008 8b3c d0ea 29bd
-0.07300675 -0.23931372 -0.052246124 -0.01673305 0.12558734 -0.22911227 -0.12616485 0.05505255
0.0072639287 -0.118315965 -0.07420647 0.21831697 0.21828035 -0.075209826 0.016971588 -0.0414837
