DRL_Nets6/critic_7_44.pth (torch, 10352 bytes, 5 tensors)

fc1.weight f4 [32, 42]
0	0x3e2f3919	0.17111625
1	0x3dd643dd	0.10462163
2	0xbc4c7e55	-0.012481292
3	0x3d12c176	0.03582903
4	0x3dc6e407	0.097114615
5	0x3da7693d	0.081743695
6	0x3dc50cdc	0.09621593
7	0xbd1f2d7c	-0.038861737
8	0x3dec8fdf	0.11550879
9	0xbb939cff	-0.0045047994
10	0xbd1fe637	-0.03903791
11	0x3e455c40	0.19273472
12	0x3e025243	0.12726693
13	0xbd104e74	-0.03523107
14	0x3d824270	0.06360328
15	0x3cd0ea4a	0.025502343
16	0x3de78216	0.11304109
17	0x3df54ef3	0.11977949
18	0x3da90633	0.082531355
19	0x3e00ea9d	0.12589498
20	0x3e444c38	0.191697
21	0xbe0a80d4	-0.13525707
22	0x3e56897c	0.20950884
23	0x3e0d27b6	0.1378468
24	0x3d31dd40	0.04342389
25	0x3e43d19a	0.19122925
26	0x3c082ed5	0.008311947
27	0x3d4d9e02	0.050199516
28	0x3daaffb2	0.08349551
29	0xbd7b8485	-0.061405677
30	0xbe2a4785	-0.16628845
31	0xbd3644b7	-0.044499125
32	0x3e5480db	0.2075228
33	0xbd8f6036	-0.07000773
34	0x3dcc5360	0.0997684
35	0x3debd404	0.11515048
36	0x3d4cb175	0.049973924
37	0x3e58ae0e	0.21160147
38	0x3e4a7516	0.19771227
39	0xbda0d0a6	-0.078522965
40	0x3da56b69	0.080771275
41	0xbda7c63d	-0.08192108
42	0x3dc24ead	0.094876625
43	0x3e3696ef	0.17831014
44	0x3e306691	0.17226626
45	0x3bc69a6e	0.00606089
46	0xbd9e747c	-0.077370614
47	0xbb802219	-0.0039103148
48	0x3d632ef0	0.055464685
49	0xbd7e6b2a	-0.06211392
50	0x3e2d7689	0.16939749
51	0xbe14d64f	-0.14534877
52	0xbd13fcc8	-0.036129743
53	0xbca0a0b8	-0.019607887
54	0xbdd2bebd	-0.10290287
55	0x3dc297dd	0.09501622
56	0x3d24f33b	0.040271025
57	0x3d365367	0.044513132
58	0x3d26a6d7	0.040686455
59	0x3ce5fd27	0.028074814
60	0xbd40e311	-0.047091547
61	0x3e4897c5	0.19589145
62	0x3d9ba761	0.07600284
63	0x3d8ee556	0.06977336
64	0x3ddbaaf3	0.10725965
65	0x3da2481c	0.0792391
66	0x3dd67486	0.10471444
67	0xbc3571bb	-0.011074479
68	0xbda611da	-0.08108874
69	0xbddd0e6e	-0.10793768
70	0x3d0800ab	0.033203762
71	0x3e42016f	0.1894586
72	0xbdb36d54	-0.08761087
73	0xbd9a7032	-0.07540931
74	0x3aa57d8a	0.0012625915
75	0x3d0a6fb1	0.033797923
76	0x3d0bcd76	0.03413149
77	0x3e4cf32a	0.20014635
78	0x3dc36660	0.09541011
79	0x3d2a71b0	0.041612327
80	0x3e11d83c	0.14242643
81	0x3e46ec04	0.1942597
82	0xbd995063	-0.07486036
83	0x3e233130	0.15936732
84	0xbdce15ff	-0.10062789
85	0xbde23158	-0.11044568
86	0x3e00c260	0.12574148
87	0x3de8403d	0.113403775
88	0xbd12d7ed	-0.035850454
89	0x3db9c3c1	0.0907054
90	0x3dcf84ab	0.10132726
91	0xbd7b7e7f	-0.061399933
92	0xbdf4b309	-0.11948211
93	0xbd792ef0	-0.06083578
94	0xbe0f07c7	-0.1396781
95	0x3c7ad61d	0.015309838
96	0xbe02f9ee	-0.12790653
97	0x3e09414a	0.13403812
98	0xbe08d606	-0.13362893
99	0xbda1c567	-0.0789898
100	0xbc79de4d	-0.015250755
101	0xbccb071e	-0.024783667
102	0x3d7611ac	0.060075447
103	0xbc2f1cfc	-0.010688063
104	0xbe098947	-0.13431273
105	0x3df520f5	0.11969177
106	0x3daa5805	0.0831757
107	0x3df00365	0.117193975
108	0x3ce8bee4	0.028411336
109	0x3e19866f	0.14992689
110	0x3ddd8a02	0.108173385
111	0x3df0e1e1	0.11761833
112	0x3cff43e5	0.031160304
113	0x3cce18b7	0.02515827
114	0xbd642750	-0.055701554
115	0xbda3e935	-0.08003465
116	0x3e019f3f	0.12658404
117	0xbde4783c	-0.111557454
118	0x3ca9ba48	0.020718709
119	0xbdf8fd4f	-0.1215769
120	0xbbcc709d	-0.0062390105
121	0x3e17fbef	0.14842199
122	0xbad6df4c	-0.0016393452
123	0x3de36f7f	0.111052506
124	0x3c8070ed	0.015678847
125	0xbc06fddb	-0.008239235
126	0x3d4bab2f	0.0497238
127	0x3e094d95	0.13408501
128	0x3c9ac3ed	0.018892253
129	0xbd1128b0	-0.035439193
130	0xbd95f22d	-0.07321582
131	0x3bcbaad8	0.0062154345
132	0x3d34cd3f	0.04414105
133	0x3e5a6e14	0.21331054
134	0xbd7dc8ff	-0.061959263
135	0x3dd3505d	0.103180625
136	0x3d82c5b5	0.06385366
137	0x3e3feb22	0.1874204
138	0xbda82fde	-0.08212255
139	0xbd49d2da	-0.04927335
140	0x3bf397b4	0.007433856
141	0xb98c805f	-0.00026798525
142	0x3c3c84be	0.011506258
143	0x3d5e579c	0.05428277
144	0x3dfb7078	0.12277311
145	0x3e3237e0	0.17404127
146	0x3dc7a6c4	0.09748605
147	0x3d9df62f	0.077129714
148	0x3c81eb78	0.01585935
149	0x3d644010	0.055725157
150	0x3deec277	0.11658185
151	0x3e34dabd	0.17661567
152	0x3df9d051	0.12197936
153	0x3d174cee	0.0369386
154	0x3de3b21c	0.11117956
155	0x3d456d31	0.048199836
156	0x3e28f732	0.16500548
157	0x3e2aa0ea	0.16662946
158	0x3c5ea826	0.013589894
159	0x3e49941d	0.19685407
160	0x3e62a041	0.22131445
161	0x3d0cf608	0.03441432
162	0x3e4b79f6	0.19870743
163	0x3e4164d1	0.18886115
164	0x3e261875	0.16220267
165	0x3dfd0295	0.12354008
166	0x3dc176c4	0.09446481
167	0xbcf1870c	-0.02948334
168	0xbd54afd0	-0.05192548
169	0xbdb44bc5	-0.088035144
170	0x3db298ae	0.087205276
171	0xbd1918e1	-0.037377242
172	0x3e4323ce	0.19056627
173	0x3e1cdb14	0.15317947
174	0x3e1319e9	0.14365353
175	0x3e420c66	0.18950042
176	0x3dfdf4fc	0.12400243
177	0x3db987ca	0.09059103
178	0x3df321fa	0.11871715
179	0x3deaba2b	0.1146129
180	0x3e060561	0.1308799
181	0x3e426e9a	0.18987504
182	0xbd8ea92c	-0.06965861
183	0x3e1390d3	0.14410715
184	0x3e106509	0.14101042
185	0x3e241ee2	0.16027406
186	0xbe2a8dde	-0.1665568
187	0x3e0e6b99	0.13908233
188	0x3e04d24b	0.12970845
189	0x3d8b976b	0.0681599
190	0x3dfd38ee	0.12364374
191	0x3e1b379e	0.15157935
192	0xbd536f2c	-0.051619694
193	0x3e2a2a4d	0.16617699
194	0xbd801ece	-0.062558755
195	0x3d4fa1d3	0.050691437
196	0x3db29f70	0.087218165
197	0x3e016ead	0.12639876
198	0xbc2cda25	-0.010550057
199	0xbd546490	-0.051853716
200	0x3d9c6f1a	0.076383784
201	0xbdabd0f0	-0.08389461
202	0x3d812d7a	0.06307502
203	0xbdbe8516	-0.09302728
204	0x3d8b6a29	0.06807358
205	0x3cc1b4c7	0.023645772
206	0xbd33753c	-0.043812975
207	0x3e4d3551	0.2003987
208	0x3e3baa9a	0.18326798
209	0xbc84d76f	-0.016216008
210	0x3d7e04db	0.06201635
211	0xbdfafe68	-0.122555554
212	0xbd8dcc6d	-0.06923757
213	0xbda9f8d5	-0.08299414
214	0xbe0ad991	-0.13559557
215	0x3d664302	0.056216247
216	0x3c8b7c62	0.017027084
217	0xbc31cbf1	-0.010851846
218	0xbd903cf5	-0.07042877
219	0x3dca0d0a	0.09865768
220	0x3df71406	0.12064366
221	0xbe183ad1	-0.14866187
222	0x3e1a39b5	0.15061076
223	0x3c8e3572	0.01735947
224	0xbcb6762c	-0.022273146
225	0xbd0ea38b	-0.034823935
226	0x3d2a3487	0.041554
227	0xbdfe5ee4	-0.12420443
228	0x3dee0992	0.11622919
229	0xbd816813	-0.06318679
230	0x3e09f6c5	0.13473041
231	0x3e05d766	0.13070449
232	0x3cac90e6	0.021065187
233	0xbdc6c8b3	-0.09706249
234	0xbbd7e411	-0.006588467
235	0xbe0f5586	-0.13997468
236	0xbd59cb92	-0.053172655
237	0x3d3b3b0f	0.04571062
238	0xbde2376e	-0.110457286
239	0x3d4b9a67	0.049707796
240	0xbd4a5ed5	-0.049406845
241	0x3d84ccfc	0.0648441
242	0x3c27f2db	0.010250772
243	0x3c233eac	0.009963673
244	0xbd04cf5b	-0.032424312
245	0xbb1d14ff	-0.0023968813
246	0x3c9ba371	0.018998833
247	0x3d8466a2	0.06464888
248	0xbd8a084c	-0.06739864
249	0x3d79f007	0.061019924
250	0xbe0538b6	-0.13009915
251	0xbd3c6948	-0.04599884
252	0x3dd091c1	0.1018405
253	0xbd52059f	-0.051274892
254	0x3d588aad	0.052866627
255	0xbc9a78c5	-0.018856416

fc1.bias f4 [32]
0	0x3e53c7e7	0.20681725
1	0x3e0109e8	0.12601435
2	0x3de88176	0.11352818
3	0x3d2c5292	0.042070933
4	0x3e1ab4a8	0.15107977
5	0x3dece07d	0.11566255
6	0xbd8231bd	-0.06357143
7	0xbd813a22	-0.06309916
8	0x3e03b365	0.12861402
9	0x3e29d544	0.1658526
10	0x3e54818c	0.20752543
11	0x3e004222	0.12525228
12	0x3e2f2599	0.17104186
13	0xbd8705b7	-0.06592887
14	0x3dd161e6	0.10223751
15	0xbc203dec	-0.009780388
16	0xbd937ae7	-0.07201176
17	0x3ccb1b37	0.02479325
18	0x3cccbcaf	0.024992315
19	0x3c94d1c2	0.018166427
20	0x3ce3a530	0.027788728
21	0x3d36c9ab	0.04462592
22	0x3d81a2ea	0.063299015
23	0x3b9d3a0f	0.004798181
24	0x3e04eb74	0.12980443
25	0x3e2d34b1	0.16914631
26	0xbdd67a96	-0.104726
27	0xbd25e219	-0.040498827
28	0xbb1976a4	-0.0023416663
29	0xbdcfce52	-0.10146774
30	0xbd9e66fb	-0.07734486
31	0x3ce9bcbd	0.02853238

fc2.weight f4 [16, 32]
0	0xbe00910d	-0.12555332
1	0x3d6eb429	0.058277283
2	0xbd4efbf9	-0.05053327
3	0xbe3dc800	-0.18533325
4	0x3d687e91	0.056761328
5	0x3df729f8	0.12068552
6	0x3c192881	0.009348036
7	0x3d9169ac	0.071002334
8	0x3ce4f1e4	0.027947374
9	0xbe07eafc	-0.13273233
10	0x3d03f6c3	0.032217752
11	0x3e046a5a	0.12931195
12	0xbe332ac7	-0.17496787
13	0xbc96c99e	-0.018406685
14	0xbd40c04c	-0.04705839
15	0x3d6cc876	0.057808362
16	0xbca94ea5	-0.020667383
17	0x3e26fabb	0.16306584
18	0x3d6bb686	0.057547115
19	0xbe39ab8f	-0.1813185
20	0x3d6be0d4	0.05758746
21	0xbd9157cf	-0.07096826
22	0xbdbcfdca	-0.09228094
23	0x3de5a58f	0.112132184
24	0x3de5c8ce	0.11219941
25	0xbe49781f	-0.19674729
26	0xbd74ef1e	-0.059798352
27	0xbd955cce	-0.07293092
28	0xbe0b6ed1	-0.13616492
29	0x3de3d8cc	0.11125335
30	0x3e046621	0.12929584
31	0x3d9c000a	0.07617195
32	0x3e528ae4	0.20560795
33	0x3dbc290d	0.09187517
34	0xbe0bd59f	-0.13655709
35	0x3e02c0dd	0.12768884
36	0x3dabd5b4	0.0839037
37	0x3d213145	0.039353628
38	0x3d023f80	0.03179884
39	0x3e85cb29	0.2613156
40	0x3e3183f0	0.17335486
41	0x3e604199	0.21900024
42	0x3e6795fa	0.22615805
43	0x3dd05251	0.101719506
44	0xbd1a4e7d	-0.03767251
45	0x3e7dbcdb	0.24779074
46	0x3daee584	0.085398704
47	0x3e3405ab	0.17580287
48	0x3e2fad4f	0.17155956
49	0x3e240243	0.16016488
50	0x3dc6ed69	0.09713251
51	0x3e572027	0.21008359
52	0x3e2ca19b	0.16858523
53	0x3e6027f8	0.21890247
54	0xbd3f89e2	-0.046762355
55	0x3e536fb1	0.20648076
56	0x3e4b3a0b	0.1984636
57	0x3e251d14	0.16124374
58	0x3de8d1f2	0.11368169
59	0xbbb11453	-0.005404034
60	0x3dfa169b	0.12211343
61	0x3d51617a	0.05111835
62	0xbd591e5f	-0.05300748
63	0x3d4a220f	0.049348887
64	0x3c1dbca8	0.009627499
65	0xbe06d1f8	-0.13166034
66	0x3db11de0	0.08648276
67	0x3c4becb8	0.012446575
68	0x3c053987	0.008131391
69	0xbd3130ae	-0.043259315
70	0xbcc4949d	-0.023996646
71	0x3d487c1b	0.04894648
72	0xbd105506	-0.035237335
73	0xbdfcf904	-0.123521835
74	0x3e135789	0.14388861
75	0xbc2beb90	-0.010493174
76	0x3e18636f	0.14881681
77	0xbe02db8e	-0.12779066
78	0x3d7066a9	0.058691654
79	0xbdee3f0d	-0.1163312
80	0x3d71996a	0.058984198
81	0xbe0c5b95	-0.13706811
82	0xbdd786e9	-0.10523779
83	0x3c3d2624	0.011544738
84	0xbdcb203f	-0.0991826
85	0xbd523db8	-0.05132839
86	0x3d0c36c6	0.034231924
87	0x3df1f8ee	0.11815058
88	0x3d86e56a	0.06586726
89	0x3cb338fa	0.021877754
90	0xbd4ea2e7	-0.050448325
91	0xbc6d5fb2	-0.014488148
92	0xbd7f02e2	-0.06225861
93	0xbd8b4a66	-0.068013
94	0xbd264ee6	-0.040602587
95	0x3c968d63	0.018377965
96	0xbda4a536	-0.08039324
97	0x3da4d48f	0.08048355
98	0x3d32c661	0.04364622
99	0x3e6072ef	0.21918844
100	0xbda124fb	-0.078683816
101	0xbe042c9a	-0.12907639
102	0x3e5580fc	0.20849985
103	0x3e69aaea	0.22819105
104	0x3e00ddaa	0.12584558
105	0x3d0fe92d	0.035134483
106	0x3e3adb5f	0.18247746
107	0x3d9bc493	0.07605853
108	0x3d782a9e	0.060587518
109	0x3e01e771	0.12685944
110	0x3d544741	0.051825766
111	0xbd674776	-0.056464635
112	0x3e7f8d24	0.24956185
113	0x3c6ae41c	0.014336612
114	0x3d381543	0.04494215
115	0x3d261985	0.04055168
116	0x3c97de3c	0.018538587
117	0xbd3c4ddb	-0.045972686
118	0x3e012e09	0.12615217
119	0x3e13506f	0.14386152
120	0x3e01840b	0.12648027
121	0x3e36c1d4	0.17847377
122	0x3ddf738b	0.1091071
123	0x3e12ef72	0.14349154
124	0x3e77ebae	0.24210998
125	0xbe0d0979	-0.13773145
126	0xbde5936c	-0.11209759
127	0x3cd40eeb	0.02588602
128	0x3d8cae6b	0.06869205
129	0xbdc3aed4	-0.0955483
130	0x3de0a0af	0.10968148
131	0x3dd870a5	0.1056836
132	0xbd943809	-0.0723725
133	0xbdcd6bb8	-0.10030311
134	0xbdbd1e5a	-0.09234305
135	0xbb17e21d	-0.0023175546
136	0xbdcafa3b	-0.09911009
137	0x3ded6d12	0.11593069
138	0x3e0d39a8	0.13791525
139	0xbc85c610	-0.016329795
140	0xbe512945	-0.204259
141	0x3d960b93	0.07326426
142	0x3a2c3109	0.0006568586
143	0x3bc7b8db	0.0060950345
144	0xbc973141	-0.018456103
145	0x3dafcf2c	0.08584437
146	0x3cc8c951	0.024510058
147	0xbd93173b	-0.07182165
148	0xbdb22307	-0.08698087
149	0xbd562085	-0.052277107
150	0x3dbcc3fb	0.09217068
151	0xbd460a88	-0.048349887
152	0xbd1f27f8	-0.038856477
153	0xbdac97ec	-0.08427414
154	0xbd84b630	-0.06480062
155	0xbc67ebed	-0.01415537
156	0x3d1086b7	0.035284724
157	0xbc8adeb9	-0.016951906
158	0xbc14a4c6	-0.009072488
159	0xbe35467b	-0.17702667
160	0xbb58063d	-0.0032962703
161	0x3c5c186d	0.013433558
162	0x3d93ada1	0.072108515
163	0xbda08ce7	-0.07839375
164	0xbe08cb50	-0.13358808
165	0x3e0c7649	0.13716997
166	0x3d97d9f8	0.07414621
167	0x3e0428c4	0.12906176
168	0xbe1a1894	-0.15048438
169	0x3e141269	0.14460148
170	0x3e0e3400	0.13887024
171	0xbe1c8b06	-0.15287408
172	0x3c37a59c	0.011208918
173	0x3ddf2298	0.1089527
174	0xbdcaed28	-0.09908515
175	0xbdb68e08	-0.08913809
176	0x3bcd5183	0.0062658205
177	0x3e249d22	0.16075566
178	0x3dee6a84	0.1164141
179	0x3d24217f	0.040071007
180	0xbda55d23	-0.08074405
181	0xbd9f8644	-0.07789281
182	0x3df77d19	0.12084407
183	0x3cc70d8c	0.024298452
184	0xbddf0a8f	-0.10890686
185	0xbd898c98	-0.06716269
186	0x3e28f283	0.16498761
187	0x3e03c9ed	0.12869997
188	0xbe3b57c0	-0.18295193
189	0x3ac2c2ce	0.0014859082
190	0x3e0c6007	0.13708507
191	0xbe0b582a	-0.1360785
192	0x3e40fe5b	0.18847029
193	0x3d5597a8	0.052146584
194	0xbe346720	-0.17617464
195	0x3bc1fd37	0.005920078
196	0x3dd093d8	0.10184449
197	0x3e1c02c4	0.1523543
198	0x3e6a04be	0.22853372
199	0x3e4311cb	0.19049756
200	0xbd7d5b07	-0.06185439
201	0xbd2cdd47	-0.042203214
202	0x3d3631d7	0.044481125
203	0xbcfe54d6	-0.031046312
204	0x3e2f96de	0.17147395
205	0xbd2f6f1c	-0.04283057
206	0xbe24e89f	-0.16104363
207	0x3e04b434	0.12959367
208	0x3e214ad9	0.15751208
209	0x3e75b4b3	0.23994713
210	0xbd77c63d	-0.06049179
211	0x3e5a4547	0.2131549
212	0x3dca3497	0.09873312
213	0x3e41c7bf	0.18923853
214	0x3b3567e9	0.0027680343
215	0xbd641324	-0.055682316
216	0x3c5d91a0	0.013523489
217	0x3d23edae	0.04002159
218	0x3d8020c0	0.062562466
219	0x3e451d5f	0.19249485
220	0x3e807d86	0.25095767
221	0x3dfdcf64	0.12393072
222	0xbd911794	-0.07084575
223	0x3d114561	0.035466556
224	0x3e31f2f9	0.17377843
225	0x3bd60c88	0.0065322556
226	0x3d56a413	0.052402567
227	0x3e172cd1	0.1476319
228	0xbc39fe46	-0.011352127
229	0xbe1e8d45	-0.15483578
230	0x3d34a1d2	0.044099636
231	0xbd9df299	-0.077122875
232	0xbe046369	-0.12928547
233	0x3e046426	0.12928829
234	0xbe0bccd8	-0.1365236
235	0x3cd74009	0.026275652
236	0xbe0f852a	-0.14015642
237	0xbc80cb49	-0.015721934
238	0x3d1950cd	0.037430573
239	0xbce5b4e6	-0.02804036
240	0xbdd10d30	-0.102075934
241	0xbde4d823	-0.11174037
242	0xbce48308	-0.027894512
243	0xbd538d87	-0.051648643
244	0xbe2f1655	-0.17098363
245	0xbe299450	-0.16560483
246	0xbd827ef0	-0.06371868
247	0xbdac6650	-0.08417952
248	0x3d587d87	0.052854087
249	0x3b1af1dc	0.0023642695
250	0xbd56536b	-0.052325647
251	0x3de59492	0.11209978
252	0x3db45a7e	0.088063225
253	0xbdcd2dcb	-0.100185
254	0x3d2f443f	0.042789694
255	0xbe25d623	-0.16194968

fc2.bias f4 [16]
0	0xbdcd7fb8	-0.10034126
1	0xbdfa1c1c	-0.12212393
2	0xbe2dbf26	-0.16967449
3	0x3cb68a70	0.022282809
4	0x3dbc52b0	0.09195459
5	0xbdd0ebca	-0.10201223
6	0x3e59d5e7	0.21273004
7	0x3da3a0af	0.07989632
8	0xbb32df34	-0.0027293684
9	0xbe1bb1b3	-0.15204506
10	0x3dbc18e7	0.09184437
11	0x3cbbced7	0.022925777
12	0xbc5c86a0	-0.0134598315
13	0xbcfea599	-0.031084822
14	0xbdd414f5	-0.1035556
15	0xbe29d794	-0.16586143

fc3.weight f4 [1, 16]
0	0x3c37a966	0.011209821
1	0xbe72361c	-0.23653454
2	0x3e6a99c6	0.22910222
3	0xbe021104	-0.12701803
4	0x3c07eb19	0.008295798
5	0x3e422114	0.18957931
6	0xbdcae192	-0.099063054
7	0xbe1f041a	-0.15528908
8	0x3dfd0d82	0.12356092
9	0x3d65b9a5	0.056085248
10	0xbd933e40	-0.071896076
11	0xbd904ad8	-0.07045525
12	0x3dcd7c9a	0.100335315
13	0xbd9c9048	-0.07644707
14	0xbe37872d	-0.17922659
15	0x3e30c796	0.17263636
