DRL_Nets6/critic_target_6_797.pth (torch, 10432 bytes, 5 tensors)

fc1.weight f4 [32, 42]
00000000: 707a 8f3e bdb4 063e 46b5 233e af4f ec3d
00000010: 5070 823c ba83 ad3e 1fcf cf3d c071 503e
00000020: 90be bebd bad1 963e a311 233d ea6f afbd
00000030: 3540 5f3e 460a 9dbc 56b1 85bc 737a ce3c
00000040: fcf6 5f3e 48cc 1cbd 5b05 a93d f36f 0d3e
00000050: a10a 303e cb8f 09bf 8121 543e 6042 02bb
00000060: 5475 3d3e 0d2d 223c 889a 4fbc b2df a73e
00000070: c5cd 373e 9d0e a6bd 3c4b e03e 210c 133d
00000080: 4f39 993e 902a 1e3f 7e1f 903d aa03 823d
00000090: 57d6 d83c f48b b3be ea1f 603f 6c93 ca3d
000000a0: 6632 95bd ee8d 69be f5a4 bdbe b065 3b3e
000000b0: d6b1 42bd c9b0 963a 67eb f23b 6c4a d13d
000000c0: f30c fabc 2b8f ee3d 9c0b adbd ce2d 3ebe
000000d0: 339d e83c a3b6 37bd f620 eabc 11a3 863c
000000e0: 0ba2 c63d 0698 bbbe 7227 463e be9e 4dbd
000000f0: 2075 54be 4597 983d 279a a7bd 3f19 00bf
00000100: b1cd 333e f485 a23d b057 d73c fa04 d93d
00000110: bab9 21bd ce21 3ebe 8243 b3bd f796 103d
00000120: eab8 eb3d f2d0 2c3e c198 923e 4128 093f
00000130: fa66 f53d c6d2 613e 057c cd3c d4ce 2ebc
00000140: a2bf 3a3f 29c2 0b3e 4292 f03e 7856 afbc
00000150: 76fe 31bd 7a9c 443e 36c8 4e3e 78f4 edbd
00000160: 7c56 313e 1b76 773d 3fcf 01be 18b7 603d
00000170: cb6c 743d 8ea6 06be 398c 173e 0fe9 743e
00000180: 9b86 383e 20eb 683b cf54 ec3d fae5 e6bd
00000190: b01c a4bd 0c6e a2bb 3e42 acbb d95d 083b
000001a0: 90a1 7b3e 60b6 efbe 876d 193e 2c99 8a3c
000001b0: 5516 6d3c 5336 ca3d 79ed 843e ca6f 3fbe
000001c0: 88e0 3cbd 56d4 2cbd f84d fe3c e614 a0bc
000001d0: be67 413e 207a 243f d6ff fb3e 03c0 9e3e
000001e0: 0709 fb3d 665a 9abc a23d 7a3f 4f9d 933e
000001f0: 7509 013d d1e2 7e3e f356 5d3e 6553 f3be
00000200: fdfb b03e b748 a4bd 9531 3dbd 464c 3c3e
00000210: 9109 3bbe 3091 03bd f2c8 5f3e 0742 d1be
00000220: 0e26 b73d e34b 933e 6321 1abe c53e 843c
00000230: 16cf 723c d161 2bbe 64cf b3bd fe6a 463e
00000240: a688 a6be 16d1 3b3c 71fc 7d3e 3415 aa3c
00000250: dce4 73bd a403 683e 2048 6fbe 7be0 29bc
00000260: a7f2 1cbd 66b4 e6bc f087 b3bd 2d89 4a3e
00000270: defc 4ebe e0e8 b4bb 40cd 4b3e e583 8b3e
00000280: 35ba 583e 7ef3 d13e fc08 64bc 5d6b c33e
00000290: 6a87 1fbd 5e4d ea3d fea2 823e 2011 743e
000002a0: d9da a03e 7ae2 a5be f3d0 883d 57b7 163e
000002b0: d316 1a3e b34f 38bb 8182 083e 90ab 8d3e
000002c0: 59af 02bd 07b0 2f3e 8f08 9b3d baf9 babd
000002d0: d1eb da3d cacf 483e 52b4 cf3d b6ae 24bc
000002e0: 8c9f 1c3e 713c cdbc eb04 a53c 402d 343e
000002f0: 04d7 25bd fa57 88bd 2323 9d3e 4193 2a3e
00000300: 8e81 9a3d dbcc 6d3e 3546 b3bd f99e d2bc
00000310: 050e 8a3e a9d1 6dbd b8b7 ce3e 007d 8f3e
00000320: b174 243d 3be2 8d3e 447d 07be ef1c 363d
00000330: 2bbc 283e a02e 963d 2bad 583e 7d82 11be
00000340: 8fb7 3e3e 27b0 89be 2b80 3b3e 84f9 aa3c
00000350: 00eb 143e 7973 3ebb 108b 193e 35c9 533e
00000360: 4d37 bfbd 06d4 8e3d 1c58 633e 7496 4abd
00000370: 24b2 723d 6fe8 613d cd9f a8bd 72d2 203e
00000380: d65c 9b3e 5cff 0d3d f868 763d 11d3 ed3a
00000390: e1ec 5a3e d0c0 173e 0f86 253e 7940 1cbf
000003a0: 0074 d43d 5797 373e 6d63 37bd a228 803d
000003b0: 557a 5d3e 9e80 273e 40cf 483d 32d1 853e
000003c0: 14d7 183c 16f2 033b a820 a93e b84d 003f
000003d0: fae3 bb3e 571e b53e 1ec0 903d e486 88bd
000003e0: de1f 333f 700b 273e c714 5dbd a13e b63e
000003f0: cee2 8d3e 2715 d0bd 2584 7d3e 22ca c7bd
0.280231 0.13154884 0.15987119 0.11538636 0.015922695 0.33889562 0.10146927 0.20355892
-0.09313691 0.29456884 0.03981174 -0.08566268 0.21801837 -0.019169938 -0.016319912 0.025204873
0.21871561 -0.038280755 0.082529746 0.13812236 0.17191555 -0.53735036 0.20715906 -0.0019875988
0.18501788 0.009898436 -0.01267112 0.32787853 0.17949589 -0.08108256 0.438074 0.03590024
0.29926535 0.61783695 0.07037257 0.06348355 0.026469393 -0.35067713 0.87548697 0.098914
-0.07285003 -0.22808048 -0.37039915 0.1830051 -0.04753288 0.0011496778 0.007413316 0.10219273
-0.030523753 0.11648401 -0.0844948 -0.1857216 0.02839527 -0.04485191 -0.02858017 0.016435178
0.09698876 -0.36639422 0.19350985 -0.050200216 -0.20747805 0.074507274 -0.08183699 -0.5003852
0.17558934 0.07935706 0.02628693 0.10596652 -0.039483763 -0.18567583 -0.087531105 0.03530022
0.11509879 0.16876581 0.28632167 0.5357705 0.11982532 0.2205306 0.025083551 -0.010669429
0.7294866 0.13648285 0.46986586 -0.021403536 -0.043455563 0.19200316 0.20193562 -0.11618894
0.17318147 0.06041537 -0.12676714 0.05486211 0.059674066 -0.13149473 0.14799584 0.2391703
0.18020098 0.0035540536 0.115396135 -0.11274333 -0.08013284 -0.0049569663 -0.00525692 0.002080789
0.2457335 -0.4681883 0.14983188 0.016918741 0.014470656 0.09873643 0.25962427 -0.18694988
-0.046112567 -0.042194687 0.031043038 -0.019541215 0.18887231 0.6424885 0.49218625 0.31005868
0.12257581 -0.018841933 0.97750294 0.28830954 0.03150316 0.24891211 0.216152 -0.47524562
0.34567252 -0.08021682 -0.046189863 0.18388471 -0.18265368 -0.032120883 0.21853998 -0.40870687
0.08942805 0.28768834 -0.15051799 0.016143212 0.014819881 -0.16736533 -0.08779791 0.19376752
-0.3252613 0.011463424 0.2480333 0.020762064 -0.05954443 0.22657639 -0.23367357 -0.010368462
-0.03831735 -0.028162193 -0.087661624 0.19778891 -0.20213649 -0.005520925 0.19902515 0.27249065
0.21164782 0.41006082 -0.013918158 0.3816785 -0.0389475 0.11440538 0.25514978 0.23834658
0.31416968 -0.3239935 0.06680479 0.14718376 0.15047769 -0.0028123676 0.13331033 0.27669954
-0.031905506 0.17156993 0.07569992 -0.09129663 0.1068951 0.19610515 0.10141815 -0.01005142
0.15295237 -0.025053235 0.020143947 0.17595387 -0.040488258 -0.06657405 0.3069087 0.16657735
0.07544242 0.23222677 -0.08753625 -0.02571057 0.2696382 -0.058061276 0.4037454 0.28025055
0.040150348 0.27711663 -0.13231379 0.044461187 0.1647803 0.07333112 0.21159808 -0.14209934
0.1862471 -0.26892206 0.18310611 0.020870931 0.1454277 -0.0029060526 0.14994454 0.20682223
-0.0933672 0.06974034 0.2220158 -0.04945989 0.05925192 0.055153307 -0.082336046 0.15705279
0.30344266 0.034667358 0.0601587 0.0018144568 0.21379425 0.14819646 0.1616442 -0.6103588
0.10373688 0.17928825 -0.044772554 0.0625775 0.21628697 0.16357657 0.049025774 0.26136166
0.009328622 0.0020133308 0.33032727 0.5011859 0.3669737 0.3537471 0.070678934 -0.06666353
0.699705 0.16312957 -0.053974893 0.35594657 0.277121 -0.101602845 0.2475744 -0.09755351

fc1.bias f4 [32]
00000000: 251d 953e 44c9 32bb ef87 07bd 215f c23d
00000010: 9883 8d3e c35e 0f3e dab2 d53d 04cf 043d
00000020: 690b 6f3e fe30 b7bc 9ec8 8c3d 20e4 c83d
00000030: b085 8f3e b696 143e 310c bbbc 0076 353e
00000040: fb27 863d 9bf2 173e a62d 8b3e 38bb 3dbe
00000050: 144b 2a3e 6d46 553e ea40 ffbb f95e 7e3d
00000060: d0be 0a3d ac3d 28be a246 54bb 031a cc3e
00000070: 819f 143e f46f babd 27b9 aa3e 94a7 683e
0.29123798 -0.0027280608 -0.03308862 0.09490801 0.2763946 0.14000992 0.10434504 0.032423988
0.23344196 -0.022362228 0.06874202 0.098091364 0.28031683 0.14510617 -0.022832962 0.17720795
0.065505944 0.1483864 0.27183264 -0.1852845 0.16630203 0.20827647 -0.007789721 0.06210229
0.03387338 -0.16429776 -0.0032390733 0.39863595 0.14513971 -0.091033846 0.33344385 0.22720176

fc2.weight f4 [16, 32]
00000000: c98a dd3e 8c3e 86bd 78b9 4d3e f689 f1be
00000010: 00af 3fbd d64b 873e 5d83 3dbe 9766 e03e
00000020: 8dd3 9b3e ccb0 bc3d ccef cf3e 5db6 a63e
00000030: 1ff4 9dbe bda4 453d 2cbd 6b3e ebc5 b8be
00000040: d07a 3b3e 6fc6 0a3e 3e97 8ebc f53c bb3e
00000050: 66ba d33e 6edc bd3d 0ab5 443e 14ce 8dbe
00000060: b62c d93d 1b88 0cbf 13d8 7aba 6845 b63e
00000070: 36ee a13d 6c9c 0c3e 1b5e 30bf cd90 563e
00000080: ee34 ab3e e1a9 c73d 3ed4 2e3e a04d a63e
00000090: 2393 5c3e b941 9d3d 1645 9a3e d0b3 47b9
000000a0: 46d6 753d 2250 24bd 1e41 f5bc 8b9f d7bd
000000b0: 9fc0 dc3e 6259 0abe 4028 a2bd d15e d03e
000000c0: fe26 b0bd 0533 923d f506 a23e 59e6 89be
000000d0: 0efa 783e 7372 003e 0c53 c53c 68d4 f23d
000000e0: f69c 86bd 3bfc 12be 6923 c1bd 166b 463d
000000f0: 8a19 a5bd 1d59 6bbe 229d df3d 1197 ad3c
00000100: 02cb 06bd f7c1 2bbe 2f9a 153e 0979 5f3d
00000110: fda5 1c3e b0b6 33bd 513e d23d 4da4 0fbe
00000120: 7444 f7bd eeb4 ac3d 04c9 2ebe 02df dcbd
00000130: 5f8c bf3d 5431 623c dd9a 953d 1782 0ebd
00000140: 0fb0 25bc 1723 f63d 4614 2a3d 04a9 733d
00000150: 7c70 ff3d 50df ecbd ea93 5abd 5805 b3bc
00000160: 7a22 2fbe 628c a2bd ac3e babd 1f74 a9bd
00000170: 789d da3d c4b0 933d f672 9bbd 0557 89bd
00000180: 0459 08be 6bfa 0ebf 9a38 833d cb57 3d3e
00000190: b84f 43be 938e ac3e 7a9a f33c fbdc 90be
000001a0: 1c07 d2bd ad5a afbe da67 ccbe b5dc 81be
000001b0: 30e4 21bd d9d6 2c3e 821b 04bf d99f 10bf
000001c0: 3479 c53e fb0b a3be 785c 623e 25d4 c3be
000001d0: 34d8 a8be 67e4 bd3e 852e e9bb a490 8c3e
000001e0: afe6 e13d ebcc 143f 8735 c2bd ed9d 883e
000001f0: 53c2 e53d 1442 fd3c ad5e 523f b462 c03e
00000200: 1ecc 12bd a3b3 783e 85fb 913d cd12 88be
00000210: 6f55 bebe f67c 91bc 1f82 afbe 21fe 5d3d
00000220: 58fa 38bd 4775 373e 898b 5e3e ec97 833e
00000230: ec5a 51be 233c 0d3d 9cbc 063e 0123 cfbe
00000240: 4c98 78bd 8c7d 8a3e 1ab9 dfbe e2e1 693e
00000250: bf0e 303e bc17 093e 90a2 3abd c889 bebe
00000260: 1191 d83d 7682 a7bd 34d0 00be 9ea8 1abd
00000270: 5245 16be 94fa 873e c1fb 47bf 778d 21be
00000280: 5bd5 9b3d dbc7 11be 4475 86bc d5b8 473d
00000290: 7e5f ad3e 0fc8 313e 798e 063e 69b9 ff3d
000002a0: 42d6 5a3e da58 813e f199 4e3c 39ea 68bb
000002b0: c09f 533e 149c c93d 52ff 713d 260b 333e
000002c0: 6ecb 83bd 294b 1f3c c493 803e f9e9 0cbe
000002d0: 5f11 f63c 8e2f 24be 495a ed3d 2b1c 393e
000002e0: 7039 733e 916d 92be 2cad 0d3e a798 783e
000002f0: 82e6 e93d 58db 57be 5757 2a3e f50f dabd
00000300: 59f0 5b3d eec7 ad3d 940b 813a 719b 5cbe
00000310: cfed 22be 0dbd 8ebd a92e 55be a129 44bd
00000320: 5518 02be c345 763e e829 423e ebf8 773e
00000330: f89c 46be c449 0d3e e029 c53d 80de 36be
00000340: 8285 623e a823 c23e eda9 19bf 15d4 9c3e
00000350: 1eb9 11bd 0995 523e 593f 533c f57f 1dbf
00000360: 6f4e bb3e 9017 34be 0d0b 823d 90fe b3bd
00000370: 9911 05be c112 593e 41f1 4fbf c20c dabd
00000380: 055b 5f3e 33d5 acbb c460 d43e b83b 74be
00000390: fb48 8abd b932 d53d 145e d4be a328 003d
000003a0: 0806 c53d 54ef 8a3e b2f6 afbc f762 333d
000003b0: e44d fabe 34eb 633d abc5 993e 61bb 00bf
000003c0: c2d1 773e a5fc ce3e d79c bebd 9603 ae3e
000003d0: c6cf 5c3e 085b 7d3e 8cc5 213e c28d 74be
000003e0: b4ba 163e 0f33 9bbe b77f f1bc 0d35 983e
000003f0: 7068 163c b7a8 d03e 5791 fabe d5b1 3e3e
0.43269947 -0.065548986 0.20090282 -0.47175568 -0.046797752 0.26425046 -0.18507142 0.4382827
0.30434838 0.09213409 0.40612638 0.32561007 -0.30850312 0.04825281 0.23021382 -0.360885
0.18308568 0.13552259 -0.017406102 0.36569944 0.41353148 0.09270559 0.19209686 -0.27696288
0.10604231 -0.5489518 -0.0009568941 0.35599828 0.07906763 0.13731545 -0.68893594 0.20953675
0.3343882 0.09749199 0.17073151 0.32481098 0.21540503 0.07678551 0.30130833 -0.00019045104
0.0600188 -0.040115483 -0.029938277 -0.10528477 0.43115708 -0.1351066 -0.07917833 0.4069734
-0.08601187 0.071386375 0.31645933 -0.26933554 0.24314138 0.12543659 0.024087451 0.118569195
-0.06572907 -0.14354031 -0.09430582 0.04844197 -0.08061512 -0.22983213 0.109186426 0.021190198
-0.032908447 -0.1677321 0.14609598 0.054558787 0.15297695 -0.043875396 0.10265792 -0.1402752
-0.12073603 0.08432947 -0.17068869 -0.10784723 0.093529455 0.013805706 0.073049285 -0.034792032
-0.010112776 0.120184116 0.04152324 0.059487358 0.124726266 -0.11566031 -0.053363718 -0.021853134
-0.17102996 -0.07936932 -0.09093985 -0.082741015 0.10674566 0.0721145 -0.075902864 -0.06706051
-0.13315207 -0.5585086 0.0640728 0.18490522 -0.19073379 0.33702525 0.029736746 -0.28293595
-0.10255262 -0.34248868 -0.39922982 -0.253637 -0.039524257 0.16878833 -0.51604474 -0.5649391
0.38569033 -0.31845078 0.22105587 -0.3824779 -0.3297745 0.3708832 -0.0071161413 0.27454102
0.110303275 0.5812518 -0.09482866 0.26682988 0.11218705 0.030915298 0.82175714 0.37575305
-0.035839193 0.24287276 0.07128052 -0.26576844 -0.37174556 -0.017759781 -0.34278962 0.054197434
-0.04516062 0.17915832 0.21732916 0.25701845 -0.2044484 0.03448118 0.13157886 -0.40456393
-0.060692117 0.2704891 -0.4369591 0.22840074 0.17193125 0.1338796 -0.045565188 -0.37214494
0.10574544 -0.0817918 -0.12579423 -0.037758462 -0.14674881 0.26558363 -0.7811852 -0.15776621
0.07609054 -0.14236395 -0.016413338 0.048760254 0.33861917 0.17361473 0.13140287 0.12486536
0.21370795 0.252631 0.012609945 -0.0035539998 0.20666409 0.09844223 0.059081383 0.17484722
-0.064352855 0.009722509 0.25112736 -0.13761128 0.03003758 -0.16033766 0.11589486 0.18077151
0.2375238 -0.28599218 0.13835591 0.24276982 0.11420919 -0.21079767 0.1663488 -0.10647575
0.05369601 0.08485399 0.000984537 -0.21543671 -0.1591103 -0.06969652 -0.2081858 -0.047891263
-0.12704594 0.2405005 0.18961298 0.24216048 -0.19395816 0.1379767 0.09627128 -0.17858315
0.22121242 0.3791783 -0.6002491 0.30630556 -0.035576932 0.20564665 0.012893521 -0.6152337
0.36583278 -0.17587113 0.06349764 -0.08788788 -0.12994994 0.2119856 -0.812275 -0.106469646
0.21812065 -0.0052744388 0.41480076 -0.23850906 -0.06752201 0.10410065 -0.41478026 0.031288754
0.09620291 0.27135718 -0.021479938 0.043795552 -0.4888755 0.05564423 0.3003362 -0.5028592
0.2420111 0.40427127 -0.093072586 0.3398711 0.21563634 0.24741757 0.15798014 -0.23882201
0.14719659 -0.30312392 -0.029479844 0.29727975 0.009180173 0.4075372 -0.4893901 0.18622525

fc2.bias f4 [16]
00000000: c63e 2fbd 9111 113e 837f 63bd 9c00 b03e
00000010: ed5a 09bd 96ba 193e 11dd c3bd b248 373e
00000020: 38c3 c93d ccea 923c ffeb f4bd ba49 b13d
00000030: 3153 4e3d 3a4b 03bd ada4 9d3c 0744 3a3d
-0.042784475 0.14166857 -0.055541527 0.34375465 -0.03353398 0.15012583 -0.095636494 0.17898825
0.09851688 0.017934225 -0.11959075 0.0865664 0.050372306 -0.032054164 0.019243563 0.045475032

fc3.weight f4 [1, 16]
00000000: 8031 0cbf 7512 143f a21e 63be f45c 8ebf
00000010: 45e4 18bf 5c09 1a3f ef26 33bf 639d fdbe
00000020: 1bf7 763e c8c5 c43e 20eb 213d 11ed 62bf
00000030: cde1 0bbf f8bf 02bf 02f0 633c ad98 1fbf
-0.5476303 0.57840663 -0.22179654 -1.1122117 -0.5972331 0.6017053 -0.6998128 -0.4953414
0.24117701 0.38432145 0.039530873 -0.88642985 -0.5464142 -0.5107417 0.013912203 -0.6234234
