DRL_Nets6/critic_target_8_200.pth (torch, 10432 bytes, 5 tensors)

fc1.weight f4 [32, 42]
000000 3f bd 2b bd 19 30 d0 3d da 2c 09 3e c2 99 bf bd
       -0.041928526 0.10165424 0.13396016 -0.09355499
000010 61 f9 6f 3c 0d ed b4 3d 0f a9 21 be 82 3e 80 3e
       0.014646859 0.08834276 -0.15787147 0.2504769
000020 06 10 0f 3e 27 9c f1 bd b6 ed 2d 3e 5b 63 ef 3d
       0.13970956 -0.11797362 0.16985211 0.116888724
000030 20 45 85 be ef 73 26 bc 5e 08 51 3d 9e 84 d2 bc
       -0.260293 -0.010159477 0.05103337 -0.025698002
000040 64 ab 10 3e 25 96 ab bc cf 21 96 be 58 cb 2e 3e
       0.1412788 -0.020945618 -0.2932267 0.17069757
000050 46 9a 13 3e e6 23 40 3c 8d 91 d3 3d 64 c0 89 3e
       0.1441432 0.011727309 0.10330496 0.26904595
000060 21 5f 6e be d2 11 62 3e a0 b8 85 3e bc 27 9c be
       -0.23278476 0.2207711 0.2611742 -0.30499065
000070 6c fc 84 3e cf 9a ea 3d 4d a4 22 bb 82 5b 81 3c
       0.25973833 0.11455309 -0.002481717 0.015790705
000080 de 0b 87 3e cb 61 8e 3e 94 81 bb 3e ec 09 e9 3e
       0.2637624 0.27808985 0.36622298 0.45515382
000090 a6 e5 dd 3d e0 47 ce 3e 56 03 c8 3e a5 97 b0 3e
       0.108348176 0.4028921 0.39065045 0.34490696
0000a0 0b a5 0b 3f d0 01 8a 3e 23 9a fd 3c c4 77 8c 3d
       0.5454871 0.26954508 0.030957287 0.06858781
0000b0 c8 81 2e 3d 65 40 ba bc 1b 2f 40 3e 81 58 f9 bb
       0.042604238 -0.022735784 0.1876797 -0.0076094274
0000c0 4b c7 0f bd f4 1e 4a 3d 6a cc 62 3e 20 20 4f bd
       -0.03510217 0.049345925 0.2214829 -0.050567746
0000d0 7b be 16 bd c2 08 35 3e 76 37 c7 bd 35 8a ea 3b
       -0.03680275 0.17679122 -0.09727375 0.007157589
0000e0 8f da 1f 3e bd 9c 37 be 3b 35 27 3d d6 53 bb 3d
       0.15610717 -0.17930885 0.04082225 0.0914685
0000f0 e8 68 1f be 3b 6c 1c 3e 17 f5 83 3d 08 be 05 be
       -0.15567362 0.15275662 0.064432316 -0.13060772
000100 d1 a0 fc 3d 02 06 76 bd 3a ae 0a bd 71 3b 31 3e
       0.12335361 -0.060064323 -0.03385756 0.17307831
000110 37 61 1b 3e d8 c9 be be 5e 53 17 3e 9d 8f 65 3e
       0.15173803 -0.3726337 0.14777896 0.22418065
000120 ea 2d 0a be bb 2e 1c 3d 3d 80 05 3e 10 cb c0 3d
       -0.13494077 0.038130503 0.130372 0.09413731
000130 e0 78 fd 3d 63 4c 63 3e 4a c1 37 bd 8c e0 34 3e
       0.12376571 0.22197108 -0.04486207 0.17663783
000140 25 b1 0b 3e e4 fb 58 3e b4 ee 7d 3e aa 33 2b 3e
       0.13641794 0.21189839 0.2479809 0.16718927
000150 99 f4 37 3e 35 68 5a bc 88 8c 44 3e 67 13 89 bd
       0.179644 -0.013330509 0.19194233 -0.06693154
000160 8a 0d 70 3d 58 4f 40 3d ce 0e e5 bd d8 34 dc 3d
       0.05860666 0.046950668 -0.111844644 0.10752267
000170 a3 9c 9c bb a9 f1 5c bd f9 bd 2b 3e 34 da 3e 3e
       -0.0047794147 -0.053941403 0.16771688 0.18637925
000180 b6 67 44 be 46 37 ac bc 82 e4 8a bc 6b fb 26 bd
       -0.19180188 -0.02102245 -0.016954664 -0.040767115
000190 79 9d 2e bd 87 1f d2 3d d8 d5 51 be 7a 2c 0b bd
       -0.042630646 0.102599196 -0.20491731 -0.033977963
0001a0 9b 6d eb 3d 59 ad 85 bd c7 49 3c 3e d4 54 6b 3d
       0.11495515 -0.06527204 0.18387519 0.057453945
0001b0 d5 a9 f7 bd e1 52 05 3d d4 6e 51 3d de 82 60 3d
       -0.1209294 0.032549743 0.051131085 0.054812305
0001c0 d8 27 7c 3d 67 67 27 3c 38 3d 97 3d f8 89 06 3e
       0.061561435 0.010217524 0.073847234 0.13138568
0001d0 ae 8a 61 3d 1a b2 a3 3d b4 d1 95 3e 2a 9b b8 3e
       0.055063896 0.079929546 0.29261553 0.3605588
0001e0 44 e2 aa 3d 55 3f 40 3e 6f e8 b5 3e 15 34 81 3e
       0.08343938 0.18774159 0.35528895 0.25235048
0001f0 33 bd dc 3d f8 0c a3 3e 1b 65 f3 bd 69 da 15 3d
       0.107782744 0.31845832 -0.11884519 0.036585245
000200 db 32 62 3e da 29 35 be 9d c4 6f 3d 9e c3 54 3e
       0.22089712 -0.17691746 0.058537114 0.20777747
000210 7c ef 6b bd 24 0d 1d 3d 08 b4 65 3e d5 f4 98 be
       -0.057601437 0.03834261 0.22431958 -0.29874292
000220 09 e6 63 3e 17 3f 0b 3e ff f2 49 be ef 97 ce 3c
       0.2225572 0.13598286 -0.19721602 0.025218932
000230 6a 3f 26 bd 12 e4 26 bd f0 73 83 3e 8a 25 79 3e
       -0.04058782 -0.04074485 0.2567439 0.24330726
000240 7a 3b 70 bd 95 f8 64 3d ac 98 4d 3e f5 23 0a bd
       -0.05865047 0.05590113 0.20077771 -0.033725698
000250 51 66 a8 3d cd e0 dc bc dd 42 2a bd 4a 5b 41 3e
       0.0822264 -0.026962662 -0.041567672 0.1888248
000260 f6 6d 5e 3d e2 cc 56 be 1a db 89 3e 2f e2 71 3e
       0.054304086 -0.20976594 0.26924974 0.23621438
000270 ec 0f 9d 3d c7 b2 83 3c 55 7c 82 3e a7 a6 e0 3e
       0.076690525 0.016076459 0.25485483 0.43877146
000280 49 15 f0 3e 3f 6c 5f 3e 31 d5 84 3d 8d 7c 9c 3e
       0.4689124 0.21818636 0.064859755 0.30563775
000290 91 3b 24 3e 29 3a 80 3e 47 f4 06 3f a9 2a ae 3e
       0.16038348 0.25044373 0.5271649 0.34016922
0002a0 73 23 ff 3d d6 4a b8 be 0f 93 f4 bc fd c8 21 bd
       0.12457933 -0.35994595 -0.02985528 -0.039498318
0002b0 d9 e3 03 3e b7 91 ab 3c a5 c6 a2 bd 0d 8f 8d bd
       0.12879886 0.020943506 -0.07948045 -0.069120504
0002c0 1a b8 86 bd ca 61 11 3d 24 6a 18 3d ec 15 50 3e
       -0.06578083 0.03549365 0.0372106 0.20320863
0002d0 b2 07 5b be 4c 7b 4c 3c d0 df 5b 3e 84 7f 09 be
       -0.21389654 0.012480568 0.21472096 -0.1342755
0002e0 d7 34 d0 3b 9f 34 85 3e 5e 05 2a be a6 b3 80 3d
       0.0063539553 0.2601671 -0.1660361 0.06284265
0002f0 35 ee 87 3e a8 b5 9a be 13 26 11 bd 63 ca e7 3b
       0.26548925 -0.30216718 -0.0354367 0.007073687
000300 d7 7e 8c be 52 bd 83 3d 87 0b 58 3d ae b9 cb 3d
       -0.2744052 0.06432594 0.05274537 0.09947525
000310 5a 8d 93 bc d8 25 75 3e 66 ea 43 bd b3 54 fd 3c
       -0.018011738 0.23940217 -0.04783096 0.030924177
000320 61 ea 24 be 5a 00 75 3e 7a 85 14 3c 8f 84 44 3e
       -0.16105033 0.23925915 0.009065026 0.19191192
000330 ec 94 6b 3e 97 24 ae 3d 3c 0c 44 3e 3c 23 26 3e
       0.23006028 0.08503073 0.19145292 0.16224378
000340 65 28 06 bd f4 c8 9b bd b9 d5 9c 3d af 92 40 3e
       -0.032753367 -0.07606688 0.07657952 0.18805955
000350 28 0c 46 bd e4 82 48 3e 31 ab da 3d a0 6e 02 bd
       -0.048351437 0.19581181 0.106771834 -0.03184378
000360 a2 b9 b3 3d ea b6 54 3d 5c e0 08 3d 18 55 90 3d
       0.08775641 0.051932253 0.03341709 0.0704748
000370 0a 59 3c 3e 3f a4 b9 3d 62 64 1b 3e 37 02 52 3e
       0.1839334 0.090645306 0.15175012 0.20508657
000380 62 59 03 3e c7 a5 10 3e 3e 6c c5 3c 7b 33 48 3e
       0.12827066 0.14125739 0.024099465 0.19550888
000390 25 a3 07 3e 61 f4 5a 3e 95 16 72 bd c7 51 30 3e
       0.13245828 0.21382286 -0.059103567 0.17218696
0003a0 6f 10 08 3d d7 e7 5e 3e b1 c4 f0 3d 49 4f 47 3e
       0.033218797 0.21768127 0.11756266 0.19463839
0003b0 22 c0 12 3e d3 ca 79 be 41 69 67 bc cb 03 51 bd
       0.14331105 -0.24393778 -0.014124216 -0.051029008
0003c0 bf 95 78 3c 3e d6 fd 3c af 69 81 3e 9d 2c 5c 3e
       0.015172421 0.030985948 0.25275943 0.21501394
0003d0 1f 39 0d 3e ca 3c 3e 3e ab e0 4a 3e 7f b5 2c 3e
       0.13791321 0.18577877 0.19812267 0.1686611
0003e0 f1 44 81 3e 71 3c 9b 3e 71 f9 f6 3e b9 61 0d 3e
       0.2524791 0.3031955 0.48237184 0.1380681
0003f0 b6 4f b0 be 19 8b a8 3e 7d 94 14 3e 4a 15 16 be
       -0.34435815 0.32918623 0.14509769 -0.14656559

fc1.bias f4 [32]
000000 42 00 12 3e 15 55 b8 3b c3 4e 03 3e 78 5e 5b 3d
       0.14257911 0.005625377 0.12823014 0.05355689
000010 f0 79 a5 bd e8 5e 3c 3e b8 da de 3d 3b 42 59 be
       -0.08079898 0.18395579 0.10881561 -0.21216671
000020 fc f1 d7 bd c1 65 8a bd ce dd ac 3d 34 45 ab 3d
       -0.10544202 -0.06757689 0.084407434 0.08362809
000030 a8 88 43 3e ea 4d a2 3c 50 fa 3b 3e 6b c9 52 bd
       0.19095099 0.019812543 0.18357205 -0.05146162
000040 6f 2f c7 3d 45 87 26 3d c5 3b 4a 3e a3 57 13 3d
       0.09725844 0.040656347 0.19749363 0.03597225
000050 56 5c ca 3d 22 b3 cc 3d 97 9c c5 bd ea 35 20 3d
       0.09880893 0.09995104 -0.09649008 0.039113916
000060 fc 48 91 3b 1b 35 9d bd e2 a7 c3 3d 29 b2 55 3e
       0.0044337492 -0.07676145 0.095535055 0.20868744
000070 f7 63 c2 3b e6 c4 7d bd cd 1c 2b 3e 00 a5 c7 3d
       0.005932327 -0.061955355 0.16710205 0.09748268

fc2.weight f4 [16, 32]
000000 2f b0 7c 3e 6a 43 48 3e 20 00 2d bd e6 5f 7f 3e
       0.24676584 0.19556966 -0.042236447 0.24938926
000010 0b 13 df bd c9 4a 1b 3e 6c 47 61 3e 78 42 0f 3f
       -0.10892304 0.15165247 0.21999902 0.559608
000020 05 a6 2b be fe a0 73 3e 9b 00 ac 3e 79 97 a4 3e
       -0.1676255 0.23791882 0.33594212 0.32146814
000030 03 c9 d8 be 6b 3c d1 3d 18 19 0d be 9c 24 db 3d
       -0.4234086 0.10216602 -0.13779104 0.10700342
000040 dc 28 76 bd 1b 79 5a 3e b4 2e 5a be cd 4e 85 3e
       -0.06009756 0.2133526 -0.21306878 0.26036683
000050 7a f4 23 3e 15 3d 58 3d d0 78 45 3e 42 ad 38 3e
       0.16011229 0.052792627 0.19284368 0.18034843
000060 a3 78 1f 3e bc dc 85 3e 5a ba b0 3e 51 2e cf 3e
       0.15573363 0.2614497 0.34517175 0.40465024
000070 99 cf 41 3e bf 85 1f 3e 62 b7 0d 3e bd e9 63 3e
       0.18926848 0.15578364 0.13839486 0.22257133
000080 96 76 4a 3e 4a 7c 64 bd 69 2e 7c 3e 03 9f 0c bd
       0.197718 -0.055782594 0.24627079 -0.034331333
000090 03 60 d3 3e 5a 76 01 3d 6e 87 5d be 5e 96 e0 bd
       0.4128419 0.03160701 -0.21633694 -0.1096618
0000a0 2f 21 58 3d b4 a8 f5 bd 34 59 bb 3c 51 ca 3a 3e
       0.05276602 -0.11995068 0.022869684 0.1824124
0000b0 d2 f7 4d 3e 65 2b ce 3c 29 c8 83 3d ae 55 2b 3e
       0.20114067 0.025167176 0.06434662 0.16731903
0000c0 77 58 c2 3d 0d 62 b5 bd f1 c4 bd 3e 0e 5e 99 be
       0.094895296 -0.08856592 0.37064317 -0.2995457
0000d0 f4 16 0d be dd 72 8d bd a3 7c 02 be 72 1b 66 3c
       -0.13778287 -0.06906674 -0.12742858 0.014044629
0000e0 ea d7 c5 3d 40 9f 34 be a6 d1 1a be 1e 19 f8 be
       0.09660323 -0.17638874 -0.15119037 -0.48456663
0000f0 4e 6c ff bd 6e fc 75 be 22 65 40 3e 07 a1 4a 3e
       -0.12471829 -0.24022076 0.18788579 0.1978799
000100 8a 4d 24 be 2e 8f a6 3d 89 7b 04 be 82 19 af bd
       -0.16045204 0.08132778 -0.1293775 -0.08549787
000110 e4 48 f6 bd 05 e6 ca bd 1a 72 43 3d 85 60 4a bd
       -0.120256215 -0.09907154 0.047716238 -0.049408454
000120 e2 c8 08 be 91 2d c3 3d 53 d8 60 bd 7f 3c 47 3d
       -0.1335788 0.095301755 -0.054893803 0.048641678
000130 e6 a7 b0 bd 1e 81 17 be 01 bf e6 bd a1 f9 2a be
       -0.08625774 -0.14795348 -0.112669 -0.16696788
000140 8c a6 aa bd 16 df 96 3b a2 d5 ca bd d5 2e 04 be
       -0.083325475 0.0046042306 -0.099040285 -0.1290849
000150 38 72 ec bd 59 48 bd bc 32 57 df 3c de 5e 8a 3d
       -0.11545223 -0.023105787 0.027263258 0.06756376
000160 5e 45 1d 3e 8a 64 d8 bd 84 98 1a be 11 5b 0a 3e
       0.15358493 -0.10566051 -0.15097243 0.13511302
000170 35 2d 07 3e 5d 56 2d be 48 45 2c 3e fd e6 01 3e
       0.13200839 -0.16927476 0.16823304 0.12685771
000180 e2 56 9e 3e 01 6b 28 3d a3 96 b5 3d c6 b2 32 3e
       0.3092566 0.041117672 0.08866622 0.17451009
000190 62 2f 9d be 8b 1a ab bc fe ff dc 3e af 47 49 3e
       -0.30700213 -0.02088668 0.43164057 0.19656251
0001a0 bb 86 cb 3d 89 03 7e 3e 9c cb 1e 3e 86 ef 6c 3c
       0.09937807 0.24806036 0.15507358 0.014461404
0001b0 d3 a3 37 be 08 fe 13 3e 45 f1 53 be a0 22 42 3e
       -0.17933588 0.14452374 -0.20697506 0.18958521
0001c0 61 85 ce bd 55 12 db 3d a1 bc a8 be 43 be 64 3e
       -0.10084034 0.10696856 -0.32956412 0.22338204
0001d0 7c a5 6b 3e 15 86 86 3d 26 c6 c3 3d 68 7c 1e 3e
       0.23012346 0.06568543 0.09559278 0.15477145
0001e0 9e 1b 1d 3e 39 e8 ad 3e b1 69 3f 3e 3b be bb 3e
       0.15342566 0.33966234 0.18692662 0.36668572
0001f0 e2 b8 62 3e af 79 65 3e b1 3b 98 3d 0d e8 62 3e
       0.2214084 0.224097 0.0743326 0.22158833
000200 ef 50 b5 3d 84 81 d0 bb 25 d6 b5 bd 36 d2 51 3e
       0.088533275 -0.0063630957 -0.088787355 0.20490345
000210 68 26 cc be 1a 1f 2f 3e d1 c2 f4 3e a9 a4 01 3f
       -0.39873052 0.17101708 0.47804883 0.50641876
000220 3b c9 c7 bd f9 3e 4d 3e b2 41 5f 3e e2 e5 a7 3d
       -0.097551785 0.20043553 0.21802405 0.081981435
000230 19 27 6c be 4a 7c 35 3c 1d 9b a9 be b7 77 70 3e
       -0.2306179 0.011076996 -0.33126155 0.23483168
000240 7f 24 2a 3d 45 91 86 3e 46 c2 5a be 96 bd d1 3e
       0.04153871 0.26282707 -0.21363172 0.40964955
000250 e3 dd 36 3d 1d 7e 90 3e 68 83 f9 3d 1b 74 17 3d
       0.0446452 0.28221217 0.12183267 0.03697596
000260 b6 6c c6 3d 19 18 ca 3d d8 c0 dd 3e e1 d4 f6 3e
       0.09688704 0.098678775 0.4331119 0.4820929
000270 69 af 3d 3e 49 02 c1 3e 64 d6 92 3e 5d 83 ba 3e
       0.18523945 0.37697056 0.28679192 0.36428347
000280 23 ae 64 3e 09 bd 5e 3e d4 e1 82 3d da ec 86 3e
       0.22332053 0.21751799 0.063907295 0.26352578
000290 b4 09 d3 3e 75 87 a9 bc 07 84 76 be cb 89 ae be
       0.4121834 -0.020694474 -0.24073802 -0.34089503
0002a0 7e ee 87 bc 1d c4 af 3d d8 a7 61 3d f4 e7 d0 3d
       -0.016593214 0.085823275 0.05509171 0.102004915
0002b0 2d 1b 33 3e 04 b0 df bd e2 0d b2 bd 10 6c 2e 3e
       0.17490835 -0.10922244 -0.08694054 0.1703341
0002c0 fa c8 c9 bc f3 89 28 be 09 86 a2 3e f3 de 04 be
       -0.024631966 -0.16458873 0.31742886 -0.12975673
0002d0 7e 40 70 be 82 8a cb 3d 58 5d ca be 19 55 8a 3e
       -0.23462102 0.09938528 -0.3952434 0.2701805
0002e0 b5 78 f3 bd 14 b7 e8 bd 2f 3b 35 be 6c 4b eb be
       -0.118882574 -0.113630444 -0.17698358 -0.4595598
0002f0 70 d6 94 be aa 06 67 bd 64 35 3c 3e 5b 4e 6b 3e
       -0.29069853 -0.05640284 0.18379742 0.22979109
000300 13 fa 39 3e f6 9b 9b 3a 4f d3 48 bd c1 1f 17 bd
       0.18161802 0.0011872042 -0.049029645 -0.036895517
000310 c6 d9 48 be 6e 6d 97 3d 90 4f f6 3e ff 06 f4 3e
       -0.19614324 0.07393919 0.48107576 0.47661588
000320 e9 ef 17 bc 1d e8 36 3e d3 3b 95 3d f6 8d 62 3d
       -0.009273508 0.17861982 0.07286801 0.055311166
000330 6e 07 95 bd 44 87 b6 bd fd 0a 6f be bd bd 53 3e
       -0.07276808 -0.089125186 -0.23344035 0.20677848
000340 c5 59 d0 3b 88 3f ad 3d 97 e2 84 be 0d 93 b8 3e
       0.0063583576 0.08459383 -0.25954124 0.3604969
000350 66 7f 6d 3e 95 ca 7b 3d 58 fb 8e 3e 5f c6 47 3d
       0.2319313 0.061472494 0.27926135 0.048773166
000360 90 37 67 3e 4f 12 a8 3d ec 78 36 3d 75 d5 e9 3e
       0.22579789 0.08206617 0.044548914 0.45670667
000370 3f 52 8f 3e 51 4d 98 3d aa 77 09 3e 53 70 5d 3e
       0.27992436 0.07436622 0.13424554 0.2162488
000380 35 0f 6b 3e de cd 86 3d 1a ac 90 3e 73 49 87 3e
       0.2295502 0.06582235 0.28256303 0.26423225
000390 8b a2 4b 3e 3b fd 14 bd 10 ce 94 be 43 f6 a7 be
       0.19886224 -0.036374312 -0.29063463 -0.3280507
0003a0 c1 15 26 3d 07 03 7a 3e 24 d0 fc 3d d4 97 21 3e
       0.04054809 0.24415217 0.12344387 0.15780574
0003b0 16 40 f7 3e 12 3e 26 be 55 b4 1b 3e d9 2a ef 3d
       0.4829108 -0.16234615 0.1520551 0.116780944
0003c0 f5 e1 da 3d c1 fb 03 bf 09 3e 90 3e 32 e8 ac be
       0.10687629 -0.5155602 0.2817233 -0.337709
0003d0 f4 3e 58 be 91 1f 43 bd 9f 43 8a be c0 e9 9c 3e
       -0.21117765 -0.047637526 -0.27004716 0.30647087
0003e0 c7 db 2c bd cc 7e 11 3d f6 3a 87 3b 1f f4 c1 be
       -0.042201784 0.035521314 0.0041269017 -0.37881562
0003f0 85 4e 4f be 96 14 a6 be e3 3b 91 bd 12 e4 85 3e
       -0.20244797 -0.3243758 -0.070915006 0.26150566

fc2.bias f4 [16]
000000 b2 88 db bd 5f 34 b9 3d 03 f0 cb 3d eb ae e8 3b
       -0.10719432 0.09043192 0.09957888 0.00710093
000010 4e f4 3d bd 0f 4b a1 3d 34 f8 88 3b 4d 14 87 3b
       -0.046375565 0.078756444 0.0041799787 0.004122293
000020 b9 01 48 bd e3 eb a1 3c 41 52 95 bc 62 91 7b 3d
       -0.048829768 0.0197658 -0.018227698 0.061417945
000030 63 b0 6b bd 1a eb df bd 06 bf 5b 3d a9 d7 09 be
       -0.057541262 -0.10933514 0.05364897 -0.13461174

fc3.weight f4 [1, 16]
000000 fc 72 95 be 7f 83 47 3e 80 58 bb 3c 2b 0d d0 be
       -0.2918929 0.19483756 0.022869349 -0.40635046
000010 0c 91 d6 be c3 30 e5 3e 45 65 37 be a2 61 00 3f
       -0.41907537 0.44763765 -0.17909725 0.50148976
000020 30 5b 93 3e 39 04 43 3e 0a 0e cc be 12 6e 71 bd
       0.28780508 0.1904458 -0.3985446 -0.05894286
000030 51 96 d4 3d d4 5c 81 3d f5 29 c1 be 68 59 c4 be
       0.10380233 0.06316534 -0.37727323 -0.38349462
