DRL_Nets6/critic_0_448.pth (torch, 10362 bytes, 5 tensors)

fc1.weight f4 [32, 42]
0	0x3ec669fe	0.3875274
1	0xbe7df0aa	-0.24798837
2	0xbe0325df	-0.12807415
3	0x3dc943b8	0.098273695
4	0x3dfe5068	0.1241768
5	0x3e78d4a1	0.24299861
6	0xbe591aa1	-0.21201564
7	0xbcd73d44	-0.02627433
8	0x3db9f1c7	0.090793185
9	0xbc3aa62b	-0.011392157
10	0x3dedc8b9	0.116105504
11	0x3de7dffd	0.11322019
12	0xbd55effd	-0.052230824
13	0x3e4aa2b5	0.1978863
14	0x3e0aa554	0.1353963
15	0xbe6e31d5	-0.23261197
16	0x3de9eb34	0.114218146
17	0x3da1b2b6	0.078954145
18	0xbe342a01	-0.17594148
19	0x3d4ec25e	0.05047833
20	0x39f2a66a	0.00046281825
21	0xbd2bddde	-0.041959636
22	0x3da11679	0.078656144
23	0x3e629251	0.22126128
24	0xbe3cfb88	-0.18455327
25	0xbd6a3561	-0.057179812
26	0x3d9202b7	0.07129424
27	0xbe1378b7	-0.14401518
28	0xbd866ae5	-0.06563357
29	0x3e579303	0.21052174
30	0xbe26637b	-0.16248886
31	0xbd5465f3	-0.05185504
32	0xbd55375a	-0.05205474
33	0x3e7b5a41	0.24546148
34	0x3da5e0dd	0.0809953
35	0x3e3562a8	0.17713416
36	0x3e0abd86	0.1354886
37	0x3d335ce5	0.043789763
38	0xbdc55807	-0.096359305
39	0xbd1bffc4	-0.038085714
40	0x3d079205	0.03309824
41	0x3e04ec4e	0.12980768
42	0x3d0589bd	0.03260206
43	0x3ea38355	0.31936136
44	0x3e41a010	0.18908715
45	0xbe3090c7	-0.17242728
46	0xbcbe6ef5	-0.023246268
47	0xbdc1faf1	-0.094716914
48	0x3e0aab0c	0.13541812
49	0x3e69a941	0.22818471
50	0x3e000c6e	0.12504742
51	0x3e1c107a	0.1524066
52	0x3e0fa31d	0.14027067
53	0xbd8f8d9d	-0.070094325
54	0xbd9816f7	-0.07426255
55	0x3e36b927	0.17844068
56	0xbd45b270	-0.048265874
57	0x3e2506cf	0.16115879
58	0x3e6684ad	0.2251155
59	0x3de693a6	0.112586305
60	0xbdcbe431	-0.099556334
61	0x3e742c1f	0.23844956
62	0x3e32ea2b	0.1747214
63	0x3ca79755	0.020457903
64	0x3d134c8e	0.03596168
65	0x3dfdd155	0.123934425
66	0xbd148ea8	-0.03626886
67	0xbd4d6db9	-0.050153468
68	0xbd4aed05	-0.049542446
69	0x3e1ac01e	0.1511235
70	0xbc91c710	-0.017795116
71	0xbcc51693	-0.024058616
72	0x3caa5747	0.02079357
73	0x3e605af8	0.21909702
74	0x3e40b4b0	0.18818927
75	0x3dc9834e	0.098394975
76	0x3eb499a5	0.3527347
77	0x3dd63b9b	0.104605876
78	0x3e053235	0.13007434
79	0x3e8a0c72	0.2696262
80	0x3cc737ed	0.02431866
81	0x3e3ac47f	0.1823902
82	0x3eb358c9	0.35028675
83	0x3e592657	0.21206032
84	0x3eef48f2	0.4673534
85	0x3e3ae134	0.1824997
86	0x3e80e1ce	0.25172275
87	0xbd6e10c0	-0.058121443
88	0x3ea9d3fa	0.33169538
89	0x3e133f12	0.14379528
90	0x3e24583d	0.16049285
91	0x3e25b213	0.16181211
92	0x3e8a24c0	0.26981163
93	0x3e6ad7ea	0.22933927
94	0x3e616e21	0.22014667
95	0x3ea0cf0b	0.3140796
96	0x3e4f901c	0.20269817
97	0x3dbfd817	0.09367388
98	0x3e496316	0.19666705
99	0x3dd02e38	0.101650655
100	0x3e287b5c	0.16453308
101	0x3e588eda	0.21148244
102	0x3dbf7a6b	0.09349521
103	0x3dfbb738	0.122908056
104	0x3e204c2f	0.15654062
105	0x3e8fb414	0.28067076
106	0x3e9b008f	0.30273864
107	0x3e876acb	0.26448664
108	0x3e72d25b	0.23713057
109	0x3e138237	0.14405142
110	0x3e61ca66	0.22049865
111	0x3d96fe6a	0.073727444
112	0x3ebbe55e	0.3669843
113	0x3eb36cb3	0.35043868
114	0x3e130833	0.14358597
115	0x3ec595f8	0.3859098
116	0x3ea9caad	0.33162442
117	0x3e7eccbe	0.2488279
118	0x3dd3dbde	0.10344671
119	0x3e0ded0f	0.13859962
120	0x3d434de8	0.04768172
121	0x3cc0ff6f	0.0235593
122	0x3e73a870	0.23794723
123	0x3e3211af	0.17389558
124	0x3e5ab8e3	0.21359591
125	0x3d9aa55a	0.075510696
126	0xbdf2e258	-0.11859578
127	0x3e682cdf	0.22673367
128	0x3e9e6292	0.30934578
129	0xbe834992	-0.25642067
130	0x3d238c07	0.039928462
131	0x3c45382f	0.012037321
132	0x3d363943	0.044488203
133	0xbda4ce7a	-0.08047195
134	0x3e326ed2	0.17425087
135	0xbd551fe6	-0.052032374
136	0xbc7dc4e8	-0.015488841
137	0x3acc894e	0.0015604885
138	0xbd5aad4b	-0.05338792
139	0x3d90dcf7	0.07073396
140	0xbcaab13f	-0.02083647
141	0x3e560317	0.20899616
142	0x3d855c61	0.065117605
143	0x3dc4965c	0.09598991
144	0xbcfbdaa0	-0.030743897
145	0x3d56dfc7	0.052459504
146	0x3d350fcd	0.044204522
147	0x3d95b606	0.07310109
148	0xbd1dcb1a	-0.03852377
149	0x3e16b84d	0.14718743
150	0x3e5b4062	0.21411279
151	0xbba05811	-0.004893311
152	0x3d5bf899	0.053703878
153	0x3e345633	0.17611007
154	0x3e36c3e4	0.17848164
155	0x3b03d802	0.0020117764
156	0xbc06321b	-0.008190657
157	0xbdc35590	-0.09537804
158	0x3f18e159	0.59718853
159	0x3eabf297	0.3358352
160	0x3e9317cc	0.28729093
161	0x3eba179b	0.36346135
162	0xbce233c2	-0.02761257
163	0x3da0eeba	0.078580335
164	0x3dcde488	0.100533545
165	0x3c237bf6	0.009978285
166	0x3de2dec1	0.11077643
167	0x3e76f642	0.24117377
168	0xbdc68338	-0.09692997
169	0x3e04f20f	0.12982963
170	0x3e1f848a	0.15577903
171	0xbed3c8f3	-0.4136425
172	0x3e2c3753	0.1681798
173	0x3e2c3a0d	0.1681902
174	0xbc09cb56	-0.0084102955
175	0xbdacc9a1	-0.08436895
176	0xbc4eebe4	-0.012629483
177	0x3d9458b1	0.07243479
178	0x3dca0447	0.09864097
179	0xbdc8f653	-0.098126076
180	0x3e42d122	0.1902509
181	0xbd1b22f5	-0.037875134
182	0x3ddd1f3b	0.10796972
183	0x3dc9cb08	0.09853178
184	0x3d33097d	0.04371022
185	0x3d9a2079	0.07525725
186	0x3e1d6693	0.1537116
187	0x3d913d18	0.07091731
188	0x3d3c7181	0.046006683
189	0x3de8ca0e	0.11366664
190	0x3e1d75a2	0.15376905
191	0x3c99c0c0	0.018768668
192	0x3e7447c9	0.23855509
193	0xbcc42402	-0.023942951
194	0x3e5a30e7	0.21307717
195	0x3d91cc26	0.07119016
196	0x3e2cb04f	0.16864131
197	0x3d71df73	0.05905099
198	0x3e412dfb	0.18865196
199	0xbcd7b66a	-0.026332099
200	0x3f11592e	0.567767
201	0x3e9139fd	0.28364554
202	0x3e1ccf51	0.1531346
203	0x3e78882e	0.24270698
204	0x3e4be80f	0.19912742
205	0x3ded9803	0.116012596
206	0x3e0882b9	0.13331117
207	0x3d961cfd	0.07329748
208	0x3d5e6a59	0.05430064
209	0xbd844280	-0.06457996
210	0x3e518b35	0.2046326
211	0x3dbff79a	0.09373398
212	0x3e4f1f65	0.2022682
213	0x3f04376c	0.5164707
214	0x3d5b23bf	0.053500887
215	0x3e230964	0.15921551
216	0x3dc1249a	0.09430809
217	0xbe3da37e	-0.18519399
218	0x3bcfcda9	0.0063416553
219	0x3e9f35cb	0.31095728
220	0x3daa6fc6	0.083221
221	0xbcad139d	-0.021127516
222	0x3d78ce8f	0.060743865
223	0xbd7c2b09	-0.06156448
224	0xbc792ff8	-0.015209191
225	0x3e23ed2a	0.1600844
226	0x3b589265	0.0033046242
227	0x3e2d4587	0.16921054
228	0x3d4e027f	0.05029535
229	0xbe2370c5	-0.15960987
230	0xbd72caa1	-0.059275273
231	0x3dbcd11d	0.09219573
232	0xbd6f467b	-0.058416825
233	0xbd722d6c	-0.05912535
234	0xbd64efbb	-0.055892687
235	0x3c85aea8	0.016318634
236	0x3d4d40a9	0.050110493
237	0xbc8783a3	-0.016542261
238	0xbe2deba2	-0.16984418
239	0xbd69fe02	-0.057127006
240	0x3d77542f	0.060383018
241	0xbe1d5373	-0.15363865
242	0xbf005d6b	-0.50142545
243	0xbe2eff23	-0.17089514
244	0xbec9dabf	-0.39424703
245	0xbe160239	-0.14649285
246	0xbd12a4ee	-0.03580182
247	0xbccee0e3	-0.025253719
248	0xbe806ad7	-0.25081512
249	0xbe06a453	-0.13148622
250	0xbe86219c	-0.26197517
251	0xbd3aa90d	-0.045571376
252	0x3ecd35c6	0.40080088
253	0xbef9f743	-0.48821458
254	0x3d2bf60d	0.0419827
255	0xbecb3502	-0.3968888

fc1.bias f4 [32]
0	0xbbc5e32e	-0.006039045
1	0x3e1bc148	0.1521045
2	0x3f0534aa	0.52033484
3	0x3e3d055b	0.18459074
4	0x3db71612	0.089397565
5	0x3de0e53b	0.10981222
6	0x3e07145a	0.13191357
7	0x3e274622	0.16335347
8	0x3e949511	0.2901998
9	0x3e44e853	0.1922925
10	0x3e41896c	0.18900079
11	0xbda8239e	-0.082099184
12	0x3c3f5ba3	0.011679563
13	0x3e82e81d	0.25567713
14	0xbdd328c8	-0.10310513
15	0x3e353fe0	0.17700148
16	0xbdea8dec	-0.11452851
17	0xbcd35c69	-0.0258009
18	0x3e822bb4	0.25423968
19	0xbd925723	-0.07145526
20	0xbde9fcc2	-0.11425163
21	0x3d9d89e1	0.07692314
22	0x3cb58bdb	0.022161415
23	0x3e7b0e2b	0.24517123
24	0x3d6fe73d	0.058570135
25	0x3e9b4f06	0.30333728
26	0x3d896563	0.06708791
27	0xbd969719	-0.07353038
28	0x3c0fa99f	0.008768468
29	0x3dab1ae0	0.083547354
30	0xbde23ba9	-0.110465355
31	0x3d8f2698	0.06989783

fc2.weight f4 [16, 32]
0	0xbec76f52	-0.38952118
1	0xbcf14173	-0.029450154
2	0x3c1714f7	0.009221307
3	0x3e57056c	0.20998162
4	0x3e74edc5	0.23918827
5	0x3ee30cde	0.44345754
6	0xbe4cf97f	-0.2001705
7	0xbd399b9c	-0.045314416
8	0xbe11f504	-0.14253622
9	0x3e3c4d2c	0.18388814
10	0xbe8584d7	-0.2607791
11	0xbdc967a4	-0.09834221
12	0x3d9cf638	0.0766415
13	0xbf0fb6db	-0.5613839
14	0x3e94d5c9	0.29069355
15	0x3e583b12	0.21116284
16	0x3e8020cf	0.2502503
17	0x3e88276d	0.2659258
18	0xbf37a0a4	-0.71729493
19	0xbdcc4dbd	-0.09975765
20	0x3c8085e7	0.01568885
21	0x3e4c3a2c	0.19944066
22	0x3e0680a6	0.13135013
23	0x3e1d5743	0.15365319
24	0x3d558c89	0.052135978
25	0x3e7293f4	0.23689252
26	0x3f075ec4	0.52878976
27	0xbe92148b	-0.28531298
28	0x3e2adbd9	0.16685428
29	0x3ea63c2c	0.32467782
30	0x3e4c56e7	0.19955026
31	0x3e6d84ed	0.23195238
32	0xbeb280ad	-0.34863797
33	0x3e603a7e	0.21897313
34	0xbd10ea73	-0.03537984
35	0x3e86d40a	0.26333648
36	0x3e54194d	0.20712776
37	0x3e35b394	0.17744285
38	0x3d29b17a	0.04142902
39	0x3d4b36c4	0.049612775
40	0xbe72f095	-0.23724587
41	0x3e9e36e0	0.3090124
42	0xbeb2a885	-0.34894195
43	0xbe0cf06c	-0.13763589
44	0x3e572a5c	0.21012253
45	0xbf2db7af	-0.67858404
46	0x3f255535	0.6458314
47	0xbaee1686	-0.0018164671
48	0x3e1dafe9	0.15399136
49	0x3e536713	0.20644788
50	0xbf42ed4f	-0.76143354
51	0xbeb9d879	-0.36297968
52	0x3dd57e3e	0.104244694
53	0x3e47afd3	0.19500665
54	0x3ec75419	0.3893135
55	0x3e5f5662	0.21810296
56	0x3cb45505	0.022013197
57	0x3c892df4	0.016745545
58	0x3dda31ac	0.106540054
59	0xbd40dbf0	-0.04708475
60	0x3dd72411	0.10504926
61	0xbc93785f	-0.018001733
62	0x3e405d0b	0.18785493
63	0x3e026c4b	0.12736623
64	0xbeb541db	-0.35401806
65	0x3d4a30eb	0.049363058
66	0x3e264d07	0.16240321
67	0x3d9e2902	0.07722665
68	0xbd4c7839	-0.04991934
69	0x3f466862	0.77503026
70	0xbed57233	-0.4168869
71	0x3e4f3917	0.20236622
72	0xbe53cd32	-0.20683745
73	0xbcfac57d	-0.030611748
74	0xbe45aa17	-0.19303165
75	0xbdf8f309	-0.1215573
76	0x3f2965a0	0.6617069
77	0x3db3b554	0.0877482
78	0x3f0e6a68	0.55631113
79	0x3ec15811	0.37762502
80	0x3e54be82	0.20775798
81	0x3ead63e3	0.3386527
82	0x3e43d3b5	0.19123729
83	0x3e9bd425	0.3043529
84	0x3e3c6c7e	0.18400761
85	0x3e1e47ee	0.15457126
86	0xbdc86178	-0.09784216
87	0x3ee74018	0.45166087
88	0x3e5a7c90	0.2133658
89	0xbe7a822f	-0.24463724
90	0x3f1c03bd	0.60943204
91	0xbd198f38	-0.0374901
92	0x3db23bdc	0.087028235
93	0x3f3bebca	0.7340666
94	0x3dce3378	0.10068411
95	0x3e260915	0.16214402
96	0xbed99f9b	-0.42504582
97	0x3e19b0d6	0.15008864
98	0x3c982016	0.018569987
99	0x3e7617dc	0.24032539
100	0x3e8e168c	0.27751577
101	0x3e53465e	0.20632312
102	0xbd0c9864	-0.03432502
103	0x3a749b1d	0.0009330975
104	0xbd4de31c	-0.050265417
105	0x3dde3352	0.10849632
106	0xbe2b430b	-0.16724794
107	0xbda84ba9	-0.08217556
108	0x3db2cbc4	0.087302715
109	0xbf0d199b	-0.55117196
110	0x3ee90215	0.455094
111	0x3e88af01	0.26696017
112	0x3e36ec53	0.17863588
113	0x3eb9c3e1	0.36282256
114	0xbf2f54d3	-0.68488806
115	0x3d2c7a6e	0.042108946
116	0x3d373f74	0.044738248
117	0x3d57293f	0.05252957
118	0x3bf6ef8a	0.0075358795
119	0x3dbee65f	0.093212835
120	0x3e4f257d	0.20229144
121	0x3ea4d695	0.32194963
122	0x3f22f8be	0.636608
123	0xbd497612	-0.049184866
124	0x3eb3872d	0.35064068
125	0x3ee02138	0.43775344
126	0x3e91a1ba	0.284437
127	0x3db309eb	0.08742126
128	0x3eaeba91	0.34126714
129	0xbddc608e	-0.10760604
130	0x3dfb08b6	0.12257521
131	0xbe9b397a	-0.3031729
132	0xbe1c18d7	-0.1524385
133	0x3dfd182a	0.123581246
134	0x3de90436	0.11377756
135	0xbd343dd4	-0.044004276
136	0x3ea5ab0d	0.32357064
137	0xbcc1c673	-0.023654198
138	0x3e6e9f5c	0.23302978
139	0xbe11ec75	-0.14250357
140	0xbead1283	-0.33803186
141	0xbe989fed	-0.29809514
142	0xbc3e0e7d	-0.011600134
143	0xbc05638a	-0.008141408
144	0x3cf3d1c6	0.029763114
145	0xbd989f95	-0.07452313
146	0xbe94d992	-0.29072243
147	0x3e010d5a	0.1260275
148	0x3e1644d1	0.14674689
149	0xbdc7958b	-0.0974532
150	0x3c94798f	0.01812437
151	0xbde2cb0d	-0.11073885
152	0xbe26ed1a	-0.16301385
153	0x3e16ddaf	0.14733003
154	0xbe1a9473	-0.15095691
155	0x3d8b6d53	0.06807961
156	0x3da3a620	0.0799067
157	0xbe8e9aee	-0.27852577
158	0xbbab100e	-0.0052204197
159	0xbdc694fb	-0.096963845
160	0x3d6cb0fe	0.05778598
161	0xbd902e67	-0.070401005
162	0x3e5faa0f	0.21842216
163	0xbe09edfb	-0.13469689
164	0xbde76d7b	-0.113001786
165	0xbdbb5840	-0.09147692
166	0x3dfff511	0.124979146
167	0xbd68eaca	-0.056864537
168	0x3dee1463	0.11624982
169	0xbea4737f	-0.32119367
170	0x3e7fb8fc	0.2497291
171	0x3d4ecd65	0.05048885
172	0x3d090e9c	0.0334612
173	0x3d4ba97a	0.049722172
174	0xbe0792ce	-0.13239595
175	0x3e3954f9	0.18098821
176	0x3dc1d61f	0.094646685
177	0x3e59d659	0.21273173
178	0xbe0a6885	-0.13516434
179	0x3ce2f439	0.027704345
180	0x3c442544	0.011971775
181	0xbd84549f	-0.06461453
182	0xbe8aceef	-0.27111003
183	0xbe16c791	-0.14724566
184	0xbd4a65af	-0.04941338
185	0x3e676ad0	0.2259934
186	0xbc3f2925	-0.011667524
187	0x3cf51a9c	0.029919915
188	0x3e18ad71	0.14909913
189	0x3cba7f5a	0.022765804
190	0x3d79dc65	0.0610012
191	0xbeb85b00	-0.36006927
192	0xbec4427b	-0.3833197
193	0x3df1adf7	0.11800759
194	0x3e183c2f	0.14866708
195	0x3e9404db	0.28909954
196	0x3e4c124c	0.19928855
197	0x3e8b77b4	0.27239764
198	0xbe8979ae	-0.26850647
199	0x3dc7744b	0.09738978
200	0xbe22350d	-0.1584055
201	0x3e875606	0.26432818
202	0xbe43f9f9	-0.19138326
203	0x3d39e15e	0.045380943
204	0x3daf42ee	0.08557688
205	0xbf2d1e74	-0.6762459
206	0x3e93cacf	0.28865668
207	0xbd96450a	-0.07337387
208	0x3d6a5a86	0.057215236
209	0x3e9e1234	0.30873263
210	0xbf26cb7f	-0.6515426
211	0xbe888f45	-0.26671806
212	0x3cf718c2	0.030163173
213	0x3dff4b89	0.12465579
214	0x3d834d97	0.064112835
215	0xbcf4999c	-0.029858403
216	0x3e6c8c94	0.23100501
217	0x3e803338	0.25039077
218	0x3f15855e	0.5840663
219	0xbead2430	-0.3381667
220	0x3e525819	0.20541419
221	0x3ee8ef96	0.4549529
222	0x3e76b555	0.2409261
223	0x3ea7417d	0.3266715
224	0x3eb52283	0.35377893
225	0xbd8385e1	-0.0642202
226	0x3e968724	0.2939998
227	0x3d7212f0	0.05910009
228	0x3d553c3c	0.052059397
229	0xbe599679	-0.21248807
230	0x3ef9c1c6	0.4878065
231	0x3d08a09e	0.0333563
232	0x3e11c5f3	0.14235668
233	0x3c087da0	0.008330733
234	0x3ed136e4	0.4086219
235	0x3e2559ed	0.16147585
236	0xbf248b07	-0.6427464
237	0xbd38e1b9	-0.04513714
238	0xbe93e9b2	-0.28889233
239	0xbc723a8d	-0.014784467
240	0xbde1ca05	-0.1102486
241	0x3d25abf2	0.040447183
242	0x3eb93e64	0.36180413
243	0xbe8083d2	-0.2510057
244	0x3d8b3282	0.06796743
245	0x3d3b19bb	0.045678835
246	0x3916b863	0.00014373804
247	0x3dfecff9	0.124420114
248	0x3dc6aa18	0.097004116
249	0x3ed66b11	0.4187856
250	0xbea9fec7	-0.33202192
251	0x3e0c44fe	0.13698193
252	0x3d486c96	0.04893168
253	0xbeab6096	-0.33472127
254	0x3c0d5845	0.008627002
255	0x3ddb1b89	0.10698611

fc2.bias f4 [16]
0	0x3db6bf5c	0.08923218
1	0x3d9decc0	0.07711172
2	0x3df661e5	0.12030391
3	0xbd93d75d	-0.07218812
4	0xbea14479	-0.31497553
5	0x3ce3e560	0.027819335
6	0x3e1a1f00	0.15050888
7	0xbd219306	-0.039446853
8	0xbc6bec67	-0.014399624
9	0x3d969b94	0.07353893
10	0xbc911e5d	-0.017714674
11	0x3b0e227b	0.0021688032
12	0xbdbaf66a	-0.09129031
13	0xbdd3cc5f	-0.10341715
14	0xbd3bd9ab	-0.04586188
15	0x3e46a560	0.19399023

fc3.weight f4 [1, 16]
0	0xbeb6fb26	-0.35738486
1	0xbf340b0f	-0.70329374
2	0xbec0a065	-0.3762237
3	0xbe88a824	-0.2669078
4	0x3f0bf81c	0.5467546
5	0xbef8cdb4	-0.4859444
6	0xbebec134	-0.37256777
7	0x3ee8ab8f	0.4544339
8	0x3ed4aa87	0.41536352
9	0xbef14ab2	-0.471273
10	0xbf10b20e	-0.5652169
11	0x3f6bfd0c	0.92182994
12	0x3e5c17ae	0.21493408
13	0xbecc8b90	-0.39950228
14	0x3c8b0800	0.016971588
15	0xbe9bb2b7	-0.30409786
