DRL_Nets6/critic_6_793.pth (torch, 10362 bytes, 5 tensors)

fc1.weight f4 [32, 42]
000000 d4 ad 8e 3e 4e 7e 07 3e 4d c9 15 3e 2b 8a fb 3d
       0.27866995 0.13231775 0.14627571 0.12282213
000010 bc 4e 9e 3c cb 25 ae 3e 9a c0 cb 3d 37 56 54 3e
       0.019324653 0.3401321 0.09948845 0.20736013
000020 cb 33 c8 bd bf ef 97 3e 95 9c 32 3d c7 f8 a9 bd
       -0.09775504 0.296751 0.04360636 -0.08299404
000030 72 4f 5c 3e 22 53 80 bc 65 78 3c bc e7 15 b0 3c
       0.21514681 -0.01566464 -0.011503314 0.021494819
000040 5e 83 63 3e 04 da 1c bd b9 80 a2 3d 83 23 11 3e
       0.22218081 -0.038293853 0.07934708 0.14173703
000050 81 d7 2f 3e f2 c1 0a bf bc cf 57 3e 29 01 c6 3a
       0.17172052 -0.5420219 0.21075338 0.0015106547
000060 25 9f 3b 3e 49 fb 5b 3c 45 06 72 bc b7 6e a8 3e
       0.18322428 0.01342661 -0.014772003 0.3289697
000070 9a 38 3b 3e aa 46 a6 bd 13 b2 df 3e ef f9 20 3d
       0.1828331 -0.08118947 0.43690547 0.039300855
000080 21 dd 8c 3e c7 07 1e 3f 5c 1e 7e 3d 42 a5 8c 3d
       0.27512458 0.6173062 0.06204067 0.06867458
000090 21 69 db 3c 47 4c b5 be fb 99 5e 3f cf f5 ce 3d
       0.026783528 -0.35409757 0.86953706 0.10105478
0000a0 fe a6 96 bd 80 df 73 be ba 6e bd be 70 50 3b 3e
       -0.0735607 -0.23815727 -0.3699854 0.18292403
0000b0 19 29 28 bd 6c 20 92 3a 92 f9 f7 3b 58 92 d1 3d
       -0.04105482 0.0011148578 0.007567593 0.10232991
0000c0 3a 12 fe bc da e0 ee 3d 19 ea aa bd 03 e7 3f be
       -0.03101455 0.11663981 -0.08345432 -0.18740468
0000d0 6e d8 e9 3c bc e5 3a bd 9a f2 fd bc b3 e0 87 3c
       0.028545585 -0.045629248 -0.03099947 0.016586637
0000e0 30 41 c5 3d fd cb bb be 17 50 46 3e 46 11 4d bd
       0.09631574 -0.36679068 0.1936649 -0.0500653
0000f0 44 7c 54 be f1 e8 98 3d 56 8d a7 bd 6f 45 00 bf
       -0.20750529 0.07466305 -0.081812546 -0.5010595
000100 d4 f5 33 3e 42 81 a2 3d 05 94 d8 3c aa 54 d9 3d
       0.17574245 0.0793481 0.026437769 0.106118515
000110 86 f8 1e bd fa d7 3f be f4 f2 b2 bd 03 b8 10 3d
       -0.03881123 -0.18734732 -0.08737746 0.035331737
000120 4f 28 eb 3d 34 f9 2c 3e ec 67 97 3e c7 82 09 3f
       0.11482298 0.16891938 0.29571474 0.53715175
000130 b7 a3 04 3e bc 35 59 3e 22 30 86 3c 26 d8 1d bc
       0.12953077 0.21211904 0.016380373 -0.009634053
000140 a5 bf 3a 3f 6c 2d 0b 3e 01 62 ee 3e fc e5 ae bc
       0.72948676 0.13591546 0.46559146 -0.0213499
000150 99 07 2a bd dd 9a 42 3e 0a 3e 4e 3e 1c c2 ea bd
       -0.041511152 0.19004388 0.20140854 -0.11462805
000160 b9 bc 31 3e 55 5d 7b 3d 86 ad 01 be db 59 61 3d
       0.17357148 0.061368305 -0.1266385 0.055017333
000170 45 d6 7e 3d ab 3e 06 be 5b b3 17 3e 41 df 76 3e
       0.062216062 -0.13109843 0.14814512 0.24108602
000180 6a cb 3a 3e bc 8d 80 3b 67 7b f2 3d ba fd e5 bd
       0.18241659 0.003923146 0.118399434 -0.11230035
000190 34 68 a3 bd 84 ee 9a bb 96 77 49 bb bc 0f 19 3b
       -0.079788595 -0.0047281403 -0.0030741445 0.0023355326
0001a0 f9 de 7a 3e de 5e ed be b9 a7 19 3e ca 03 5b 3c
       0.2449912 -0.4636144 0.15005387 0.013367603
0001b0 85 45 99 3c 76 d8 ca 3d 27 0f 87 3e 5d fb 3d be
       0.018709907 0.09904568 0.26378748 -0.18552919
0001c0 c8 56 3b bd fe 37 2b bd 06 93 0d 3d 38 47 9d bc
       -0.045737058 -0.041801445 0.03456404 -0.019198999
0001d0 5b 0e 40 3e cc f9 24 3f 68 f3 fd 3e 51 59 a0 3e
       0.18755476 0.6444366 0.49599767 0.31318143
0001e0 1c 0e 08 3e 91 60 87 bc 9e d7 7b 3f 85 ca 92 3e
       0.13286632 -0.016525539 0.9837588 0.28670135
0001f0 2b 8d 1c 3d cb e8 84 3e fd 49 6a 3e 5b 00 fa be
       0.038220566 0.25958857 0.22879787 -0.48828396
000200 4c 46 b4 3e ad e1 9d bd 1d a1 26 bd 88 b3 44 3e
       0.35209882 -0.0770906 -0.040680993 0.1920911
000210 08 9b 3e be a7 3b d9 bc 85 37 6b 3e 90 bf ce be
       -0.18613827 -0.026517702 0.22970398 -0.40380526
000220 61 b1 c2 3d 21 fe 98 3e ad 1e 1c be 41 c4 b1 3c
       0.095064886 0.29881385 -0.15246077 0.021700026
000230 47 25 e6 3c 10 c3 35 be cc 90 a7 bd a5 e4 53 3e
       0.028093947 -0.17750192 -0.08181915 0.2069269
000240 37 74 a9 be 60 38 89 3c ae 0f 84 3e 7c 76 ce 3b
       -0.33096477 0.016750515 0.25793213 0.0063007455
000250 4b cb 5c bd d1 ed 73 3e bc 8b 76 be 89 b7 95 bb
       -0.053904813 0.23821189 -0.24076742 -0.0045689982
000260 15 0b d9 bc ea 46 26 bd 5b 5b a7 bd 30 04 56 3e
       -0.026494542 -0.040594973 -0.081717215 0.20900035
000270 54 4f 56 be 8c 8f e6 b7 f5 0f 51 3e 82 f6 8d 3e
       -0.20928699 -2.748498e-05 0.20416243 0.27727133
000280 68 eb 5a 3e 7b 2d d5 3e b9 e3 24 bc 47 67 ca 3e
       0.21378863 0.4163626 -0.010064059 0.3953192
000290 d2 08 fe bc 3d 71 04 3e d3 ce 84 3e 42 1f 7a 3e
       -0.031010065 0.12933822 0.25939044 0.24425986
0002a0 0f 5d a0 3e c3 d9 a4 be 99 eb 84 3d ff db 18 3e
       0.31320998 -0.3219739 0.06490249 0.14927672
0002b0 be 3c 1b 3e ef e4 24 bb 26 73 08 3e 0f 5c 8e 3e
       0.1515989 -0.002516087 0.13325176 0.2780461
0002c0 d2 57 0e bd b1 06 31 3e 23 d0 9d 3d 1a 71 ba bd
       -0.03475172 0.17287709 0.077057146 -0.09103604
0002d0 83 9c d6 3d 10 fe 49 3e 05 c2 cf 3d e6 e5 38 bc
       0.10479071 0.19725823 0.10144428 -0.011285281
0002e0 1d d5 1d 3e 7b 0e c6 bc 10 0d 99 3c fa 72 35 3e
       0.15413328 -0.024176827 0.018682986 0.17719641
0002f0 c9 a2 21 bd 18 32 8f bd c9 c9 9d 3e 2d 2d 2f 3e
       -0.039461885 -0.069919765 0.30818012 0.17107077
000300 c8 90 95 3d 9f 08 6f 3e 1a 19 b9 bd a1 75 d6 bc
       0.073030055 0.23343132 -0.09037991 -0.026179137
000310 c1 a1 8a 3e 95 c5 6c bd 76 e3 cd 3e 51 14 90 3e
       0.27076533 -0.057805616 0.402126 0.281405
000320 fb d3 13 3d f3 73 8d 3e 77 72 0a be e2 5a 32 3d
       0.036090832 0.27627525 -0.13520227 0.043543704
000330 bd af 20 3e 0a e4 93 3d e1 5a 52 3e 4a 8a 0e be
       0.15692039 0.072212294 0.2054248 -0.1391994
000340 b8 1d 3b 3e 2c 25 8f be b8 89 3c 3e 37 96 a0 3c
       0.18273056 -0.27958047 0.1841191 0.019602878
000350 07 59 16 3e 59 33 7c bb c7 c2 19 3e b7 94 53 3e
       0.14682399 -0.0038482754 0.15015708 0.20662199
000360 c9 36 bc bd 11 c0 8e 3d c3 8c 66 3e 66 0f 4f bd
       -0.09190137 0.069702275 0.22514634 -0.050551794
000370 8f 75 72 3d cb 7e 61 3d 71 64 a0 bd 15 03 21 3e
       0.059194144 0.05505256 -0.07831658 0.15723832
000380 10 93 9b 3e 90 98 18 3d 14 ef 76 3d 80 4f e1 39
       0.30385637 0.03725487 0.060286596 0.00042974576
000390 da 8a 5d 3e 62 d6 17 3e 5b fa 23 3e cf 8f 1a bf
       0.21634999 0.14827874 0.16013472 -0.60375684
0003a0 62 84 d4 3d 28 8e 31 3e d8 73 23 bd 89 62 80 3d
       0.103768125 0.17339385 -0.0399054 0.06268794
0003b0 ef cc 60 3e 1b 28 2a 3e 28 93 49 3d ac 8c 85 3e
       0.21953176 0.16616862 0.049212605 0.26083887
0003c0 a9 31 5a 3c 6a be 0e 3b 94 bd a9 3e 63 e4 00 3f
       0.013317504 0.0021780976 0.3315245 0.5034849
0003d0 f7 35 bd 3e d6 e9 b6 3e 2c d7 a6 3d 60 d9 86 bd
       0.36955234 0.35725278 0.081465095 -0.0658443
0003e0 d6 ed 34 3f 97 58 23 3e d6 e1 47 bd f5 4b bc 3e
       0.7067541 0.15951763 -0.04879936 0.367767
0003f0 00 35 8d 3e 27 32 c9 bd c2 c5 7e 3e 18 a9 c6 bd
       0.27579498 -0.09824019 0.24880126 -0.09700221

fc1.bias f4 [32]
000000 87 cc 94 3e ab 77 32 bb 53 32 06 bd 86 ab d2 3d
       0.29062292 -0.0027231972 -0.032762837 0.10286622
000010 46 d0 8d 3e ba 57 0f 3e 70 67 d8 3d 1f 55 06 3d
       0.27697963 0.13998309 0.10566604 0.03279602
000020 c7 a8 6e 3e a5 56 bd bc db 3d 8d 3d 44 c3 c6 3d
       0.23306571 -0.023112604 0.068965636 0.09705213
000030 d2 04 90 3e b4 96 14 3e 92 e3 c3 bc 37 ae 36 3e
       0.28128678 0.14510614 -0.023912225 0.17839895
000040 23 07 85 3d 7c 5f 14 3e 67 9f 8b 3e 19 28 40 be
       0.06495502 0.1448955 0.27270052 -0.18765296
000050 7d 4e 2a 3e 3f d7 54 3e 69 d6 0f bc ca cf 81 3d
       0.16631503 0.20785235 -0.008779147 0.06338461
000060 04 d0 07 3d 56 20 2a be 51 47 54 bb fa b5 cb 3e
       0.033157364 -0.16613898 -0.003239114 0.39787275
000070 81 9f 14 3e 3f a6 c0 bd 4b 87 ab 3e 94 8f 68 3e
       0.14513971 -0.09406709 0.33501658 0.2271102

fc2.weight f4 [16, 32]
000000 5c ac dd 3e f9 e6 88 bd 14 f0 49 3e e3 c6 f8 be
       0.43295562 -0.066846795 0.19720489 -0.4858924
000010 a8 a1 3b bd 50 51 86 3e 3e 0b 3c be a2 7a e0 3e
       -0.045808464 0.26233912 -0.18363664 0.4384356
000020 a4 be 9b 3e aa a2 b2 3d b7 b0 cf 3e 19 6a a5 3e
       0.30418885 0.08722432 0.4056451 0.3230751
000030 30 bf 9d be bd a4 45 3d d2 c0 65 3e d7 76 b9 be
       -0.30809927 0.04825281 0.22436836 -0.3622348
000040 91 51 3c 3e 54 35 08 3e dc dd 85 bc bc 6a bc 3e
       0.1839049 0.13301593 -0.016341142 0.36800182
000050 2b 6e d3 3e 08 a4 be 3d 71 fe 43 3e 73 0c 8e be
       0.4129499 0.0930863 0.1914003 -0.27743873
000060 46 ff d8 3d 90 cf 0c bf c6 d7 7a ba d2 44 b6 3e
       0.105955645 -0.55004215 -0.0009568896 0.3559938
000070 36 ee a1 3d d6 9c 0f 3e 98 b8 2f bf fe a6 54 3e
       0.07906763 0.14024672 -0.6864104 0.20766827
000080 64 46 ab 3e 02 e1 c9 3d 80 51 31 3e 26 ba ac 3e
       0.3345214 0.0985737 0.17316246 0.3373577
000090 b0 0a 5b 3e 0e 94 9e 3d 32 07 99 3e 15 c5 5a b8
       0.21390796 0.07743083 0.29888302 -5.2158797e-05
0000a0 ac c8 74 3d cd 10 0f bd 32 de e8 bc f6 55 d1 bd
       0.059761688 -0.03492813 -0.028426263 -0.10221474
0000b0 6a f4 db 3e 62 59 0a be 94 bc 95 bd b8 d8 d0 3e
       0.4295991 -0.1351066 -0.07311359 0.40790343
0000c0 9a bf af bd b7 30 99 3d 40 07 a1 3e 99 e6 8a be
       -0.08581467 0.07479995 0.31450844 -0.27129057
0000d0 80 8e 7a 3e 08 a4 01 3e 6a f7 cd 3c 9b c4 f0 3d
       0.24468422 0.12660229 0.02514239 0.117562495
0000e0 67 f9 84 bd fd 81 10 be fa 23 c1 bd 07 94 42 3d
       -0.06492882 -0.14112087 -0.0943069 0.04750445
0000f0 8a 19 a5 bd 68 e4 6d be 3a 24 dd 3d 24 47 b1 3c
       -0.08061512 -0.23231661 0.10797925 0.021640368
000100 02 cb 06 bd ef c1 2b be 2f 9a 15 3e da 78 5f 3d
       -0.032908447 -0.16773199 0.14609598 0.054558612
000110 89 a5 1c 3e 6c b7 33 bd 8c 3d d2 3d c9 a4 0f be
       0.15297522 -0.043876097 0.102656454 -0.14027704
000120 76 44 f7 bd 91 b4 ac 3d 04 c9 2e be 02 df dc bd
       -0.12073605 0.08432878 -0.17068869 -0.10784723
000130 26 8c bf 3d 54 31 62 3c 9e 9a 95 3d 17 82 0e bd
       0.09352903 0.013805706 0.073048815 -0.034792032
000140 44 b0 25 bc 17 23 f6 3d 2d 14 2a 3d f6 a8 73 3d
       -0.010112826 0.120184116 0.041523147 0.059487306
000150 7c 70 ff 3d 50 df ec bd 4e 94 5a bd ed 05 b3 bc
       0.124726266 -0.11566031 -0.05336409 -0.021853412
000160 7a 22 2f be 62 8c a2 bd ac 3e ba bd 1d 74 a9 bd
       -0.17102996 -0.07936932 -0.09093985 -0.082741
000170 78 9d da 3d c4 b0 93 3d 5e 73 9b bd b1 57 89 bd
       0.10674566 0.0721145 -0.07590364 -0.06706179
000180 ab 7c 08 be 29 42 0f bf 44 33 7c 3d 6d 61 30 3e
       -0.13328807 -0.5596033 0.06157233 0.17224665
000190 08 c6 41 be 84 38 ac 3e e1 c8 03 3d 76 ef 90 be
       -0.18923199 0.33636868 0.032173995 -0.28307694
0001a0 a7 80 d1 bd 10 09 b2 be af 2f cd be 73 72 83 be
       -0.102296166 -0.3477254 -0.40075442 -0.25673255
0001b0 86 7c 1b bd d9 d6 2c 3e e1 ac 05 bf 40 dd 10 bf
       -0.03796055 0.16878833 -0.5221692 -0.565876
0001c0 f8 5e c5 3e 50 ce a4 be ce 5d 64 3e 78 c8 c2 be
       0.38549018 -0.32188654 0.22301409 -0.3804357
0001d0 55 a4 a9 be 0e 4b bd 3e 8a 01 06 bc 3c 15 8d 3e
       -0.33133188 0.36971325 -0.008179078 0.27555263
0001e0 3a 40 e0 3d 06 47 14 3f 87 35 c2 bd 3c 19 89 3e
       0.1094975 0.57920873 -0.09482866 0.26777065
0001f0 53 c2 e5 3d db f1 08 3d f2 ad 52 3f 9c 26 c0 3e
       0.11218705 0.033433776 0.8229667 0.37529457
000200 b9 cc 12 bd 71 b3 78 3e 79 fb 91 3d f5 12 88 be
       -0.03583977 0.24287201 0.07128043 -0.26576963
000210 06 55 be be 4d 7d 91 bc a0 82 af be a0 fd 5d 3d
       -0.37174243 -0.017759943 -0.34279346 0.054196954
000220 a0 fa 38 bd cc 74 37 3e cc 8a 5e 3e 50 97 83 3e
       -0.04516089 0.17915648 0.21732634 0.2570138
000230 4b 5a 51 be 23 3c 0d 3d cf bb 06 3e a3 23 cf be
       -0.204446 0.03448118 0.13157581 -0.40456876
000240 45 98 78 bd 2b 7d 8a 3e 53 b9 df be 2c e1 69 3e
       -0.06069209 0.2704862 -0.4369608 0.22839803
000250 0b 0e 30 3e a6 17 09 3e 4a a3 3a bd c3 89 be be
       0.17192857 0.13387927 -0.04556588 -0.3721448
000260 ba 90 d8 3d 0e 82 a7 bd a5 cf 00 be 00 a9 1a bd
       0.105744794 -0.08179103 -0.1257921 -0.037758827
000270 52 45 16 be c8 f9 87 3e f8 fb 47 bf c8 8d 21 be
       -0.14674881 0.26557755 -0.7811885 -0.15776742
000280 ec 1a 9c 3d 55 b4 10 be 0a 5c 65 bc 87 c6 7a 3d
       0.076223224 -0.14131291 -0.013998995 0.061224487
000290 85 9c ac 3e 1a 70 32 3e d6 16 04 3e b1 00 00 3e
       0.33713165 0.17425576 0.12899336 0.12500264
0002a0 40 93 5a 3e 69 fa 83 3e dc 31 67 3c 67 d6 05 ba
       0.21345234 0.25776985 0.0141110085 -0.0005105496
0002b0 fe 09 52 3e 14 9c c9 3d eb 4b 85 3d b4 fd 33 3e
       0.20511624 0.09844223 0.06508621 0.17577249
0002c0 c3 64 83 bd e0 a8 56 3c 80 2b 7f 3e cb e2 0e be
       -0.06415703 0.013101786 0.24918938 -0.13953702
0002d0 d4 4c 01 3d 61 00 23 be d9 7e ef 3d 1d 16 38 3e
       0.03156741 -0.15918113 0.11694116 0.17977186
0002e0 7a 09 74 3e 25 53 91 be a0 ac 0d 3e 79 a4 77 3e
       0.2383174 -0.28383747 0.13835382 0.24183835
0002f0 82 e6 e9 3d 67 5e 5a be 51 1d 29 3e 63 25 d9 bd
       0.11420919 -0.21325074 0.1651509 -0.10602834
000300 b7 ef 5b 3d 8c c7 ad 3d 09 0b 81 3a ae 9a 5c be
       0.053695407 0.08485326 0.0009845208 -0.2154338
000310 69 ee 22 be 4a bd 8e bd 5f 2e 55 be 0b 2a 44 bd
       -0.15911259 -0.06969698 -0.2081847 -0.047891658
000320 63 18 02 be 69 45 76 3e 8c 29 42 3e d5 f8 77 3e
       -0.12704615 0.24049915 0.18961161 0.24216016
000330 43 9c 46 be c4 49 0d 3e 9e 29 c5 3d c6 de 36 be
       -0.19395547 0.1379767 0.096270785 -0.17858419
000340 39 85 62 3e 39 23 c2 3e b2 a9 19 bf 9f d3 9c 3e
       0.22121133 0.37917498 -0.6002456 0.30630204
000350 3d b9 11 bd 58 94 52 3e 8f 3e 53 3c 5c 7f 1d bf
       -0.035577048 0.20564401 0.012893333 -0.6152246
000360 04 4e bb 3e cc 17 34 be 08 0b 82 3d bb fe b3 bd
       0.3658296 -0.17587203 0.0634976 -0.0878882
000370 99 11 05 be ac 12 59 3e 5d f1 4f bf cf 0c da bd
       -0.12994994 0.21198529 -0.81227666 -0.10646974
000380 32 7e 5d 3e e1 bb d1 bb cb 89 d6 3e b4 b2 76 be
       0.21630171 -0.0064005707 0.41902003 -0.24091607
000390 57 e8 7a bd 60 37 e1 3d 47 31 d3 be 2b 39 f9 3c
       -0.061256733 0.1099689 -0.41248533 0.030422768
0003a0 97 1f c8 3d 80 cf 89 3e aa cc c8 bc e1 e6 23 3d
       0.0977165 0.26916122 -0.024511654 0.040015105
0003b0 3a 85 f7 be 34 eb 63 3d b8 1c 99 3e bd 8d 03 bf
       -0.4834383 0.05564423 0.29904723 -0.5138815
0003c0 af f7 74 3e 3b 71 cd 3e 50 33 b3 bd f5 00 af 3e
       0.23922609 0.4012545 -0.087500215 0.34180418
0003d0 9e cf 58 3e 31 36 78 3e 5d dd 20 3e 6a ae 6e be
       0.2117295 0.24239422 0.15709443 -0.23308721
0003e0 c3 01 13 3e fb a7 9b be b7 7f f1 bc 76 46 99 3e
       0.14356141 -0.30401596 -0.029479844 0.2993657
0003f0 70 68 16 3c 61 d0 d1 3e 9a b8 fc be 68 60 43 3e
       0.009180173 0.40979293 -0.4935959 0.19079745

fc2.bias f4 [16]
000000 55 17 30 bd 38 6c 11 3e 1e 80 63 bd bd d2 af 3e
       -0.042991 0.14201438 -0.055542104 0.34340468
000010 24 5b 09 bd b3 14 1a 3e 53 dd c3 bd a6 3e 34 3e
       -0.033534184 0.15046959 -0.095636986 0.17602023
000020 82 c2 c9 3d 49 b8 95 3c ff eb f4 bd b4 70 ae 3d
       0.098515525 0.01827635 -0.11959075 0.0851759
000030 7c 53 4e 3d a7 39 02 bd 24 a4 9d 3c 4b 43 3a 3d
       0.050372586 -0.031793263 0.019243307 0.04547433

fc3.weight f4 [1, 16]
000000 8e c0 0b bf 53 17 14 3f 34 1e 63 be 2a 96 8e bf
       -0.5459069 0.5784809 -0.2217949 -1.1139576
000010 13 e4 18 bf 38 e6 19 3f 47 26 33 bf 77 38 fe be
       -0.59723014 0.6011691 -0.6998028 -0.49652454
000020 ab f6 76 3e fb a0 c4 3e 20 eb 21 3d d7 69 63 bf
       0.24117534 0.38404068 0.039530873 -0.88833374
000030 61 e2 0b bf a4 be 02 bf 9e ef 63 3c 61 98 1f bf
       -0.546423 -0.51072145 0.01391211 -0.62341887
