DRL_Nets6/critic_target_4_44.pth (torch, 10422 bytes, 5 tensors)

fc1.weight f4 [32, 42]
000000 0c df 24 3e de eb e4 3d 13 be a8 bd ad f8 08 bd
       0.1610071 0.111778006 -0.08239379 -0.03344028
000010 1f 0c 0e bd 17 23 14 3e 28 92 b6 3c 24 40 8c bd
       -0.03467953 0.1446651 0.02228649 -0.06848171
000020 57 f3 ca 3c 41 24 39 3e bd 01 8c 3d 6e 70 fa bd
       0.024774237 0.18080236 0.06836269 -0.122284755
000030 da 4d 2a 3e 6a 1d 1d 3e 8a 3b 90 3d 89 08 f9 bd
       0.1663126 0.15343252 0.07042606 -0.12159831
000040 7e 16 ae bd 18 ec 96 3c 21 b6 0d 3e cc 92 31 3e
       -0.08500384 0.018423125 0.13839008 0.17341155
000050 01 9c 73 bd f6 94 0f 3e 34 0f 0d 3e 51 7d cc 3d
       -0.05947495 0.14021668 0.13775331 0.0998484
000060 c5 98 92 3b 42 ee f2 bd 84 21 16 3e b8 50 09 3e
       0.004473778 -0.1186185 0.14661223 0.13409698
000070 1c 15 d5 3d 0d 84 83 3d 29 76 13 3e 0f 97 fa 3d
       0.10404417 0.06421671 0.14400543 0.122358434
000080 b7 14 1f 3e 63 72 f4 3c be cf d0 3d 47 0b ae 3d
       0.15535246 0.0298397 0.10195874 0.08498245
000090 80 4b 23 bd cf 0d 27 3e 64 24 cc 3d 21 fd 57 3d
       -0.039866924 0.16313861 0.099678785 0.052731637
0000a0 d7 98 b8 3d ea a9 b8 3d 53 1b d5 3d f3 c6 29 bd
       0.09013527 0.090167835 0.10405602 -0.0414495
0000b0 3c 14 df bd 2f 8e 55 3c 8f 2d cd bd 1b 42 52 bd
       -0.10892531 0.0130343875 -0.10018455 -0.051332574
0000c0 94 5b 48 bd 6e 25 9e 3d 66 79 ad bd 3d 77 9e bd
       -0.04891546 0.07721983 -0.084704205 -0.07737587
0000d0 1d ea b2 3c 80 00 df 3d 19 f4 ef 3d b1 a4 b5 3d
       0.02184015 0.10888767 0.1171648 0.08869303
0000e0 c3 8d d0 bd ec 5b 8b bd 54 40 0e 3e d0 3e 1f be
       -0.10183289 -0.06804642 0.13891727 -0.15551305
0000f0 82 d9 da 3d 27 37 10 bb 1a 17 ee 3d 20 4a ce 3d
       0.106860176 -0.002200553 0.116255 0.10072732
000100 b1 9e 8c 3d 29 11 fd 3d ad 6a 16 bd 9b d5 aa 3c
       0.068662055 0.12356789 -0.036722828 0.020853808
000110 55 98 5a bd 9d 9a 45 bd 67 5e 02 be 8b 8f cf 3d
       -0.05336793 -0.048243154 -0.12731324 0.101348005
000120 e1 d9 ba bd 78 3e f7 bd e5 f2 05 bd 5e 07 e6 3d
       -0.09123588 -0.12072462 -0.032702345 0.11231874
000130 6c 99 d9 3d 77 65 95 bd 4e 5b 1d bd 06 9b 24 be
       0.10624966 -0.072947435 -0.038417153 -0.16074762
000140 50 bf 93 3d 90 ff bd bd e0 56 c3 3d cc 98 9b bd
       0.07214224 -0.0927726 0.095380545 -0.07597503
000150 5a c2 d4 bc 9d fe 04 bc 5b 8d 20 be d8 03 dc 3d
       -0.02597158 -0.008117345 -0.15678923 0.10742921
000160 bc 36 b6 bd fc c0 ee bd 9f aa 6f bb d4 f5 b7 bd
       -0.088971585 -0.116579026 -0.0036570204 -0.08982435
000170 6c 80 0c 3e e4 c3 d7 bd 35 66 ae 3d 72 25 17 3d
       0.13720864 -0.1053541 0.08515588 0.036900945
000180 2a 9e a8 3d 25 8b 36 bd 44 40 bc bd 2f 85 04 3e
       0.082332924 -0.044566292 -0.09191945 0.1294143
000190 43 e6 b6 3d 71 b6 b8 3d 96 54 c4 3d aa 30 b3 3b
       0.08930638 0.09019173 0.09586446 0.0054684477
0001a0 a1 11 ba 3d 90 c9 cb bd cf 57 f8 bd d6 ce d8 3d
       0.09085394 -0.09950554 -0.12126123 0.10586326
0001b0 92 fb d8 bd 7d 68 6f 3d 97 64 ca 3d dd ba e6 bb
       -0.10594858 0.058449257 0.09882467 -0.007041319
0001c0 e2 96 f1 bd 0b b9 ef 3d a7 2d 0d be af f9 8e bd
       -0.11796357 0.11705216 -0.13786946 -0.06981217
0001d0 02 d1 09 3e 79 1a df 3d cf 42 fa bd 40 20 12 3d
       0.13458636 0.10893721 -0.12219774 0.035675287
0001e0 00 ae 99 bd f5 56 ce bd 28 3c fb bd 8e ad 06 be
       -0.07503891 -0.100751795 -0.12267333 -0.13152143
0001f0 76 9e 99 3d fa a5 d5 3c 89 7b 30 3e fe 3b 1a 3e
       0.07500927 0.02608012 0.17234625 0.15061948
000200 8f 13 b1 bd 33 c9 e9 bd d8 fb 4d bd f1 1c cd 3d
       -0.08646309 -0.11415329 -0.050289005 0.10015286
000210 7f 51 24 3e d8 93 42 3e de 98 2b bd d9 c2 f8 bd
       0.16046713 0.1900171 -0.041893832 -0.12146539
000220 ca 2f be 3d c5 64 2f 3e b4 7c dc 3d 86 5c 12 3d
       0.09286459 0.17128284 0.10765973 0.03573277
000230 79 15 da bd 5d ff fb bd b7 2c ca bc 06 fc ed 3d
       -0.10648627 -0.12304566 -0.024679525 0.11620335
000240 6b 17 85 3d a7 da 89 bd c0 ca 19 3e 12 d6 c5 bd
       0.06498607 -0.06731158 0.15018749 -0.09659971
000250 e6 b5 35 bd 28 4e 8b bd d0 d2 eb 3d 2f 5e b5 bd
       -0.044362925 -0.068020165 0.11514819 -0.08855855
000260 0e 27 00 be 3c 17 12 3e 18 1d a7 bc 10 24 ea 3d
       -0.12514898 0.14266676 -0.020399615 0.114326596
000270 44 f7 45 3d 93 d5 8e 3d de cb 1a bd 9a a7 bc bb
       0.048331514 0.0697433 -0.03779208 -0.0057572844
000280 4f 7a 9d bc 86 7a c8 bd c4 ea 3d 3e ec d8 e0 bd
       -0.01922336 -0.097889945 0.18546587 -0.109788746
000290 88 60 0d 3d 4e 38 31 3e 99 77 23 3e 59 a6 f0 bd
       0.034515887 0.17306635 0.15963592 -0.11750478
0002a0 3b 57 af bc 42 b9 4f bd e3 67 2e bd ca 4c d2 bd
       -0.0214039 -0.050713785 -0.042579543 -0.102685526
0002b0 6d 43 06 3e e4 92 b6 bd 11 60 02 be 89 70 f0 bb
       0.13111658 -0.08914736 -0.12731959 -0.007337634
0002c0 4c bf 3b 3d b8 7a ce 3d b0 e7 0e 3e c3 bf ea 3c
       0.04583673 0.100820005 0.1395557 0.028655892
0002d0 f2 3f ce bc 85 33 15 be 05 ea e0 bd f3 9e c4 3c
       -0.025176976 -0.14570434 -0.10982136 0.024001574
0002e0 85 17 1a 3e 5f dd 0a bd 5f c7 82 bd 98 38 1e 3d
       0.15048034 -0.033902522 -0.06385683 0.03862819
0002f0 46 48 19 3d 62 84 b2 3d 67 11 d1 3d 31 59 49 bd
       0.03742244 0.08716656 0.10208397 -0.049157325
000300 2b cb b1 bc 82 e0 c6 bc 96 74 b1 bd 88 3f 4f bd
       -0.021703323 -0.024276976 -0.08664815 -0.050597697
000310 87 32 0d 3d 9b b9 80 bd da 65 16 bc 9c d6 2f 3c
       0.034472015 -0.062854014 -0.009179557 0.010732319
000320 e7 4d 58 3d 2c 3a 3b 3c 27 52 91 bd 0a ff 9d bc
       0.05280867 0.0114274435 -0.070957474 -0.019286651
000330 6f 93 89 ba 2c 8a f5 3c fb f2 9f 3d 3c 74 d9 bd
       -0.0010496209 0.029973112 0.07810017 -0.10617873
000340 2f f3 1b be 0e 57 d5 bb 14 b2 09 be 5e e3 81 bd
       -0.15229486 -0.006510622 -0.13446838 -0.06342195
000350 48 1c 85 3d 2b 78 0e be 00 5b e2 3d b0 8b 44 bc
       0.06499535 -0.13913028 0.11052513 -0.011996195
000360 33 71 32 bd 70 ad 14 be bf b9 be ba 2b a3 10 be
       -0.043564986 -0.14519286 -0.0014551206 -0.14124744
000370 4d 63 18 3e 85 fa 0d 3b 9d f9 b2 3a db 9e 3d 3d
       0.1488163 0.0021664214 0.0013654713 0.046294075
000380 51 d5 0c be b1 5c d6 bd ea 01 d5 bd 5b 90 18 3c
       -0.13753249 -0.10466898 -0.10400756 0.009311761
000390 d6 84 cf 3c eb 6b ce bd 61 6d 96 bd a2 75 ff bd
       0.025331896 -0.100791775 -0.07345081 -0.124736086
0003a0 a2 7c a7 bd 36 10 5d bd 22 df 96 3d f5 4f 91 bd
       -0.08178069 -0.053970538 0.07366778 -0.07095329
0003b0 0b e1 30 3d 74 08 02 3e 57 14 57 3d ea 9c 8a 3d
       0.043183368 0.12698537 0.052509632 0.0676821
0003c0 e4 82 97 3c 4d 59 18 3e 4d 0e 0d 3e 79 35 d7 3c
       0.01849503 0.14877816 0.13774987 0.026270615
0003d0 a3 ec 08 3e 5a cc 45 3d 56 f6 69 bb de 90 83 3d
       0.1337152 0.048290588 -0.0035699806 0.064241156
0003e0 fa 14 11 be 4d 39 15 bd e8 f0 dc bd fb f2 bd bd
       -0.14168158 -0.0364316 -0.10788137 -0.092748605
0003f0 40 e1 f9 3d 2f c9 d9 3d af c1 1a 3e eb ab 01 be
       0.12201166 0.10634076 0.15112947 -0.12663238

fc1.bias f4 [32]
000000 c7 5f e7 3c 24 9d 51 3d 45 f6 dd bd 81 4a cb bd
       0.028243912 0.05117525 -0.10837988 -0.0992632
000010 59 96 14 be c2 52 46 3d 38 88 26 3e dc a7 00 3d
       -0.14510478 0.048418768 0.16262901 0.031410083
000020 68 ef ef 3c 78 4f d0 bc b1 7b 04 be bc d2 31 3e
       0.029288962 -0.025428519 -0.1293781 0.17365545
000030 ff 13 df bd 77 40 a9 3d d4 c2 07 bd e3 1e d3 3d
       -0.10892486 0.08264249 -0.033144787 0.103086255
000040 4a 4c d2 3b 37 da 82 3d fa 12 3d 3e 2c 26 af bd
       0.006417786 0.063892774 0.1846427 -0.085522026
000050 bc a4 7f bd 25 dc 87 bd 44 c4 e9 3d 16 6b 96 3d
       -0.062412962 -0.06633786 0.11414388 0.07344644
000060 f6 aa 06 3e e3 0f 21 3e f6 c8 e8 3d 9f 85 ef 3c
       0.13151154 0.15728717 0.11366455 0.02923852
000070 72 cf e5 bd c3 60 09 bd 6e 9a ee 3d df 21 15 3c
       -0.11221208 -0.033539545 0.11650549 0.009102314

fc2.weight f4 [16, 32]
000000 d8 04 86 3d 34 04 9b 3d 7b 1c 8c 3c 49 0f 94 3c
       0.065438926 0.07569161 0.017103424 0.018073695
000010 c7 ce 0e be be 26 a1 bd ce 64 cd bc 67 c2 ef bd
       -0.13946067 -0.078687176 -0.025072481 -0.11707001
000020 d9 99 e5 3d 45 9d 38 3c 81 67 46 bc f3 d5 6e bd
       0.11210985 0.011267965 -0.012109638 -0.058309507
000030 bc 3d c1 3d 9b 5b 4d 3e 3b 89 40 bc c6 d8 b6 bd
       0.09435603 0.20054476 -0.011751468 -0.08928065
000040 b0 a1 02 bc 1a 22 30 3e 42 c3 e7 bd 72 3b 76 3c
       -0.00797312 0.17200509 -0.11316539 0.015028821
000050 2a c4 34 bc 40 56 1b 3e 79 94 06 3d 8e bc 50 3e
       -0.011033097 0.1516962 0.03285644 0.20384428
000060 a2 7a 50 3e 9c 4e 11 3e 36 15 0a be 4e 30 f5 bd
       0.2035928 0.14190143 -0.13484654 -0.11972104
000070 40 6a fa bd ca 30 ff 3d 90 82 18 3e ca bc d1 3d
       -0.12227297 0.12460478 0.14893556 0.10241087
000080 44 31 b1 bd f4 37 0d 3e 85 c7 da 3d 3d 88 9c bd
       -0.08651975 0.13790876 0.106825866 -0.07643173
000090 83 29 ae bd ec 85 2e 3e 76 40 b4 bd 6b d1 30 bd
       -0.085040115 0.17043275 -0.088013574 -0.043168467
0000a0 be 86 1c be 47 63 15 be 0c ca 86 bd 7a 7e 5c 3c
       -0.15285775 -0.14588653 -0.06581506 0.013457889
0000b0 dc 5b b7 bd 53 bf 01 3d 8c 04 9d 3d 10 a9 5b bd
       -0.08953068 0.0316766 0.07666883 -0.053628027
0000c0 0c 2f 91 bd 08 b2 e8 bd 9c 33 13 be 37 a8 f6 bd
       -0.070890516 -0.11362082 -0.14375156 -0.12043803
0000d0 d9 bf 8d 3d 42 0a 86 3c c9 9c 28 be 7c e8 a0 3d
       0.06921358 0.016362313 -0.16466059 0.07856843
0000e0 60 43 02 be 3f 80 32 bc f1 a3 00 3e 49 ee 04 be
       -0.12721014 -0.010894834 0.12562539 -0.12981524
0000f0 2b b3 8a bd 5b 92 fb 3c 27 88 0e be fb ab 2d bd
       -0.06772455 0.030709436 -0.13919125 -0.04240034
000100 c5 53 01 be 4f 95 08 bd f1 d7 a5 bd ff 56 7a bd
       -0.12629612 -0.033345517 -0.08097828 -0.061118122
000110 d7 70 04 3e 97 4e 02 be 15 b0 17 3e 4d 46 a4 bd
       0.1293367 -0.12725292 0.14813264 -0.08021221
000120 1e c0 6c bd ef 92 4d bd d6 20 12 bc 77 c6 02 3e
       -0.057800405 -0.050188955 -0.0089189615 0.12771021
000130 fe 00 f5 3c 94 c3 41 3e b4 bc 0f be 47 79 ea bd
       0.0299077 0.18922263 -0.14036828 -0.11448913
000140 d2 4b c8 3d c9 8c e6 ba a5 ec ed bc a6 aa 01 3e
       0.097800866 -0.0017589565 -0.029043505 0.12662753
000150 f1 58 d6 bd b6 bf a6 bd b7 aa 0f 3e f1 68 2c 3e
       -0.10466183 -0.08142035 0.14029966 0.16836907
000160 ed 59 56 3e d2 54 27 bd 88 83 a8 3d 40 85 d3 3d
       0.20932741 -0.040852375 0.082282126 0.1032815
000170 55 c1 1a 3e 9c f9 52 bc 62 ca 2a 3e 6c b8 c8 bd
       0.15112813 -0.012876894 0.16678765 -0.09800801
000180 02 b7 61 bd c2 79 bc bd a1 d7 d9 bc b4 a7 2b 3c
       -0.05510617 -0.09202911 -0.026592078 0.010476995
000190 9f 8b 15 3e b4 37 97 bd 94 e1 47 3d 48 65 c9 bd
       0.14604042 -0.073836714 0.048799112 -0.09833771
0001a0 a9 61 a9 bc 3e ba 9a 3d 8d 75 95 3d 5c b7 02 3d
       -0.02067645 0.07555054 0.07297812 0.031913146
0001b0 6f 32 4b 3e 17 3c a9 bc ab 55 c6 3c 30 7d 04 3e
       0.19843458 -0.020658536 0.024210772 0.1293838
0001c0 39 79 e4 bd 1d 7d 15 be a2 b3 53 3e e7 6a 38 3e
       -0.11155934 -0.14598508 0.20673993 0.1800953
0001d0 8d 64 f1 3d 46 0f 91 bd 37 49 17 3e 9e 6b 32 bd
       0.11786757 -0.07082991 0.14774023 -0.043559663
0001e0 d4 7b 09 3e 30 11 91 bd b4 b8 4b bd cc e6 33 3d
       0.13426143 -0.070833564 -0.049736694 0.043921277
0001f0 a1 af a2 3d 07 4f 3e 3e 30 1c 1b 3e 21 9b 01 bb
       0.07943655 0.18584834 0.15147471 -0.0019776302
000200 7e a5 9a 3d 72 33 cb 3c fe 41 09 3e 60 98 24 3e
       0.075510964 0.024804804 0.1340408 0.16073751
000210 08 6c f0 bc 89 1f 25 3d 41 da 29 3e fe 31 97 bd
       -0.029348388 0.040313277 0.16587164 -0.07382582
000220 9c c4 4b 3e 36 2f 52 3e 5e ed a5 bd f0 d7 a5 3c
       0.1989922 0.20525822 -0.08101915 0.020244569
000230 34 8c ca bd 35 5b 24 3d c6 3d 6c bd 33 67 43 bb
       -0.09890023 0.040126044 -0.0576761 -0.002981615
000240 91 b1 e0 bd 7f 1e 24 3e 53 c3 fc bd fc b5 ce 3d
       -0.10971368 0.16027258 -0.12341943 0.100933045
000250 18 c3 9f 3c 4f 3f d3 bd e5 93 46 3e 2c 27 0a 3d
       0.019502208 -0.103148095 0.19392355 0.033728763
000260 68 6c 44 3e 64 18 15 3c 0c b6 07 be 05 80 e2 3d
       0.19181979 0.009100053 -0.13253039 0.11059574
000270 8b fa 01 3e 5d 93 c8 bc d6 b6 17 3e 26 d9 f6 3d
       0.12693231 -0.02448433 0.1481584 0.120531365
000280 37 d3 21 bc 19 8d b9 3d c5 b4 7f 3d 29 f4 00 3e
       -0.009877018 0.09060115 0.062428255 0.1259314
000290 b6 23 99 bd 19 7f 4b bd 9a 75 0b bd 06 c5 52 3c
       -0.074775144 -0.049681757 -0.0340477 0.012864357
0002a0 65 f9 99 3d cd 58 16 3e 73 4d 1c be 7b 74 13 3e
       0.07518271 0.14682312 -0.1526392 0.14399903
0002b0 a9 c9 02 be 81 9d 56 3e 7a a7 f3 3c 22 90 d8 bb
       -0.1277224 0.2095852 0.029742945 -0.006608979
0002c0 24 59 94 bd bd 70 11 3d b6 f8 60 3d cd ed 5c 3d
       -0.07243565 0.035507906 0.05492469 0.053937722
0002d0 79 d7 41 bd e9 5e 1b 3d 42 e3 b8 bd cc 74 74 bd
       -0.04732463 0.03793231 -0.09027721 -0.0596817
0002e0 70 d8 24 3e a4 2e 70 bd fc c3 2f be 5d 99 39 3d
       0.1609819 -0.05863823 -0.17164606 0.045312274
0002f0 9f 9e 7f 3c 3b ba 74 3d 17 8b 90 3d 2a 0b 38 3e
       0.015601783 0.059747916 0.07057779 0.17973009
000300 9f f7 ed bc aa e3 eb 3c 54 da ba 3d 03 85 8f bd
       -0.029048739 0.028795082 0.09123674 -0.07007792
000310 42 c3 a5 bd 06 db 18 3c 9d ce 06 be 4e 86 8a 3d
       -0.08093883 0.009329563 -0.13164754 0.06763898
000320 ea 5c e7 3d 98 1d ea bd bf 62 35 3c 94 9a 10 bd
       0.11297019 -0.11431426 0.011070906 -0.035303667
000330 24 6f 7f 3d 35 26 30 be 3c 76 9d bd 7f 2f 9f bd
       0.06236185 -0.17202075 -0.07688567 -0.07772731
000340 68 38 5d bc 67 a2 38 bd 74 ca af 3d 0c 07 8d bd
       -0.013502218 -0.045076754 0.08583537 -0.0688611
000350 f5 d8 1f 3e 13 07 11 bc 21 58 59 bd 9a 63 21 be
       0.15610106 -0.008851784 -0.053062562 -0.15760651
000360 2d 4d 33 bd 85 7c 29 be 29 f5 ff bc 87 24 0c 3e
       -0.043774772 -0.16551407 -0.031244831 0.13685809
000370 e3 36 3f bd c9 f4 f1 3d 18 a4 c1 3d b0 e5 17 3e
       -0.046683203 0.11814267 0.094551265 0.14833713
000380 5a 47 7f 3d bb 85 03 be cc 2c 3a 3e b0 e0 85 3d
       0.062323906 -0.12843983 0.18181151 0.06536996
000390 60 89 7d bd 3e a3 33 3e 2e 0b a9 3d b9 3c e5 bd
       -0.06189859 0.1754274 0.082540855 -0.111932226
0003a0 92 e9 be bd 6a 0c 41 3e be 13 d0 bd 62 61 40 3d
       -0.09321894 0.18852392 -0.101600155 0.04696787
0003b0 4f 84 f4 bc 7e 9f 5d 3e b6 e4 84 bd e4 20 d1 bd
       -0.029848246 0.21642873 -0.06488936 -0.102113515
0003c0 46 82 52 3d a4 6c a0 bc c9 08 1b ba 2d 82 c7 3d
       0.05139377 -0.019583054 -0.000591409 0.09741626
0003d0 b1 f0 6b bd af d1 b5 3c f6 b3 95 bd 21 5f bb 3d
       -0.057602588 0.022194711 -0.073097154 0.09149004
0003e0 12 a3 55 3e 4d 95 2f 3e 1d 6b 16 be aa 6e 06 3d
       0.20862988 0.17146797 -0.14689298 0.03282038
0003f0 65 f2 74 3d ef 1f c3 3d 38 02 23 3e d2 6a 05 3e
       0.059801478 0.09527575 0.15918815 0.1302903

fc2.bias f4 [16]
000000 bd 57 98 3c e8 89 32 be c6 24 3a bb 83 82 19 3e
       0.018596524 -0.1743542 -0.0028403266 0.14991193
000010 5a 70 c1 3d ef 8f 34 bd 7a 4d f4 bc c5 09 4f bc
       0.094452575 -0.04408258 -0.0298221 -0.012636607
000020 9e dc f1 3b bd f1 18 3c aa a0 3f bb 22 ae d2 bd
       0.007381036 0.009334979 -0.002924005 -0.102871194
000030 df be 14 bc f4 cf 87 3c 38 5d 0d bd be eb 1c 3e
       -0.00907871 0.016578652 -0.03451273 0.15324304

fc3.weight f4 [1, 16]
000000 eb 0c 61 be 30 61 4c 3d 96 e3 0d be c0 f3 5a be
       -0.21977584 0.049897373 -0.13856348 -0.21382046
000010 f4 f1 31 bd 4f 0e 21 be cf 8e 3f 3e c6 b0 25 be
       -0.043443635 -0.15728115 0.18706821 -0.16180715
000020 e3 bf 7a be 60 96 94 bc cd 96 57 3e 4d bc 3a be
       -0.24487261 -0.01813811 0.2105362 -0.18235894
000030 b8 23 f2 bd 3c 31 a3 bd 2e ba 82 be 52 73 88 bd
       -0.11823219 -0.07968375 -0.2553267 -0.066626206
