DRL_Nets6/critic_target_2_400.pth (torch, 10432 bytes, 5 tensors)

fc1.weight f4 [32, 42]
00000000: 6288 7cbe 029a 103f 4a98 1e3e 193a a03c
00000010: 19a7 33bd 821f 5f3c ab62 053e 1501 dc3d
00000020: 159f 023e 39f8 b73d e6e9 16bd 66f8 5cbd
00000030: 9e0a cb3d c4dc 7cbb 4acf 65bd ff01 1f3e
00000040: 6efa c03c e1a6 22bd 2403 993d 2712 443e
00000050: 9f7d 083e 7e64 1b3e 6671 873e 4a74 183d
00000060: 448b bd3d 45cf d33d 3279 983d 44f6 833c
00000070: 551a 9e3d 3a4a 3b3e fc23 5f3e fa77 bc3d
00000080: aa57 883d 355e 093e 68d5 893e aa0d 943d
00000090: a64e 6b3d cf51 a43e f8e5 0f3e 7ce7 393e
000000a0: a985 da3d 20dc 803e 6f60 7a3e 8293 5a3e
000000b0: f15d 03bd b551 743e 5866 1c3d 8c90 5abd
000000c0: 526b a13e b207 043e a96b dabe 9bb0 573f
000000d0: 1277 113d 704c c73d 9404 243e 573f 173e
000000e0: 1989 ebbd 30ab 963e 2f43 413e 25d9 423e
000000f0: a495 8cbc 8601 f73b 3805 4bbd 8b58 893e
00000100: d86a 2e3e 8623 71bb 00de 8f3c 5c72 693e
00000110: bd67 96bc 8a5d a23d caa7 1f3e 76f9 2cbe
00000120: 087c 8c3e 630d 723e ddde 8e3d 976c 4cbc
00000130: 2bba 26bf db27 603d ffc7 1e3e 347e dc3d
00000140: a23d 033c 0f5c 3b3e d0f9 c2bd c905 663d
00000150: 9fe2 c5bd d824 ebbd 5f71 883d 4647 353c
00000160: 1039 5ebd 7fb5 c63d fcdc dd3c 2402 ef3c
00000170: 7d5e cebd e428 393d 07e1 0dbe e5e8 9f3d
00000180: 4d60 c5bd d3fb 1ebd 2ae9 14bd 610a 6fbd
00000190: 4eb7 1dbe 6a85 1cbe 2ec3 05be c81b 74bd
000001a0: 7ce3 1cbe 7744 513d a151 9ebc 81e8 0f3d
000001b0: 862a 533d 4249 a53d 0b92 01be 87b1 1e3d
000001c0: 6b2e c2bd b5c0 49bd 28d8 b53d 4678 b83c
000001d0: 7298 d13d b2f1 d63d 40c1 af3d e5c7 6c3d
000001e0: a687 f3bc 88da f2bd d5b4 cd3d 697d f1bc
000001f0: 34e8 fdbd 6ff1 09be 3cc6 1abe 44cf 383e
00000200: 66bc 18be dba7 09be c7fe dcbc f495 9b3d
00000210: 2a10 43bd 8cec 73bd 96b5 893e 8642 b6be
00000220: 1fad 673d bfb7 eb3d 9e0c d7bd 7b9f 6d3d
00000230: 6188 9f3d f905 e4bd 6bf0 0f3d 5b01 e9bd
00000240: cd92 05be 9b61 60bd 97d2 37bd a835 343d
00000250: 8d63 8bbd 644b 043e d47b 00be b0a4 983d
00000260: 8f98 d3bd d0ab 2abe a5b1 1f3e 7414 5e3d
00000270: d38a 533d fca7 e7bd 340f 65bb bce3 4e3d
00000280: 5421 383f 1244 7a3d 647f 0c3e def1 663e
00000290: 7eae d4bc b176 583e bf35 7c3e 3768 923d
000002a0: 2d6a 19bd 6e84 113f febf 1a3c fdb2 273e
000002b0: bd42 673e a20d 0d3d 2961 1b3e df1a 503e
000002c0: 1551 053e e2a3 ca3b 1831 1a3e 2967 58bd
000002d0: bc1b f2bc 1690 673e 0202 133d 13a3 b73d
000002e0: 56c8 a93d 8094 3d3e 06db b13d a10f 4a3e
000002f0: 3f78 773d 7def 953d 1685 4b3e 846d 24bd
00000300: b582 593e be7e 9f3d d839 003e 2f8b 043e
00000310: 6a6c 1a3e afcf f83d a5d1 6439 781d 393e
00000320: 7355 283e 5383 173c 4ee3 f73d bc02 8f3d
00000330: 3f69 4b3e 215d 833e 158d 923c f0dd 223e
00000340: 76bb 043c aa9b c73d 28ef 8fbe 746e 543e
00000350: 59d0 d2bd 77e1 50be de83 e1bc 0a9e 313c
00000360: f07e 563d b46f b4bc adcf 883e 7062 00bf
00000370: 3e65 c3bc 98dd 7fbd b703 9bbd ac90 2abe
00000380: c61a a3bd 87cc 1c3c 8078 25be 7f2c 28bc
00000390: e825 42bd 0b10 0fbe 3c21 cd3d b912 633d
000003a0: 8341 18be ed56 01bd 245c e03d 535c d9bd
000003b0: 42ca bbbd 0f0b 24bd 1e96 4c3b 2dd6 f03c
000003c0: e554 2fbe e2e1 b5bd e4e2 483e a323 e33d
000003d0: 39e0 453f 93b3 88bc c07a 043e 53bf 1f3d
000003e0: f8bd 983d 9b4a 7c3e ace6 823e 9911 473e
000003f0: 56cd 2e3a 974b 9c3e b186 e83d 7655 1ebe
-0.24661401 0.56485 0.15487781 0.019558953 -0.04386053 0.013618352 0.1302592 0.10742394
0.12755997 0.089828916 -0.036844157 -0.05394783 0.099141344 -0.0038583735 -0.05610589 0.15528105
0.023556914 -0.03970993 0.07471302 0.1914755 0.1332917 0.15175053 0.26453704 0.037220277
0.092550784 0.10342268 0.07444991 0.01610864 0.07719866 0.18290034 0.2179107 0.09202571
0.066573456 0.13414843 0.2692063 0.07229169 0.057448052 0.32093665 0.1405257 0.1815471
0.10670025 0.25167942 0.24450849 0.21345332 -0.03207201 0.23859294 0.03818354 -0.053360507
0.3152719 0.1289356 -0.42660263 0.84253854 0.035513945 0.09731376 0.16017371 0.14770256
-0.11500759 0.2942748 0.18873285 0.19028147 -0.017161198 0.0075380234 -0.049565524 0.26825365
0.17032945 -0.0036794855 0.017561913 0.22797531 -0.018360013 0.079279974 0.1559135 -0.16892037
0.27438378 0.23637919 0.069761015 -0.012477062 -0.6512782 0.05472551 0.1550598 0.10766259
0.0080103 0.18296836 -0.09520304 0.05615786 -0.09662365 -0.11481637 0.06662249 0.011064356
-0.054253638 0.097025864 0.027082913 0.029175825 -0.10076616 0.045205012 -0.13855372 0.07808093
-0.096375085 -0.038814377 -0.036355175 -0.058359507 -0.15401956 -0.15285268 -0.13062736 -0.059596807
-0.15321153 0.051090684 -0.019326033 0.035133842 0.051554225 0.080706134 -0.12653367 0.038743522
-0.0948151 -0.049256045 0.08879119 0.022518288 0.10234155 0.104953185 0.085817814 0.05780782
-0.029727768 -0.11858088 0.100442566 -0.029478746 -0.12397805 -0.13471006 -0.15114683 0.18047816
-0.14915618 -0.13442938 -0.026976956 0.07596961 -0.047622837 -0.05955176 0.26896352 -0.35597628
0.056561586 0.11509656 -0.105004534 0.05801342 0.07789684 -0.11133952 0.03514139 -0.11377212
-0.13044281 -0.054780584 -0.04487857 0.043996483 -0.06806097 0.12919384 -0.12547237 0.07453287
-0.103318326 -0.16667104 0.1559511 0.054218724 0.051646065 -0.11311337 -0.0034951689 0.050510153
0.71925855 0.061100073 0.1372047 0.22553203 -0.02596211 0.21139027 0.24629878 0.07148784
-0.037454773 0.56842697 0.009445189 0.16376872 0.22584052 0.03443683 0.15173782 0.2032275
0.13019212 0.006184087 0.1505779 -0.052832756 -0.02955424 0.22613558 0.035890587 0.08966651
0.08290164 0.1851368 0.086843535 0.19732524 0.06041741 0.073210694 0.19874987 -0.040143505
0.21241267 0.07787846 0.12522066 0.1294372 0.15080419 0.121489875 0.00021821873 0.18077648
0.16438846 0.009247619 0.12103902 0.069829434 0.19864367 0.2565699 0.017889539 0.15904975
0.008101335 0.097464874 -0.2811215 0.2074526 -0.102936454 -0.20398508 -0.0275287 0.010840902
0.05236715 -0.02202592 0.26720944 -0.50150204 -0.023851987 -0.062467188 -0.07569068 -0.1665675
-0.07964091 0.0095702475 -0.16159248 -0.010264515 -0.04739943 -0.13970964 0.100161046 0.055437777
-0.1486874 -0.03157704 0.109550744 -0.106133126 -0.09169437 -0.04004961 0.0031217407 0.029399002
-0.17122228 -0.08880974 0.19617802 0.110907815 0.7729526 -0.01668719 0.1293745 0.03900082
0.07458109 0.24637835 0.25566614 0.19440307 0.00066681707 0.3052642 0.11353815 -0.15462288

fc1.bias f4 [32]
00000000: 4adc a83d 3c0b 603e af9a ebbd 73ed 0fbd
00000010: 51ee 013d 82ff adbd 84ab 6e3e cf9a e23d
00000020: 01c1 b93c 8f14 a5bc 727b 45bd a7b2 133e
00000030: 7408 d53d cd30 e2bd bc79 ea3c 2351 793e
00000040: 7a39 a3bd 5928 34bb ff61 623d 563a 413e
00000050: 73aa c53d 4756 bc3d fd6c 643e 93b6 f13b
00000060: e901 e53d f5b7 583c d045 46bd 161c 023e
00000070: ddf0 39be e1e4 c8bd 3e40 1dbd 4bf2 483d
0.08245142 0.21879286 -0.11504113 -0.03513856 0.031721417 -0.08496 0.23307616 0.11064684
0.02267504 -0.020151405 -0.04821343 0.14423619 0.10402003 -0.11044464 0.0286225 0.24347357
-0.07969947 -0.002748987 0.055269238 0.1886991 0.09651651 0.091961436 0.223072 0.007376501
0.11182005 0.0132274525 -0.048406422 0.12706026 -0.18158288 -0.0980928 -0.038391344 0.049059194

fc2.weight f4 [16, 32]
00000000: 3d3a 0ebe cf0e 8dbe d593 973d d636 19be
00000010: f6f0 9dbd be52 14bd a26e 6a3d d56d babc
00000020: f8d7 26bd 0b59 a33d 464c 083e 4912 803d
00000030: 667a 96bc 6291 623d 9c0f 0ebe 36f2 49be
00000040: 16db 933d 1110 67bd 9441 49be 98a4 64be
00000050: d392 883d 8e9e 033e cb9a b6be c3e3 7d3c
00000060: 8cc2 7cbd 481b dfbd 7b4c 81be c23d f93d
00000070: 6a4f 95be cf6c 25bc 1c84 a83d 7a23 303e
00000080: bfa3 953e bfbb 0b3e 4b68 c73d d132 a03e
00000090: 0283 b33e 894d ae3e c6c0 533e a72e e43d
000000a0: 6d21 2b3f dded d03e 1d5d 123d 579c 433e
000000b0: 3778 593e df24 0a3e 36a1 b23e cb7d c13e
000000c0: 3c15 bd3e 9f24 bc3d 1a51 92bd 0a23 cbbe
000000d0: 8d89 a4be 5baf ae3e e040 623f 7682 27be
000000e0: 4afa e13e 0b95 253e 7847 8abb 1e49 bd3e
000000f0: 107f 0e3f cea5 603e 18e9 9dbd 3920 d6be
00000100: 09da 0cbf 5d08 a63e a747 23be 5114 673d
00000110: 41db 13bd f704 20be 14b5 04be 4068 c9bc
00000120: 5880 46bd 32e5 283e 395a 2f3d 0b62 a13e
00000130: bb13 09bd 026c 1f3d 50c3 17bf f7fb 563e
00000140: 2441 0cbe 8eec e2bd 6718 e0bc 1819 863e
00000150: d40d 903e b453 44bd 5059 b13b 8cf1 ffbd
00000160: 1367 433e 68f6 9cbc 4a55 b43d 5682 853d
00000170: 1105 a0be 0568 1c3e f360 06be 4c46 dd3e
00000180: b7a4 8d3d f5bd 06bf 9e32 edbd d286 313e
00000190: 85df 493e 2589 eb3e 9ac9 5c3e 9ead 33bc
000001a0: 81e9 e63e bea1 323d 56dd 8c3c 7399 5e3e
000001b0: de48 6a3d 4cf0 863e 114c fabe dafa 863c
000001c0: 0f21 8b3e 2943 14be d45f af3e 96d4 823e
000001d0: e889 8dbe 59b8 be3e 48cc 3f3e ee69 2cbc
000001e0: bc51 ee3d 35a4 d03d 8537 a53d bf15 623d
000001f0: 1e2a dc3e 9a49 703c 0e30 a13c a596 aebe
00000200: 4cba 29be e293 ddbd c047 7c3d 236c edba
00000210: 65f9 153c e4e4 333d b621 9bbd c0aa bebd
00000220: 610a 08be f4c8 03be 0cd9 013e ea8c d7bd
00000230: c5a3 103e 8f33 a7bd 8598 6f3d 4c92 f9bd
00000240: 7031 c43d ccd6 e5bd 852b 0abe 8a82 d3bd
00000250: 5de4 0fbe 6615 27bd f45b 0a3e 8c48 1bbe
00000260: 41db db3d 58e6 b3bd 7c48 a13d 7cd0 7ebc
00000270: 3275 083d 1ed9 0039 fe67 aa3d 7fea b43c
00000280: 276d 293e 82d8 2cbf daca f6bd 1202 823e
00000290: 0c38 923e 3c93 6b3e d2c8 d0bc c54b a33e
000002a0: 9ef3 2b3f d443 b53e 6d40 8a3e 6e91 6abd
000002b0: e40c 8cba dc86 9e3d a514 28bf 0216 413e
000002c0: c795 903d b19e 233e c936 a23e fc53 7c3e
000002d0: 4954 0fbf de45 873e f381 c0bb 440c 303d
000002e0: 46c2 103e 050f a33d c89e e43e 8336 053e
000002f0: bc3b 003f e4b6 303e 6c89 d9bd 20f3 01bf
00000300: dc48 c43d 5134 21bf 3d73 253e b25f 143e
00000310: c816 843d 80af 5c3e a16a 0e3c 0375 903e
00000320: 40d6 933e 973f 403c 5628 7a3e c47b 0ebd
00000330: f8e7 603e 7908 793d 3145 0cbf 7ff3 5a3e
00000340: bd3e b23e 4d60 bd3d 3362 a23e 2f67 8b3e
00000350: db89 dabe fe07 6e3c fc0a 733e c3bd fbbd
00000360: 65e0 2c3e fc9d 08bd ea1b 983d b9d6 7f3e
00000370: ce17 df3e b043 9d3e d448 2a3e ca5a 28be
00000380: f097 8c3e f443 bbbe d1b7 273e f1a4 be3d
00000390: b7b8 af3c 3ce9 003f bb2b 7a3e ca1b 853d
000003a0: 0c87 fe3e 4e83 0a3e 16e4 f93d 4dd0 483e
000003b0: 9c7f 5dbd 2144 4f3e a573 d5be 2e8c 87bd
000003c0: 91cd 803e df10 15bd fe3a 8c3e c01e dc3d
000003d0: 1679 12bf 390b da3d 4c1d ff3d b222 6dbd
000003e0: de8f 4e3e 1154 2e3e 6403 743e a815 8b3d
000003f0: 0879 cc3e cf3d 863e e52e a3bd 3af6 97be
-0.13889404 -0.2755036 0.074012436 -0.14962325 -0.07711975 -0.03621172 0.057234414 -0.02275745
-0.040733308 0.07975968 0.13310346 0.062534876 -0.018368911 0.05531443 -0.13873142 -0.19721302
0.07219522 -0.056411806 -0.19653922 -0.22328413 0.066686295 0.12853453 -0.35664973 0.015496197
-0.06170897 -0.10893875 -0.25253662 0.121699825 -0.2916215 -0.010096743 0.08228323 0.17201033
0.2922649 0.13645838 0.09736689 0.3128877 0.3506089 0.3404353 0.20679006 0.11141711
0.6684788 0.40806475 0.03573333 0.19102608 0.21237265 0.13490628 0.3488862 0.37791285
0.36930263 0.091866724 -0.07144375 -0.3967517 -0.32136193 0.3411816 0.8838024 -0.1635836
0.44136268 0.16170137 -0.0042199455 0.36969846 0.5566263 0.2193825 -0.07710475 -0.4182146
-0.55020195 0.32428256 -0.15945302 0.05641586 -0.03609777 -0.15626894 -0.12959701 -0.024585843
-0.048462242 0.16493681 0.042810652 0.31520113 -0.033466082 0.038921364 -0.592824 0.20994554
-0.13696724 -0.110802755 -0.027355386 0.2619102 0.2813555 -0.047931388 0.005412258 -0.12497243
0.19082288 -0.019160464 0.0880533 0.06519 -0.31253865 0.15274055 -0.1312292 0.43217695
0.069161825 -0.526336 -0.1158192 0.17336586 0.19714172 0.4600307 0.2156128 -0.0109666865
0.45100024 0.04361128 0.017195385 0.21738224 0.057198398 0.26355207 -0.4888616 0.016477037
0.2717366 -0.14478745 0.342528 0.25552815 -0.27644277 0.3725002 0.18730271 -0.0105233025
0.11636683 0.1018757 0.0806723 0.05519652 0.43000883 0.0146659855 0.019676235 -0.34099308
-0.16574973 -0.10819222 0.061591864 -0.0018113892 0.009153699 0.04391946 -0.07574789 -0.09309912
-0.13285209 -0.12869626 0.12680453 -0.10524924 0.14124973 -0.08164131 0.058495063 -0.12186107
0.09579742 -0.1122261 -0.13493164 -0.10327633 -0.14051957 -0.04079189 0.1351164 -0.15164393
0.10735179 -0.08784169 0.078751534 -0.015552636 0.03331489 0.00012287914 0.08320616 0.022084473
0.16545545 -0.67517865 -0.120504096 0.25392205 0.28558385 0.23005384 -0.025486384 0.31893745
0.67168605 0.3540331 0.27002278 -0.0572676 -0.0010684994 0.07740566 -0.656565 0.18856052
0.07059818 0.15978505 0.31682423 0.24641412 -0.55987984 0.26420492 -0.005874866 0.042980447
0.1413661 0.07961849 0.4465239 0.13009076 0.5009115 0.17257267 -0.10621914 -0.50761604
0.09584209 -0.62970454 0.16157241 0.1448963 0.06449658 0.21551323 0.0086924145 0.28214273
0.28874397 0.011733911 0.2442945 -0.034786 0.21963489 0.060799096 -0.5479308 0.21381949
0.3481349 0.092468835 0.31715545 0.2722716 -0.426833 0.014528273 0.23734659 -0.122920536
0.16882475 -0.03335379 0.07427199 0.24984254 0.4357285 0.30715704 0.16629344 -0.16440883
0.2745967 -0.36575282 0.16378714 0.09308804 0.021450384 0.5035589 0.24430744 0.06499441
0.49712408 0.13526651 0.12201707 0.1961071 -0.054076776 0.20240833 -0.41689792 -0.06618534
0.25156835 -0.036393043 0.27388757 0.107480526 -0.5721601 0.10646672 0.1245676 -0.057894416
0.20172068 0.17024256 0.23829418 0.0679124 0.3993609 0.2621903 -0.07967929 -0.29680043

fc2.bias f4 [16]
00000000: 494f 01bd d2da 883e 01fc c5bd cac3 f33d
00000010: bd3d 0bbe 7ab0 d93d 259e 513d ade0 f9bd
00000020: f030 283c a4d4 4d3e 34ae 11be 9390 9c3e
00000030: 5a12 36be 2123 723e 74a3 1c3e aac9 95be
-0.031569753 0.26729447 -0.096672066 0.11902578 -0.1359777 0.10629363 0.05117621 -0.12201057
0.010265574 0.20100647 -0.1422661 0.3057905 -0.17780438 0.23646213 0.15296727 -0.2925542

fc3.weight f4 [1, 16]
00000000: 099e 9f3c bb12 cfbe af97 163f c41c aebe
00000010: 49d6 dd3d c3dd 01bf 8338 d1be b558 a8be
00000020: 06fd a4be 3939 7f3f 6a8a 69be 14c0 0ebf
00000030: 0752 883c 4406 223f 9957 b1be ec41 aa3e
0.019484537 -0.40443978 0.588252 -0.3400632 0.10831887 -0.50729007 -0.40863428 -0.32880178
-0.32224292 0.9969669 -0.22806707 -0.5576184 0.016640676 0.6329081 -0.34637144 0.3325342
