DRL_Nets6/critic_9_21.pth (torch, 10352 bytes, 5 tensors)

fc1.weight f4 [32, 42]
-0.051010393 0.089347914 0.049764063 -0.016664933 0.012686135 0.08692462 0.091475464 0.11477925
-0.15137419 -0.09662052 0.002163475 0.07085372 -0.14505081 -0.07274455 -0.01523065 0.0690356
0.07322691 -0.13116017 -0.0057263956 0.009060839 0.13275465 0.056602217 -0.11621795 -0.008570702
0.07907529 -0.09439857 -0.026428403 -0.012498163 -0.034986027 0.08345323 0.07231872 0.030338628
0.045166183 -0.12837821 0.059852432 -0.06518003 -0.06383579 0.008746332 0.12613358 -0.07626008
-0.022916785 -0.039201193 0.02727655 -0.11676525 -0.08822639 0.15107438 -0.045582354 0.12538852
-0.022795785 -0.033721853 0.036568385 0.047105152 0.09273208 -0.14641571 0.007891121 0.020623371
-0.060039025 0.064065 -0.054549035 -0.09061258 0.026466368 -0.04455628 0.017306954 0.006770719
0.008525985 -0.016900897 -0.14050058 0.12400062 -0.08873818 0.14872667 0.031838156 0.14439148
-0.14899904 0.096914545 -0.13888572 -0.12966666 0.14706326 0.13300933 -0.05325289 0.1449744
-0.05356957 0.11204919 -0.016101772 -0.03557334 -0.005248233 0.06944653 -0.0018691279 0.119415395
-0.02747692 0.006658789 -0.07215767 0.074233025 -0.082704246 0.13582285 0.053757377 -0.100203514
0.0594076 0.020007564 0.11370355 -0.068300776 -0.09105767 0.12750404 -0.06848042 -0.078523606
0.14447314 -0.039286267 0.027881578 0.073591426 0.14593421 -0.05663334 -0.039651655 0.121381864
-0.07675346 0.022591995 -0.012946342 -0.14627156 0.049316272 -0.09863589 0.11045918 0.12387083
0.12913221 -0.082917236 0.02748722 -0.0065715075 -0.13152204 0.0136177745 0.050406616 0.10853735
-0.03203387 -0.006130079 -0.055477582 -0.1186945 -0.11992293 -0.034972157 0.10565223 -0.04994341
-0.13071683 -0.06001848 -0.086951494 0.056562062 -0.04680297 -0.018673142 -0.12512091 0.0678445
0.0248053 -0.04220347 0.09138679 -0.017749136 0.060844496 -0.10063646 0.06755001 -0.11655255
0.008842957 -0.079137504 -0.08641405 -0.07113426 0.038630947 -0.09133398 -0.11176353 0.058006775
-0.049014162 0.043152217 0.019656856 0.09861959 0.058586106 0.119987786 -0.1477822 -0.0012377036
0.03498724 0.08327118 0.122797735 0.0641707 -0.12756242 0.042520847 -0.094656244 0.110542946
0.088230364 -0.14638214 -0.08526852 0.050754916 0.065014504 -0.104736865 -0.04006102 2.7370857e-05
0.008053857 -0.13700165 -0.13772325 0.13232589 0.100857474 0.06573097 0.08230831 0.013728637
0.036765113 0.017329946 -0.07422949 -0.03853894 0.066907436 0.04724666 -0.10246104 -0.08859128
0.002654219 -0.11065412 0.04563967 0.07655373 0.123914845 -0.092626035 0.004413496 0.076529324
-0.11250817 -0.00024330264 0.043148704 -0.0017282269 -0.15041114 -0.09478651 0.14601763 0.04747317
-0.07257519 0.0080566155 -0.027163038 0.13170537 -0.00069140847 -0.11607283 -0.006414695 -0.06585491
-0.06723545 -0.12666892 0.14819168 0.14938365 -0.019067261 -0.039720908 -0.06769806 0.06158662
-0.14503163 0.10361893 0.070881285 -0.11129943 -0.08823546 -0.0044425773 0.09348301 -0.058784693
0.042666238 -0.015183965 -0.016062666 0.08821192 0.006751846 -0.07348761 -0.10804782 0.10445978
-0.029870896 -0.0029474809 0.054816306 -0.000328156 -0.12569527 0.14253129 0.08153407 0.0234665
00000000: 46f0 50bd 0afc b63d 67d5 4b3d e684 88bc
00000010: 82d9 4f3c 8905 b23d 7d57 bb3d 6211 eb3d
00000020: d601 1bbe fbe0 c5bd 16c9 0d3b c11b 913d
00000030: 3388 14be 18fb 94bd fa89 79bc 8962 8d3d
00000040: fdf7 953d da4e 06be 7da4 bbbb ea73 143c
00000050: d6f0 073e bad7 673d ad03 eebd 216c 0cbc
00000060: 3af2 a13d 0a54 c1bd 6180 d8bc 18c5 4cbc
00000070: 824d 0fbd 87e9 aa3d d61b 943d b788 f83c
00000080: 2d00 393d 9475 03be d327 753d 1c7d 85bd
00000090: 57bc 82bd c64c 0f3c 2929 013e 3f2e 9cbd
000000a0: fbbb bbbc 6e91 20bd 1273 df3c 9f22 efbd
000000b0: 0ab0 b4bd 3eb3 1a3e 90b4 3abd d965 003e
000000c0: 3abe babc ed1f 0abd bbc8 153d 55f1 403d
000000d0: 51ea bd3d 00ee 15be c349 013c 58f2 a83c
000000e0: 7beb 75bd 8334 833d cf6e 5fbd 1793 b9bd
000000f0: ffcf d83c a580 36bd 50c7 8d3c e8dc dd3b
00000100: 93b0 0b3c c073 8abc 62df 0fbe 09f4 fd3d
00000110: 5dbc b5bd ce4b 183e ba68 023d 5cdb 133e
00000120: 3493 18be 227b c63d 0f38 0ebe 56c7 04be
00000130: c097 163e 9933 083e b41f 5abd 2b74 143e
00000140: c46b 5bbd 0c7a e53d dde7 83bc 5ab5 11bd
00000150: 5ff9 abbb fb39 8e3d 86fd f4ba 0f90 f43d
00000160: 4717 e1bc f831 da3b 67c7 93bd 7c07 983d
00000170: d860 a9bd 2515 0b3e b230 5c3d 8037 cdbd
00000180: 6255 733d e7e6 a33c 68dd e83d 47e1 8bbd
00000190: 727c babd 6b90 023e 763f 8cbd fcd0 a0bd
000001a0: c4f0 133e a3ea 20bd e867 e43c 1ab7 963d
000001b0: c76f 153e 5cf8 67bd c669 22bd 0e97 f83d
000001c0: eb30 9dbd d912 b93c e51c 54bc 36c8 15be
000001d0: dcff 493d 9d01 cabd 6c38 e23d fdaf fd3d
000001e0: 3c3b 043e 83d0 a9bd e12c e13c cd55 d7bb
000001f0: b7ad 06be 161d 5f3c 2b77 4e3d d548 de3d
00000200: f335 03bd d4de c8bb 763c 63bd 1a16 f3bd
00000210: 279a f5bd f73e 0fbd 3260 d83d 7691 4cbd
00000220: a2da 05be f0d5 75bd a013 b2bd 9fad 673d
00000230: 79b4 3fbd 6bf8 98bc b21f 00be 0ff2 8a3d
00000240: 7c34 cb3c 8cdd 2cbd ff28 bb3d a366 91bc
00000250: 1438 793d 7d1a cebd a957 8a3d 1ab3 eebd
00000260: 0de2 103c d812 a2bd d9f9 b0bd d7ae 91bd
00000270: 7c3b 1e3d 4f0d bbbd 47e4 e4bd 8398 6d3d
00000280: 13c3 48bd 61c0 303d 6a07 a13c 11f9 c93d
00000290: fcf7 6f3d 28bc f53d 3854 17be 713a a2ba
000002a0: c84e 0f3d 158a aa3d 617d fb3d ee6b 833d
000002b0: b99f 02be 572a 2e3d 22db c1bd 5764 e23d
000002c0: 1fb2 b43d 33e5 15be 43a1 aebd 63e4 4f3d
000002d0: 5326 853d 4880 d6bd 0617 24bd 789a e537
000002e0: 53f4 033c 294a 0cbe 5307 0dbe 7080 073e
000002f0: 5d8e ce3d f59d 863d 4291 a83d 14ee 603c
00000300: 0497 163d 88f7 8d3c a105 98bd 02db 1dbd
00000310: c406 893d b785 413d 18d7 d1bd 586f b5bd
00000320: 68f2 2d3b a19e e2bd aaf0 3a3d 34c8 9c3d
00000330: 11c7 fd3d b8b2 bdbd 169f 903b 68bb 9c3d
00000340: af6a e6bd 0e1f 7fb9 b2bc 303d ac85 e2ba
00000350: 6105 1abe 6e1f c2bd a585 153e 3a73 423d
00000360: 4da2 94bd e5ff 033c 0585 debc c6dd 063e
00000370: a33f 35ba 98b7 edbd 5d32 d2bb f0de 86bd
00000380: bdb2 89bd 7fb5 01be 8fbf 173e 07f8 183e
00000390: f232 9cbc 64b2 22bd 48a5 8abd 4042 7c3d
000003a0: 2c83 14be 2936 d43d 352a 913d f5f0 e3bd
000003b0: cbb4 b4bd 0a93 91bb 0574 bf3d 38c8 70bd
000003c0: cbc2 2e3d 2ac6 78bc da95 83bc 73a8 b43d
000003d0: 973e dd3b ac80 96bd 2d48 ddbd 02ef d53d
000003e0: cfb3 f4bc 862a 41bb 1087 603d 5a0c acb9
000003f0: 43b6 00be b9f3 113e 56fb a63d d13c c03c

fc1.bias f4 [32]
-0.020449102 0.14582714 0.09185283 -0.11302021 0.05872094 -0.048095103 -0.07163538 0.12598354
-0.009459537 -0.06835778 -0.15401894 -0.0633972 -0.015190771 0.03859208 0.079131685 0.01265446
0.092896946 -0.13064791 -0.03108533 0.06387144 -0.018335568 0.15009786 0.04767608 -0.123054855
-0.04275777 -0.023403978 -0.0047421297 -0.079118446 -0.008750508 -0.11002511 0.13849801 0.13265975
00000000: e084 a7bc b653 153e 561d bc3d 2477 e7bd
00000010: 5e85 703d 5fff 44bd 92b5 92bd d401 013e
00000020: 2dfc 1abc 2aff 8bbd 24b7 1dbe 64d6 81bd
00000030: b6e2 78bc bb12 1e3d cb0f a23d a754 4f3c
00000040: c140 be3d 91c8 05be a9a6 febc 08cf 823d
00000050: 7934 96bc 41b3 193e fe47 433d 2f04 fcbd
00000060: c522 2fbd b3b9 bfbc de63 9bbb da08 a2bd
00000070: 4a5e 0fbc d854 e1bd 6cd2 0d3e f5d7 073e

fc2.weight f4 [16, 32]
-0.049849123 -0.13122723 -0.1434686 0.01218712 -0.07616089 0.088666305 0.050356906 0.03413583
0.13096693 0.021789288 0.014857923 0.004688331 0.0873325 -0.120217875 -0.09112762 0.0966828
0.10299699 0.08895082 -0.033274725 0.02706205 0.07102115 -0.09395616 -0.12635942 0.009881329
-0.15208559 0.02415754 -0.11053708 -0.010842277 -0.13127184 -0.004132583 0.11499375 0.10241585
0.03236606 -0.10886122 -0.017710064 0.03190122 -0.14248556 -0.14360882 -0.17214613 -0.17466027
0.09885115 -0.15148334 0.021623861 -0.14747041 0.034809228 0.06856753 -0.10955945 0.05026212
0.06743951 -0.005533544 0.16433823 0.0006237734 -0.11644493 -0.012014633 -0.105033696 0.04841931
0.11604766 0.060514696 0.07848803 0.05763706 0.09239763 0.061597366 0.054130737 -0.08085314
-0.07047233 0.047300585 -0.05464914 -0.03227355 -0.13786219 0.17042828 0.08799124 0.14285335
0.12078869 0.116504975 0.07939016 0.12235525 0.06971384 0.1677893 0.048761036 0.0093613
-0.06940663 -0.01644547 0.041316703 -0.024492461 0.022674035 -0.16182834 0.030269086 -0.041909415
-0.10398778 0.13622291 0.1335429 0.12896895 -0.122860655 0.07476838 -0.10696031 -0.04875263
0.08294896 0.007782289 -0.026335584 0.03811883 -0.16204593 -0.118854135 -0.09903165 -0.014537523
0.015511705 -0.12179615 0.007898846 -0.14343129 0.08017209 -0.16487181 0.05746276 -0.09832659
-0.15134847 0.072392814 -0.02605438 -0.111060925 -0.16301611 -0.13380384 0.10307332 -0.025085466
0.088483304 0.03849318 -0.025484428 -0.09518176 0.0037696983 0.11945095 -0.022516321 0.1372175
-0.0117729 0.10166631 -0.010746456 0.14157066 -0.060822304 -0.098802455 0.07294819 -0.076931715
0.16021521 0.060848143 0.15194139 -0.0546228 0.107655965 -0.14490369 0.17121084 0.15177523
0.09758879 0.08813483 0.015008409 -0.09593845 0.009190605 -0.03175843 -0.17209016 0.15547283
0.082688786 0.100259766 -0.14977476 0.10098743 0.11718613 -0.09248474 0.07477481 -0.08589233
-0.09888551 0.059705563 0.1090195 -0.09522467 0.02313567 -0.0019519259 -0.086876705 -0.0648558
-0.12967677 -0.06403179 0.1478035 -0.12535301 0.0071337754 -0.091922946 0.10984014 -0.10338668
-0.06347556 -0.008426419 -0.17120345 -0.010388523 0.17052823 -0.16881236 -0.058288585 -0.08183201
0.11110124 0.16953081 -0.107306756 -0.031519055 0.057952568 -0.050361585 0.117189646 0.019480778
-0.06270952 0.09045957 -0.12909341 -0.046688635 0.08561429 -0.16240159 0.11987168 0.041860335
-0.012294194 -0.007683813 -0.044629972 0.01146527 -0.12631406 0.09642735 -0.03900187 0.05463207
0.15601683 -0.12760179 0.12572925 0.1652433 -0.043963797 -0.14798988 -0.15752916 -0.14132784
-0.026273081 -0.041848216 -0.11509786 -0.1317361 0.00954152 0.051361267 -0.01549805 -0.075870566
0.1314789 0.029819274 0.08333616 0.07819071 -0.13850003 -0.068474844 -0.08977715 -0.1492516
0.04120853 -0.14930256 -0.03838556 0.16529699 -0.13683964 0.15165335 0.033464786 -0.17040946
-0.09995049 -0.0020044409 0.077482745 0.007271153 0.15845004 0.17123702 0.015319979 -0.049188238
-0.09723587 0.0421027 0.16397218 -0.1564557 -0.013083962 0.0013055408 -0.031199077 -0.06464589
00000000: 982e 4cbd 6e60 06be 6fe9 12be 7cac 473c
00000010: 3efa 9bbd ae96 b53d 0b43 4e3d 03d2 0b3d
00000020: 321c 063e 737f b23c a56e 733c 92a0 993b
00000030: 62db b23d ca34 f6bd 1ea1 babd a201 c63d
00000040: 16f0 d23d d92b b63d 144b 08bd 3bb1 dd3c
00000050: 8973 913d 166c c0bd 5d64 01be 4ce5 213c
00000060: 53bc 1bbe 09e6 c53c 4461 e2bd cea3 31bc
00000070: 206c 06be 9e6a 87bb d881 eb3d 67bf d13d
00000080: 4692 043d a2f2 debd b214 91bc dbaa 023d
00000090: bce7 11be 310e 13be 1347 30be 24da 32be
000000a0: 7972 ca3d 731e 1bbe 8624 b13c 7c02 17be
000000b0: 1f94 0e3d 226d 8c3d b460 e0bd a7df 4d3d
000000c0: ba1d 8a3d bb52 b5bb 4848 283e b984 233a
000000d0: ae7a eebd 06d9 44bc e81b d7bd 5453 463d
000000e0: 65aa ed3d 42de 773d 55be a03d d614 6c3d
000000f0: f83a bd3d 854d 7c3d 31b8 5d3d 5596 a5bd
00000100: cc53 90bd 42be 413d c7d7 5fbd 4531 04bd
00000110: bf2b 0dbe c084 2e3e c034 b43d 2648 123e
00000120: 1060 f73d 299a ee3d 4f97 a23d 6495 fa3d
00000130: 21c6 8e3d f5d0 2b3e a7b9 473d 2360 193c
00000140: 1025 8ebd a6b8 86bc b43b 293d 6aa4 c8bc
00000150: e6be b93c 54b6 25be e0f6 f73c 35a9 2bbd
00000160: 8cf7 d4bd 057e 0b3e 78bf 083e 7010 043e
00000170: 5e9e fbbd 2a20 993d 020e dbbd d6b0 47bd
00000180: 25e1 a93d 9202 ff3b b9bd d7bc 7e22 1c3d
00000190: 5eef 25be cc69 f3bd 1bd1 cabd ca2e 6ebc
000001a0: ce24 7e3c 4370 f9bd 296a 013c a7df 12be
000001b0: 4431 a43d 28d4 28be 125e 6b3d 745f c9bd
000001c0: 18fb 1abe af42 943d ff6f d5bc e973 e3bd
000001d0: b2ed 26be e003 09be 1b18 d33d 0980 cdbc
000001e0: bc36 b53d 06ab 1d3d b8c4 d0bc a8ee c2bd
000001f0: 0b0d 773b b3a2 f43d 2674 b8bc bf82 0c3e
00000200: 1fe3 40bc 6d36 d03d e711 30bc e6f7 103e
00000210: cf20 79bd f158 cabd dc65 953d 608e 9dbd
00000220: 750f 243e e73b 793d 8696 1b3e 28bc 5fbd
00000230: bb7a dc3d a261 14be e551 2f3e f76a 1b3e
00000240: a2dc c73d 0980 b43d d4e5 753c 617b c4bd
00000250: 3194 163c 2115 02bd 6738 30be 4534 1f3e
00000260: bd58 a93d fe54 cd3d 8e5e 19be 7fd2 ce3d
00000270: 48ff ef3d a468 bdbd 8923 993d 51e8 afbd
00000280: 7c84 cabd d28d 743d 9e45 df3d 2705 c3bd
00000290: 0487 bd3c c4d7 ffba 6aec b1bd 1ed3 84bd
000002a0: fdc9 04be 1923 83bd cd59 173e 8a5c 00be
000002b0: 72c2 e93b 1942 bcbd def3 e03d 65bc d3bd
000002c0: 79ff 81bd f70e 0abc f54f 2fbe a034 2abc
000002d0: f49e 2e3e 26dd 2cbe 03c0 6ebd 8a97 a7bd
000002e0: 0c89 e33d 7c99 2d3e a5c3 dbbd 201a 01bd
000002f0: ac5f 6d3d f347 4ebd 2001 f03d 2796 9f3c
00000300: d96d 80bd de42 b93d 1031 04be 953c 3fbd
00000310: 8b56 af3d 9a4c 26be 497f f53d be75 2b3d
00000320: 966d 49bc 7fc8 fbbb ebcd 36bd d4d8 3b3c
00000330: 7958 01be b47b c53d 6dc0 1fbd e1c5 5f3d
00000340: e0c2 1f3e 0baa 02be 2bbf 003e 8a35 293e
00000350: 6213 34bd a98a 17be 534f 21be 3fb8 10be
00000360: a53a d7bc 0969 2bbd 6db8 ebbd d4e5 06be
00000370: 0954 1c3c 3160 523d 88eb 7dbc 0762 9bbd
00000380: 68a2 063e 8d47 f43c 26ac aa3d 7322 a03d
00000390: f4d2 0dbe 8a3c 8cbd 15dd b7bd 69d5 18be
000003a0: 47ca 283d c5e2 18be 2d3a 1dbd 9d43 293e
000003b0: b11f 0cbe 044b 1b3e 5f12 093d d17f 2ebe
000003c0: d8b2 ccbd f05c 03bb 46af 9e3d da42 ee3b
000003d0: ba40 223e c258 2f3e a600 7b3c 9b79 49bd
000003e0: 9a23 c7bd e173 2c3d 53e8 273e ec35 20be
000003f0: 1d5e 56bc ae1e ab3a 3595 ffbc 1065 84bd

fc2.bias f4 [16]
-0.0066714454 -0.10389874 0.102332376 -0.057998426 0.002198822 0.07357261 -0.14751376 -0.090268284
-0.14125623 -0.09146117 -0.062023196 -0.04231449 0.13064343 0.17670779 0.040185355 0.01154655
00000000: 249c dabb ddc8 d4bd a393 d13d c28f 6dbd
00000010: 1d1a 103b 3dad 963d d90d 17be 94de b8bd
00000020: 79a5 10be fe4f bbbd 090c 7ebd f551 2dbd
00000030: 64c7 053e e3f2 343e 6699 243d be2d 3d3c

fc3.weight f4 [1, 16]
0.20535865 -0.012280077 -0.12879816 0.106699735 -0.053845376 -0.22949156 -0.2159468 0.13220876
0.047183394 -0.09578732 -0.2380723 -0.1964387 0.13589269 -0.20020226 0.09137601 0.08274436
00000000: 8a49 523e 6032 49bc aae3 03be 6485 da3d
00000010: f88c 5cbd d6ff 6abe 2821 5dbe bc61 073e
00000020: 6043 413d 242c c4bd 3ac9 73be 3a27 49be
00000030: 7427 0b3e d201 4dbe 5823 bb3d e075 a93d
