DRL_Nets6/critic_target_6_31.pth (torch, 10422 bytes, 5 tensors)

fc1.weight f4 [32, 42]
0.13550927 -0.1120373 0.13469194 -0.07484701 -0.09877803 0.09352119 -0.09075327 0.093156695
0.029012272 0.13157524 -0.06774859 -0.05097667 0.019604914 -0.12940724 -0.14120382 0.04721925
0.09784657 -0.10266674 -0.11368179 0.034526 0.05987843 0.08250876 0.08993646 -0.06855029
-0.108581945 -0.106820785 0.03211902 0.03628388 0.06397983 0.0066448688 0.14506765 -0.08668718
-0.08146789 -0.05229694 -0.0892141 0.13148361 -0.05206165 -0.07689434 -0.1311656 -0.13249886
-0.02561894 -0.09298044 -0.10914978 0.1509493 0.12046217 0.06386662 -0.03653108 0.11511096
0.086278774 0.06517502 0.031328637 -0.13944277 -0.02180334 0.014585287 0.089966536 -0.028628442
0.108949445 -0.15480024 0.15190925 0.03181549 -0.064640224 0.028291633 -0.076845236 0.14164014
0.12905179 0.05254729 -0.023509787 0.06130254 -0.13358924 -0.037613098 -0.12456207 0.021949757
0.08285255 0.124428675 0.1191782 0.08903833 -0.09031394 -0.007158235 -0.12427264 0.098593816
-0.017353654 -0.03116542 -0.059374217 -0.14720513 -0.088830754 0.14910215 0.11267912 -0.06773878
0.13410605 -0.047598198 -0.051303018 0.025774593 -0.011828279 -0.10748904 0.11927529 0.14867045
0.14237508 -0.030142723 0.018137923 -0.0877668 -0.11733165 -0.04910079 -0.07865643 -0.027476404
0.10043935 -0.1230046 0.11760991 -0.030714577 -0.04577899 0.061602224 0.06847747 -0.108840235
-0.08173367 -0.11886833 -0.06687352 -0.057567857 0.005192268 0.08324647 0.00017845075 -0.120732866
-0.00029958965 0.072204925 0.13510765 -0.06862765 -0.14815599 -0.028004147 -0.038467802 -0.08930638
0.11838171 0.0462332 -0.050841413 0.007456694 0.078014046 -0.042952217 -0.025730256 -0.09176466
0.08044621 0.09303262 0.113767564 0.0045956722 -0.124768704 -0.10698562 -0.09790162 0.019657215
-0.14710522 0.00023225119 0.11188687 -0.0033434338 -0.06107899 0.044052675 0.036437538 -0.015544786
-0.1317871 0.131331 -0.1002145 0.057633016 -0.019405676 -0.006299176 -0.048800427 -0.058181193
-0.13171951 0.03918975 -0.10607853 0.12018246 -0.11977168 -0.052754328 0.05088912 0.11055647
0.025107292 -0.06772519 0.08093333 -0.11960949 -0.026701681 -0.066825695 0.04561583 0.089507826
0.016413514 0.0058882926 -0.103796445 -0.036113594 -0.0039243647 0.014936444 0.095803075 -0.118711315
-0.026231358 -0.1386343 -0.056392834 -0.006335869 -0.05906282 -0.098167546 0.12949726 0.09798308
-0.062454574 0.054174125 -0.11301943 -0.10796909 0.090250164 -0.023015581 0.14808327 0.10423165
0.03854462 0.110961325 0.07299813 0.11534065 0.09405931 -0.12654653 0.12608245 -0.110263824
-0.13487223 -0.118387826 0.108864635 -0.09046836 -0.010987821 0.07795649 0.10356369 0.046392024
-0.10333483 0.03649579 0.017854128 0.028485952 0.02391492 -0.14148496 -0.10232285 0.11588804
0.1493167 0.051641796 0.01612507 -0.00867587 0.0040025017 0.11244913 -0.07252697 -0.10389764
0.06393967 0.15782787 -0.14607303 0.01855275 0.10623203 0.06749536 0.0062664957 0.13538365
-0.008954922 -0.045431383 0.07749979 -0.040172122 -0.055891078 -0.06044337 -0.08499795 0.13042632
-0.038515147 -0.12851593 -0.06789292 0.032878067 -0.025981331 -0.07998828 0.041553866 -0.12695213
00000000: f1c2 0a3e d073 e5bd afec 093e 6449 99bd
00000010: 234c cabd 0a88 bf3d dadc b9bd f0c8 be3d
00000020: 25ab ed3c a9bb 063e c6bf 8abd eacc 50bd
00000030: 7c9a a03c 5583 04be bc97 10be f968 413d
00000040: c863 c83d f142 d2bd 00d2 e8bd 236b 0d3d
00000050: 1643 753d 5afa a83d 9b30 b83d 1864 8cbd
00000060: 3660 debd dbc4 dabd 3c8f 033d 689e 143d
00000070: db07 833d 33bd d93b 9d8c 143e 0c89 b1bd
00000080: a3d8 a6bd 5135 56bd e2b5 b6bd a4a3 063e
00000090: 993e 55bd c87a 9dbd 4650 06be c8ad 07be
000000a0: d0de d1bc 876c bebd eb89 dfbd 7492 1a3e
000000b0: dfb4 f63d 81cc 823d 9da1 15bd 4cbf eb3d
000000c0: edb2 b03d 7b7a 853d 7552 003d 16ca 0ebe
000000d0: eb9c b2bc 21f7 6e3c 6040 b83d 3286 eabc
000000e0: e320 df3d f483 1ebe 198e 1b3e f650 023d
000000f0: 1862 84bd dbc3 e73c 0961 9dbd 1d0a 113e
00000100: 2726 043e d43b 573d 9997 c0bc 5f18 7b3d
00000110: 9ecb 08be 3110 1abd 661a ffbd facf b33c
00000120: 99ae a93d 76d4 fe3d b313 f43d ba59 b63d
00000130: 84f6 b8bd a18f eabb a782 febd 8eeb c93d
00000140: 4029 8ebc 9f4e ffbc 6132 73bd f1bc 16be
00000150: e6ec b5bd 3cae 183e 4fc4 e63d a1ba 8abd
00000160: 1953 093e 54f6 42bd 1d23 52bd 3d25 d33c
00000170: 66cb 41bc 3723 dcbd 9a46 f43d 113d 183e
00000180: c6ca 113e dfed f6bc fb95 943c 14bf b3bd
00000190: 934b f0bd e91d 49bd 9f16 a1bd 3216 e1bc
000001a0: 25b3 cd3d d6e9 fbbd 77dd f03d 239d fbbc
000001b0: c082 3bbd 9d52 7c3d ea3d 8c3d a1e7 debd
000001c0: fb63 a7bd 3d71 f3bd fcf4 88bd 46cc 6bbd
000001d0: e723 aa3b 207d aa3d 821e 3b39 cb42 f7bd
000001e0: 3e12 9db9 2de0 933d a959 0a3e a78c 8cbd
000001f0: 34b6 17be f468 e5bc 6a90 1dbd 43e6 b6bd
00000200: 1c72 f23d 065f 3d3d 163f 50bd 4857 f43b
00000210: d4c5 9f3d aaee 2fbd 42c8 d2bc 1cef bbbd
00000220: fcc0 a43d e387 be3d f8fe e83d 4b97 963b
00000230: bc86 ffbd 471b dbbd a580 c8bd 2b08 a13c
00000240: c0a2 16be 7488 7339 f124 e53d 831d 5bbb
00000250: f72d 7abd 9470 343d 873f 153d 8faf 7ebc
00000260: 33f3 06be a27b 063e 433d cdbd 9910 6c3d
00000270: a7f8 9ebc 5169 cebb f5e2 47bd 674f 6ebd
00000280: 7be1 06be 6e85 203d b33f d9bd 3922 f63d
00000290: db4a f5bd ec14 58bd 1c71 503d 6e6b e23d
000002a0: cfad cd3c 81b3 8abd 60c0 a53d d2f5 f4bd
000002b0: 7cbd dabc e9db 88bd aad7 3a3d e14f b73d
000002c0: a275 863c 94f2 c03b 3b93 d4bd d9eb 13bd
000002d0: f597 80bb fdb7 743c 6734 c43d eb1e f3bd
000002e0: 25e3 d6bc 26f6 0dbe 2cfc 66bd 1f9d cfbb
000002f0: dbeb 71bd 110c c9bd ee9a 043e 5aab c83d
00000300: 5ed0 7fbd b0e5 5d3d bb76 e7bd e61e ddbd
00000310: 14d5 b83d 2c8b bcbc 24a3 173e 6777 d53d
00000320: f7e0 1d3d b13f e33d 0b80 953d b837 ec3d
00000330: 2ba2 c03d 6a95 01be c21b 013e 00d2 e1bd
00000340: f21b 0abe 5175 f2bd 6cf4 de3d 7a47 b9bd
00000350: 4306 34bc a7a7 9f3d 3319 d43d 9005 3e3d
00000360: 36a1 d3bd 9c7c 153d d242 923c 5f5b e93c
00000370: 39e9 c33c 6fe1 10be a48e d1bd b556 ed3d
00000380: 7ae6 183e 5986 533d b918 843c 3c25 0ebc
00000390: 6b27 833b bb4b e63d 0589 94bd 49c8 d4bd
000003a0: cdf2 823d a19d 213e 2b94 15be f0fb 973c
000003b0: 2e90 d93d 023b 8a3d 2d57 cd3b 03a2 0a3e
000003c0: aab7 12bc 4216 3abd 36b8 9e3d 868b 24bd
000003d0: 0bee 64bd 7893 77bd 6813 aebd 7a8e 053e
000003e0: 0fc2 1dbd ae99 03be 710b 8bbd 27ab 063d
000003f0: cdd6 d4bc e5d0 a3bd 6334 2a3d bdff 01be

fc1.bias f4 [32]
0.08622147 0.13124739 -0.09384094 0.06240015 0.13498324 0.017850822 -0.12505066 -0.06706984
-0.0145344585 -0.08728001 0.032212973 0.10090638 0.12716751 0.14510617 -0.067421354 0.03673897
-0.023621775 0.14227796 0.008473359 -0.060935088 0.1027789 0.13520168 -0.003642731 -0.09733906
-0.04567917 -0.083274834 -0.0016249429 0.043810014 0.14513971 0.00017957832 -0.09561475 0.06670685
00000000: e294 b03d b765 063e ae2f c0bd 4d97 7f3d
00000010: 0c39 0a3e e33b 923c 480d 00be ea5b 89bd
00000020: f021 6ebc ddbf b2bd c0f1 033d 01a8 ce3d
00000030: 3338 023e b696 143e 3514 8abd 9a7b 163d
00000040: 7482 c1bc 50b1 113e d8d3 0a3c 1297 79bd
00000050: be7d d23d 4f72 0a3e e3ba 6ebb b359 c7bd
00000060: 151a 3bbd ff8b aabd 09fc d4ba 2172 333d
00000070: 819f 143e 304d 3c39 abd1 c3bd 9a9d 883d

fc2.weight f4 [16, 32]
0.14493607 -0.02562623 0.11297856 -0.13194507 -0.123912536 0.12896466 -0.09767218 0.1761144
0.088828385 -0.06625156 0.1585051 0.14092514 -0.067903034 0.04825281 0.07418274 -0.09384977
0.12848067 -0.16167897 0.10664023 0.15391272 0.1699492 -0.03048091 0.0483009 -0.027250959
-0.12029721 -0.15042819 -0.0026406834 0.10600209 0.07906763 -0.07467804 -0.004319722 0.047937218
0.1367703 0.055664092 0.16522592 0.07965545 -0.07172265 0.050140228 0.1409108 -0.09763599
-0.015024687 -0.082336694 -0.13226752 -0.12091217 0.1402832 -0.1351066 -0.15053825 0.12528963
-0.14424361 0.08316669 0.094205685 -0.06629876 0.14263065 0.09733764 -0.0017045664 -0.03278947
-0.10131021 0.10980999 -0.09328705 -0.038289614 -0.08061512 -0.09882504 -0.1244757 0.008772279
-0.032908447 -0.1677321 0.14609598 0.060911424 0.15932785 -0.037523296 0.1090092 -0.13392441
-0.11438334 0.09068094 -0.17068869 -0.10784723 0.09988173 0.013805706 0.079400785 -0.034792032
-0.0037600677 0.120184116 0.047875974 0.059487358 0.124726266 -0.11566031 -0.047011606 -0.015500557
-0.17102996 -0.07936932 -0.09093985 -0.076388255 0.10674566 0.0721145 -0.069550894 -0.060709056
-0.028350646 -0.16718416 0.010550515 0.03415844 -0.11650206 0.15891245 -0.14639787 -0.13125011
-0.074198514 -0.09846882 -0.16936049 0.050276067 0.030569425 0.16878833 -0.17234978 -0.15696044
0.15469976 0.02328841 -0.012870741 -0.16976486 -0.0835493 0.17174736 -0.101256624 0.021064447
0.16271423 0.09276565 -0.09482866 0.15625876 0.11218705 0.08320667 0.03904705 0.14078076
-0.0016061842 0.054647118 -0.017024977 0.07290934 -0.15487373 -0.0008759061 -0.085285164 0.050589148
-0.017807495 0.09733704 0.17775036 0.14058554 0.024244448 0.03448118 -0.007602052 -0.1465758
-0.10015532 -0.006371193 -0.014151352 0.05939121 0.099080354 -0.08380949 -0.12729412 0.06742502
-0.0963084 -0.009769501 -0.12747602 0.02364313 -0.14674881 0.11301636 -0.11772394 -0.12443421
-0.16055726 -0.16445206 -0.009172648 -0.12961063 0.07287165 0.1467859 0.047825314 -0.030814556
0.10791401 0.16868949 -0.14978819 -0.0840398 -0.07290497 0.09844223 -0.06617543 -0.08086424
-0.15023425 -0.04609175 0.1372083 -0.012793528 -0.11196622 -0.17234501 0.08346846 0.13181391
0.108242884 -0.09127884 0.14003415 0.15066962 0.11420919 -0.08980815 0.016766101 -0.106391646
0.072537534 -0.11482033 -0.120375425 0.15043212 0.07982147 -0.066296704 0.088516146 -0.040599406
-0.09330461 0.1329975 0.13309425 0.123588055 0.020133557 0.1379767 -0.06804932 0.0892085
0.17866515 0.12107899 -0.15529941 0.15580049 -0.13255297 0.017100606 -0.041917015 -0.1537948
0.17102283 -0.13887884 0.061813533 -0.024690911 -0.12994994 0.032626454 -0.073438436 -0.08048215
0.07402593 -0.03436036 0.1528726 0.13847317 0.1463877 -0.06769134 -0.053528972 -0.10874994
-0.051929265 0.07758991 -0.13932578 -0.12504397 -0.056474462 0.05564423 0.09441117 0.12460666
0.15132076 0.07767292 0.08758484 0.08362633 0.062790655 -0.021908225 -0.0021836367 0.07932308
-0.12522292 0.04923053 -0.029479844 0.062765956 0.009180173 0.09289124 0.09856058 0.02829222
00000000: 1f6a 143e 19ee d1bc 4e61 e73d 9c1c 07be
00000010: dbc5 fdbd 500f 043e 5a08 c8bd 5557 343e
00000020: a8eb b53d e6ae 87bd 294f 223e ae4e 103e
00000030: bf10 8bbd bda4 453d 1fed 973d 4f34 c0bd
00000040: 7090 033e 2c8f 25be 3166 da3d 4c9b 1d3e
00000050: 2a07 2e3e 1ab3 f9bc 2ad7 453d 673d dfbc
00000060: 625e f6bd d909 1abe 510f 2dbb a017 d93d
00000070: 36ee a13d cdf0 98bd 748c 8dbb d159 443d
00000080: 830d 0c3e 0800 643d fc30 293e 6622 a33d
00000090: 53e3 92bd d75f 4d3d ec4a 103e 61f5 c7bd
000000a0: 1b2a 76bc 24a0 a8bd 2371 07be cda0 f7bd
000000b0: 66a6 0f3e 6259 0abe b326 1abe ed4b 003e
000000c0: 99b4 13be 4c53 aa3d e9ee c03d a5c7 87bd
000000d0: c50d 123e f558 c73d c26b dfba 404e 06bd
000000e0: ba7b cfbd 0fe4 e03d 480d bfbd 92d5 1cbd
000000f0: 8a19 a5bd c864 cabd 1eed febd 9bb9 0f3c
00000100: 02cb 06bd f7c1 2bbe 2f9a 153e 427e 793d
00000110: d726 233e 07b2 19bd 3740 df3d 7b23 09be
00000120: d041 eabd eeb6 b93d 04c9 2ebe 02df dcbd
00000130: cb8e cc3d 5431 623c e19c a23d 1782 0ebd
00000140: 786b 76bb 1723 f63d 9919 443d 04a9 733d
00000150: 7c70 ff3d 50df ecbd 3e8f 40bd 0cf6 7dbc
00000160: 7a22 2fbe 628c a2bd ac3e babd 7271 9cbd
00000170: 789d da3d c4b0 933d b370 8ebd 0faa 78bd
00000180: 9d3f e8bc 5332 2bbe 11dc 2c3c b8e9 0b3d
00000190: a298 eebd f2b9 223e 53e9 15be 6e66 06be
000001a0: 64f5 97bd 05aa c9bd d66c 2dbe 47ee 4d3d
000001b0: bb6c fa3c d9d6 2c3e 767c 30be 3dba 20be
000001c0: 9d69 1e3e 56c7 be3c cddf 52bc d7d6 2dbe
000001d0: e51b abbd 8ade 2f3e a25f cfbd 598f ac3c
000001e0: 8f9e 263e ebfb bd3d 8735 c2bd 4c02 203e
000001f0: 53c2 e53d 4268 aa3d cdef 1f3d d528 103e
00000200: 9986 d2ba a8d5 5f3d f777 8bbc 7e51 953d
00000210: 3897 1ebe 109d 65ba fda9 aebd 9136 4f3d
00000220: 06e1 91bc a458 c73d 3104 363e a8f5 0f3e
00000230: 4b9c c63c 233c 0d3d a21a f9bb f717 16be
00000240: 3b1e cdbd 71c5 d0bb 13db 67bc 3344 733d
00000250: a4ea ca3d 4fa4 abbd 6459 02be 2116 8a3d
00000260: 573d c5bd 4210 20bc 1389 02be 3daf c13c
00000270: 5245 16be 1f75 e73d 4019 f1bd 5dd7 febd
00000280: 1f69 24be 1f66 28be e048 16bc a6b8 04be
00000290: bb3d 953d 0b4f 163e 7ae4 433d cf6e fcbc
000002a0: 0502 dd3d f0bc 2c3e 1362 19be 0f1d acbd
000002b0: 334f 95bd 149c c93d fc86 87bd 279c a5bd
000002c0: 02d7 19be b4ca 3cbd 5580 0c3e f29b 51bc
000002d0: 8c4e e5bd 367b 30be 83f1 aa3d 3afa 063e
000002e0: 72ae dd3d 67f0 babd 1d65 0f3e 2349 1a3e
000002f0: 82e6 e93d 56ed b7bd 1059 893c dde3 d9bd
00000300: 8f8e 943d ec26 ebbd 6487 f6bd e10a 1a3e
00000310: 7079 a33d 91c6 87bd f447 b53d 904b 26bd
00000320: 7d16 bfbd 7f30 083e dc49 083e bc1b fd3d
00000330: 21ef a43c c449 0d3e 715d 8bbd f2b2 b63d
00000340: fff3 363e 43f8 f73d cf06 1fbe 2a8a 1f3e
00000350: f7bb 07be 9216 8c3c 2db1 2bbd 627c 1dbe
00000360: 9c20 2f3e 4136 0ebe 3030 7d3d 9844 cabc
00000370: 9911 05be 51a3 053d e466 96bd d3d3 a4bd
00000380: e89a 973d 73bd 0cbd a38a 1c3e e9cb 0d3e
00000390: a8e6 153e c2a1 8abd 3241 5bbd 4ab8 debd
000003a0: c8b3 54bd 75e7 9e3d 6bab 0ebe 870b 00be
000003b0: c451 67bd 34eb 633d a55a c13d c731 ff3d
000003c0: d4f3 1a3e fb12 9f3d ae5f b33d 4844 ab3d
000003d0: 6398 803d e178 b3bc 581b 0fbb 2474 a23d
000003e0: 703a 00be f4a5 493d b77f f1bc 708b 803d
000003f0: 7068 163c c33d be3d 21da c93d 16c5 e73c

fc2.bias f4 [16]
-0.107756615 0.118442096 -0.0491903 -0.10223445 0.025564447 0.078300476 -0.0067734066 0.12191298
0.1050724 0.08208003 -0.11959075 0.031915978 0.0652378 -0.070374236 0.024170917 0.1522416
00000000: 80af dcbd c591 f23d c57b 49bd 4c60 d1bd
00000010: 886c d13c 005c a03d 74f3 ddbb 83ad f93d
00000020: 3330 d73d 9319 a83d ffeb f4bd 54ba 023d
00000030: 659b 853d 5e20 90bd 1602 c63c 39e5 1b3e

fc3.weight f4 [1, 16]
-0.20273118 0.20511761 -0.22804797 -0.04148352 -0.18407995 0.18739669 -0.16946472 -0.087526344
0.24651793 0.18411292 0.039530873 -0.23775072 -0.002198595 -0.20199214 0.018111423 -0.16778648
00000000: c398 4fbe 5a0a 523e 6885 69be a0ea 29bd
00000010: 747f 3cbe ebe4 3f3e 2988 2dbe 0341 b3bd
00000020: 326f 7c3e 1988 3c3e 20eb 213d ed74 73be
00000030: 4e16 10bb 07d7 4ebe 685e 943c 38d0 2bbe
