DRL_Nets6/critic_target_6_11.pth (torch, 10422 bytes, 5 tensors)

fc1.weight f4 [32, 42]
0	0x3e05a8f9	0.13052739
1	0xbdf06666	-0.11738281
2	0x3e04d779	0.12972821
3	0xbd8f5281	-0.06998158
4	0xbdd4d390	-0.10391915
5	0x3db554ba	0.08854051
6	0xbdaff5ef	-0.0859183
7	0x3db43e54	0.08800951
8	0x3cc4bb89	0.024015205
9	0x3e0bc569	0.13649525
10	0xbd954ab9	-0.07289643
11	0xbd653fea	-0.055969156
12	0x3cc8c9ff	0.024510382
13	0xbe09c721	-0.13454868
14	0xbe15aa8f	-0.14615844
15	0x3d553890	0.052055895
16	0x3dbdde65	0.09270934
17	0xbddc7abe	-0.10765599
18	0xbddec627	-0.10877638
19	0x3cf0ac05	0.0293789
20	0x3d60df21	0.054900292
21	0x3db2fe92	0.08739962
22	0x3dada7a3	0.0847924
23	0xbd9694ca	-0.07352598
24	0xbdd45d09	-0.103693075
25	0xbde54c13	-0.11196151
26	0x3cde2633	0.027117824
27	0x3d28e855	0.041237194
28	0x3d710479	0.058842156
29	0x3ad97455	0.0016590456
30	0x3e1987a3	0.14993148
31	0xbdbc107d	-0.091828324
32	0xbdb15038	-0.08657879
33	0xbd6b1dff	-0.057401653
34	0xbdc12c09	-0.09432227
35	0x3e0173c0	0.12641811
36	0xbd69f6a4	-0.05711998
37	0xbda80198	-0.08203429
38	0xbe0b8870	-0.13626266
39	0xbe0cf042	-0.13763526
40	0xbcfbb4a8	-0.030725792
41	0xbdc8e652	-0.09809555
42	0xbde91d8c	-0.11382589
43	0x3e17545f	0.14778279
44	0x3ded2efb	0.115812264
45	0x3d8b7ed0	0.06811297
46	0xbd23faca	-0.040034093
47	0x3de21fe6	0.110412404
48	0x3db8cb2a	0.090231255
49	0x3d7cfa9b	0.061762433
50	0x3cda250c	0.026628993
51	0xbe0a811a	-0.13525811
52	0xbccea3f0	-0.025224656
53	0x3c22307d	0.009899256
54	0x3dc0b6ba	0.09409852
55	0xbd038b52	-0.032115288
56	0x3dd5a9f2	0.10432805
57	0xbe1a7939	-0.15085305
58	0x3e17ed55	0.14836629
59	0x3cde3552	0.027125034
60	0xbd774f44	-0.060378328
61	0x3ccb9921	0.024853291
62	0xbda6f19a	-0.081515506
63	0x3e155ab2	0.14585379
64	0x3e009628	0.1255728
65	0x3d441bc6	0.04787805
66	0xbc9e1b29	-0.01930006
67	0x3d6cb9d0	0.057794392
68	0xbe0d9d85	-0.1382962
69	0xbd0810f1	-0.03321928
70	0xbe03338d	-0.12812634
71	0x3c8d8feb	0.01728054
72	0x3db1ef73	0.086882494
73	0x3df7a035	0.12091104
74	0x3de9e9e2	0.11421563
75	0x3dad65ef	0.08466708
76	0xbdc1f37e	-0.094702706
77	0xbc46cc2e	-0.012133641
78	0xbe0447b4	-0.12917978
79	0x3dc09cce	0.09404908
80	0xbcb7125e	-0.022347625
81	0xbd121bc0	-0.035670996
82	0xbd8296b8	-0.063764036
83	0xbe1ba72b	-0.15200488
84	0xbdbf59db	-0.093433104
85	0x3e141633	0.14461593
86	0x3ddd55c1	0.10807372
87	0xbd813d19	-0.063104816
88	0x3e04b4ee	0.12959644
89	0xbd55d0a6	-0.052200936
90	0xbd3f20e1	-0.046662215
91	0x3cae3ac6	0.02126826
92	0xbc868f56	-0.01642577
93	0xbdd2b373	-0.102881335
94	0x3deb0bc8	0.114768565
95	0x3e138459	0.14405955
96	0x3e169592	0.14705494
97	0xbd0dee9a	-0.034651376
98	0x3c5da7d3	0.013528782
99	0xbdaa4828	-0.08314544
100	0xbdf9884f	-0.12184202
101	0xbd5bf055	-0.053695995
102	0xbd979fca	-0.07403524
103	0xbd030191	-0.031983916
104	0x3dc442eb	0.09583076
105	0xbdf25bd6	-0.118339226
106	0x3de7a205	0.113102
107	0xbd10a8f6	-0.035317384
108	0xbd28627a	-0.04110954
109	0x3d69da8a	0.05709318
110	0x3d82d16a	0.06387599
111	0xbdd56482	-0.10419561
112	0xbdb0a09a	-0.08624382
113	0xbdfcda02	-0.12346269
114	0xbd7efb24	-0.062251225
115	0xbd7e4542	-0.06207777
116	0x3a2c62c3	0.0006575996
117	0x3da12e14	0.07870117
118	0xbb8ef045	-0.0043621385
119	0xbe004dc6	-0.12529668
120	0xbb9f0e08	-0.0048539676
121	0x3d8a9877	0.067673616
122	0x3e05ad26	0.13054332
123	0xbd95d346	-0.07315688
124	0xbe1c5f52	-0.15270737
125	0xbd055349	-0.03255013
126	0xbd12f55b	-0.03587852
127	0xbdb23720	-0.087019205
128	0x3df7cefb	0.12100025
129	0x3d328372	0.043582387
130	0xbd45eea3	-0.048323285
131	0x3c242ec5	0.010020916
132	0x3d9a8938	0.07545704
133	0xbd259f3f	-0.040435072
134	0xbcbd80c8	-0.023132697
135	0xbdc14a5e	-0.094380125
136	0x3da9e806	0.08296208
137	0x3dc3d42d	0.09561954
138	0x3de38ce7	0.11110859
139	0x3be93fb2	0.007118189
140	0xbdfa25fa	-0.12214275
141	0xbde09477	-0.109658174
142	0xbdc35662	-0.095379606
143	0x3cb610fd	0.022224898
144	0xbe194e95	-0.14971383
145	0x3b341ddb	0.0027483616
146	0x3dea75b3	0.114482306
147	0xbbc4524d	-0.0059912563
148	0xbd6fd636	-0.058553897
149	0x3d3f0af8	0.04664132
150	0x3d0a8530	0.033818424
151	0xbc555799	-0.013021373
152	0xbe0457e4	-0.12924153
153	0x3e03e5cb	0.12880628
154	0xbdc811c2	-0.09769012
155	0x3d76b1fe	0.06022834
156	0xbcb4e4ad	-0.022081697
157	0xbb777b1b	-0.0037762586
158	0xbd3d94b0	-0.046284378
159	0xbd64774c	-0.055777833
160	0xbe045242	-0.12922004
161	0x3d2ab33b	0.041674834
162	0xbdd40761	-0.1035297
163	0x3dfb36c1	0.12266303
164	0xbdf01e5c	-0.117245406
165	0xbd4dfdb6	-0.050290786
166	0x3d5adcb0	0.05343312
167	0x3de7b36d	0.113135196
168	0x3ce84a96	0.028355878
169	0xbd8489b0	-0.06471574
170	0x3dac69a8	0.0841859
171	0xbdfbad8f	-0.12288963
172	0xbcc0c608	-0.023531929
173	0xbd823956	-0.06358592
174	0x3d2d6a37	0.042337622
175	0x3dbdcc69	0.09267504
176	0x3ca10a6c	0.01965829
177	0x3b2a0b23	0.002594658
178	0xbdce16ce	-0.100629434
179	0xbd069b56	-0.032862984
180	0xbbec4914	-0.00721086
181	0x3c945150	0.01810518
182	0x3dcae374	0.099066645
183	0xbdf9f080	-0.12204075
184	0xbcbcea11	-0.02306083
185	0xbe0aa130	-0.1353805
186	0xbd7471bf	-0.05967879
187	0xbb4fa66f	-0.0031684896
188	0xbd649eeb	-0.05581562
189	0xbdcfbfbf	-0.101439945
190	0x3e07d925	0.13266428
191	0x3dcf5243	0.10123112
192	0xbd86a5ef	-0.06574618
193	0x3d6ae01f	0.057342645
194	0xbde0d00c	-0.10977182
195	0xbde3dab8	-0.11125702
196	0x3dbf533b	0.09342047
197	0xbca20351	-0.019776972
198	0x3e144ad1	0.14481665
199	0x3ddbf495	0.1074001
200	0x3d2ad927	0.041711
201	0x3de9b72d	0.11411891
202	0x3d9bfd8e	0.07616721
203	0x3df2c884	0.118546516
204	0x3dc73093	0.09726062
205	0xbdfca89c	-0.12336847
206	0x3e046559	0.12929286
207	0xbddb5a28	-0.10710555
208	0xbe06cfcf	-0.1316521
209	0xbdebe77d	-0.11518762
210	0x3dd5ef93	0.10446086
211	0xbdc1f4ae	-0.09470497
212	0xbc7c2608	-0.015389927
213	0x3da8c985	0.08241562
214	0x3dcb3911	0.09922994
215	0x3d2c033a	0.041995265
216	0xbdca5d4a	-0.09881075
217	0x3d03bd87	0.03216317
218	0x3c5c72ae	0.013455076
219	0x3d06f091	0.032944266
220	0x3ca06afd	0.019582266
221	0xbe15665c	-0.14589828
222	0xbdc851e7	-0.09781247
223	0x3de4761a	0.111553386
224	0x3e14611f	0.14490174
225	0x3d6607bc	0.05615972
226	0x3c4129c0	0.011789739
227	0xbc5606e2	-0.013063164
228	0x3c0a1093	0.008426803
229	0x3ddd6bf7	0.10811608
230	0xbd9d9570	-0.076945186
231	0xbdcb8865	-0.099381246
232	0x3d7426d0	0.059607327
233	0x3e1d1a68	0.15342104
234	0xbe10f8c7	-0.14157401
235	0x3c68f517	0.01421859
236	0x3dd090de	0.10183881
237	0x3d935430	0.07193792
238	0x3afd446b	0.0019322758
239	0x3e06210b	0.13098542
240	0xbb92c52d	-0.0044790716
241	0xbd4bd732	-0.049765773
242	0x3d95de7f	0.073178284
243	0xbd363e73	-0.04449315
244	0xbd7699fa	-0.060205437
245	0xbd84af4d	-0.064787485
246	0xbdb70357	-0.08936184
247	0x3e012367	0.12611161
248	0xbd2f936e	-0.04286521
249	0xbe0803da	-0.13282719
250	0xbd93eb56	-0.07222621
251	0x3ce9f11b	0.02855735
252	0xbcb5af29	-0.02217825
253	0xbd9c0fb4	-0.07620183
254	0x3d39d0df	0.04536521
255	0xbe05e547	-0.13075744

fc1.bias f4 [32]
0	0x3da6213f	0.0811181
1	0x3e01881a	0.12649575
2	0xbdc97e17	-0.09838503
3	0x3d84faba	0.06493135
4	0x3e0d7c79	0.13817014
5	0x3c5d8b6f	0.013522013
6	0xbdf8524d	-0.12125073
7	0xbd91ff6d	-0.07128797
8	0xbc963fc7	-0.018340958
9	0xbdbbc51a	-0.091684535
10	0x3ce4c959	0.027928041
11	0x3dc6aa60	0.09700465
12	0x3e0614d8	0.13093889
13	0x3e1496b4	0.14510614
14	0xbd92e8a1	-0.07173277
15	0x3d23d65a	0.039999343
16	0xbce48c8e	-0.027899053
17	0x3e13f653	0.14449434
18	0x3c0ad3d8	0.008473359
19	0xbd85f97b	-0.06541725
20	0x3dc8232b	0.09772333
21	0x3e05165f	0.12996815
22	0xbc0fd3a3	-0.0087784855
23	0xbdc59f5b	-0.09649535
24	0xbd4f7c7b	-0.050655823
25	0xbda89946	-0.082323596
26	0xba441ae8	-0.0007480816
27	0x3d1ef710	0.038809836
28	0x3e149f81	0.14513971
29	0xbb9ec70e	-0.0048455065
30	0xbdc1a2d7	-0.09454887
31	0x3d7e21f1	0.062044088

fc2.weight f4 [16, 32]
0	0x3e0ed006	0.13946542
1	0xbcf80636	-0.0302764
2	0x3dde37ae	0.10850464
3	0xbe0937f0	-0.13400245
4	0xbe0235bd	-0.12715812
5	0x3dff07e9	0.124526806
6	0xbdcf13f9	-0.10111231
7	0x3e2fd632	0.17171553
8	0x3dacc21a	0.084354594
9	0xbd90db11	-0.070730336
10	0x3e1dd263	0.15412287
11	0x3e0b82f7	0.13624178
12	0xbd91fc40	-0.07128191
13	0x3d45a4bd	0.04825281
14	0x3d8d8c79	0.06911559
15	0xbdc73aa1	-0.097279795
16	0x3dfdff98	0.12402266
17	0xbe293147	-0.16522704
18	0x3dda6631	0.10664023
19	0x3e18e245	0.14930065
20	0x3e293369	0.16523518
21	0xbd11b83c	-0.03557609
22	0x3d321cc3	0.04348446
23	0xbcf51bd1	-0.02992049
24	0xbe00f1fa	-0.12592307
25	0xbe1aed92	-0.15129688
26	0xbb6b5da1	-0.0035913961
27	0x3dcf4c3b	0.10121962
28	0x3da1ee36	0.07906763
29	0xbda36944	-0.07979062
30	0xbbab4ec3	-0.005227895
31	0x3d3178b1	0.04332799
32	0x3e0dada6	0.13835773
33	0x3d694390	0.0569492
34	0x3e2a8eac	0.16655988
35	0x3da5a6a1	0.080884226
36	0xbd904246	-0.07043891
37	0x3d52cfa6	0.05146756
38	0x3e11a111	0.14221598
39	0xbdc53d80	-0.09630871
40	0xbc60782e	-0.013700528
41	0xbda5ed8d	-0.0810195
42	0xbe061522	-0.13093999
43	0xbdf4fe89	-0.11962611
44	0x3e10fd70	0.14159179
45	0xbe0a5962	-0.1351066
46	0xbe18c194	-0.14917594
47	0x3e0160e9	0.12634625
48	0xbe125939	-0.14291848
49	0x3daa534c	0.08316669
50	0x3dc0eee9	0.094205685
51	0xbd87c7a5	-0.06629876
52	0x3e137562	0.14400247
53	0x3dc758f5	0.09733764
54	0xbadf6bbf	-0.0017045661
55	0xbd064e40	-0.03278947
56	0xbdcf7bba	-0.10131021
57	0x3de0e40f	0.10980999
58	0xbdbdd902	-0.092699066
59	0xbd17394d	-0.03691988
60	0xbda5198a	-0.08061512
61	0xbdc7f44f	-0.09763395
62	0xbdfeed1e	-0.1244757
63	0x3c25e8a2	0.010126265
64	0xbd06cb02	-0.032908447
65	0xbe2bc1ef	-0.16773199
66	0x3e159a2f	0.14609598
67	0x3d797e42	0.060911424
68	0x3e2326d7	0.15932785
69	0xbd19b207	-0.037523296
70	0x3ddf4037	0.1090092
71	0xbe09237b	-0.13392441
72	0xbdea41d0	-0.11438334
73	0x3db9b6ee	0.09068094
74	0xbe2ec904	-0.17068869
75	0xbddcdf02	-0.10784723
76	0x3dcc8ecb	0.09988173
77	0x3c623154	0.013805706
78	0x3da29ce1	0.079400785
79	0xbd0e8217	-0.034792032
80	0xbb766b78	-0.0037600677
81	0x3df62317	0.120184116
82	0x3d441999	0.047875974
83	0x3d73a8f6	0.059487306
84	0x3dff707c	0.124726266
85	0xbdecdf50	-0.11566031
86	0xbd408f3e	-0.047011606
87	0xbc7df60c	-0.015500557
88	0xbe2f227a	-0.17102996
89	0xbda28c62	-0.07936932
90	0xbdba3eac	-0.09093985
91	0xbd9c7172	-0.076388255
92	0x3dda9d78	0.10674566
93	0x3d93b0c4	0.0721145
94	0xbd8e70b3	-0.069550894
95	0xbd78aa0f	-0.060709056
96	0xbce83f9d	-0.028350646
97	0xbe2b3253	-0.16718416
98	0x3c2cdc11	0.010550515
99	0x3d0be9b8	0.03415844
100	0xbdee98a2	-0.11650206
101	0x3e22b9f2	0.15891245
102	0xbe15e953	-0.14639787
103	0xbe06666e	-0.13125011
104	0xbd97f564	-0.074198514
105	0xbdc9aa05	-0.09846882
106	0xbe2d6cd6	-0.16936049
107	0x3d4dee47	0.050276067
108	0x3cfa6cbb	0.030569425
109	0x3e2cd6d9	0.16878833
110	0xbe307c76	-0.17234978
111	0xbe20ba3d	-0.15696044
112	0x3e1e699d	0.15469976
113	0x3cbec756	0.02328841
114	0xbc52dfcd	-0.012870741
115	0xbe2dd6d7	-0.16976486
116	0xbdab1be5	-0.0835493
117	0x3e2fde8a	0.17174736
118	0xbdcf5fa2	-0.101256624
119	0x3cac8f59	0.021064447
120	0x3e269e8f	0.16271423
121	0x3dbdfbeb	0.09276565
122	0xbdc23587	-0.09482866
123	0x3e20024c	0.15625876
124	0x3de5c253	0.11218705
125	0x3daa6842	0.08320667
126	0x3d1fefcd	0.03904705
127	0x3e1028d5	0.14078076
128	0xbbe804cb	-0.0070806495
129	0x3d4ca56e	0.049962454
130	0xbcb034f3	-0.021509623
131	0x3d9119fa	0.07085033
132	0xbe21eb8b	-0.15812509
133	0xbbae5de2	-0.0053212503
134	0xbdb5b8c9	-0.088731356
135	0x3d3d2936	0.04618188
136	0xbcb6971e	-0.022288855
137	0x3dbe24a8	0.092843354
138	0x3e31856d	0.17336054
139	0x3e0b2330	0.13587642
140	0x3caae239	0.020859824
141	0x3d0d3c23	0.03448118
142	0xbc501096	-0.012699267
143	0xbe19a1c8	-0.15003121
144	0xbdd64be5	-0.104636945
145	0xbc238858	-0.009981237
146	0xbc67db13	-0.014151352
147	0x3d602075	0.054718453
148	0x3dc13f0c	0.09435853
149	0xbdb64783	-0.089003585
150	0xbe076072	-0.13220385
151	0x3d849dfc	0.06475446
152	0xbdd0d997	-0.10197752
153	0xbc2e4c07	-0.0106382435
154	0xbe038252	-0.12842682
155	0x3c9a7361	0.018853845
156	0xbe164552	-0.14674881
157	0x3ddceae8	0.10786992
158	0xbdf2f563	-0.1186321
159	0xbe0425d7	-0.1290506
160	0xbe225400	-0.15852356
161	0xbe26a03e	-0.16272065
162	0xbbf3b3da	-0.0074372115
163	0xbe0347cd	-0.12820359
164	0x3d988708	0.0744763
165	0x3e181a63	0.14853816
166	0x3d4a98fa	0.049462296
167	0xbcee37e5	-0.029079387
168	0x3de0923c	0.10965392
169	0x3e2e8920	0.17044497
170	0xbe17a032	-0.14807203
171	0xbda80959	-0.08204908
172	0xbd91dc08	-0.07122046
173	0x3dc99c14	0.09844223
174	0xbd82dda0	-0.06389928
175	0xbda2d808	-0.07951361
176	0xbe181452	-0.14851502
177	0xbd3ccab4	-0.04609175
178	0x3e0c8055	0.1372083
179	0xbc519bf2	-0.012793528
180	0xbde1aac4	-0.11018899
181	0xbe307b36	-0.17234501
182	0x3daaf183	0.08346846
183	0x3e06fa3a	0.13181391
184	0x3dddae6f	0.10824286
185	0xbdbaf067	-0.09127884
186	0x3e105de0	0.1409831
187	0x3e1c263e	0.15248963
188	0x3de9e682	0.11420919
189	0xbdb31bda	-0.08745547
190	0x3c895910	0.016766101
191	0xbdd63ccb	-0.10460814
192	0x3d8942dd	0.06702206
193	0xbdf4b1bd	-0.119479634
194	0xbdffc0ed	-0.124879695
195	0x3e17f9af	0.1484134
196	0x3d9cfede	0.076657996
197	0xbd90ed7c	-0.070765465
198	0x3dae6231	0.08514822
199	0xbd387289	-0.045031104
200	0xbdc8519d	-0.097811915
201	0x3e0394ad	0.12849684
202	0x3e03c562	0.12868264
203	0x3df37da9	0.11889202
204	0x3c89e6ed	0.016833747
205	0x3e0d49c4	0.1379767
206	0xbd95c8b0	-0.07313669
207	0x3daf9e67	0.08575135
208	0x3e325eaa	0.17418924
209	0x3df0ae34	0.117519766
210	0xbe1f06cf	-0.15529941
211	0x3e1acf86	0.15118226
212	0xbe0c9c88	-0.13731587
213	0x3c449f38	0.012000851
214	0xbd3f714e	-0.046738915
215	0xbe1fbea6	-0.1560007
216	0x3e295d2b	0.16539447
217	0xbe0f19fd	-0.13974757
218	0x3d794b15	0.06086262
219	0xbcf1f8a1	-0.0295375
220	0xbe051199	-0.12994994
221	0x3ce152f1	0.02750537
222	0xbd98430d	-0.07434664
223	0xbdae5be2	-0.08513619
224	0x3d8e7df0	0.069576144
225	0xbd20e7bb	-0.039283495
226	0x3e173228	0.14765227
227	0x3e0a597f	0.13510703
228	0x3e10d631	0.14144208
229	0xbd95b648	-0.07310158
230	0xbd6ff90a	-0.05858711
231	0xbde9892c	-0.114031166
232	0xbd6a8b88	-0.057261974
233	0x3d946b99	0.07247085
234	0xbe1410f6	-0.14459595
235	0xbe0529e6	-0.13004264
236	0xbd7b79b2	-0.061395355
237	0x3d63eb34	0.05564423
238	0x3db6aa7f	0.08919238
239	0x3df79a93	0.120900296
240	0x3e15e20d	0.14637013
241	0x3d97a7d7	0.0740506
242	0x3db35fae	0.08758484
243	0x3da1b1da	0.078952506
244	0x3d6b317a	0.05742023
245	0xbcdd9694	-0.02704934
246	0xbbe73405	-0.0070557618
247	0x3d9dd86c	0.07707295
248	0xbe06037a	-0.13087264
249	0x3d46165c	0.048361167
250	0xbcf17fb7	-0.029479844
251	0x3d6a1ca0	0.057156205
252	0x3c166870	0.009180173
253	0x3db38b03	0.08766749
254	0x3dc7fdc4	0.09765199
255	0x3cba0da7	0.022711588

fc2.bias f4 [16]
0	0xbde554d2	-0.11197819
1	0x3df539b1	0.119738944
2	0xbd497bc5	-0.0491903
3	0xbdd1604c	-0.10223445
4	0x3caeab88	0.021322027
5	0x3da3dabc	0.08000705
6	0xbc348896	-0.011018893
7	0x3defd850	0.1171118
8	0x3ddcb7e3	0.10777261
9	0x3dae81f8	0.08520883
10	0xbdf4ebff	-0.11959075
11	0x3cff5351	0.031167658
12	0x3d80d1d6	0.06290023
13	0xbd98c556	-0.07459514
14	0x3cd98185	0.026551018
15	0x3e17802d	0.14794989

fc3.weight f4 [1, 16]
0	0xbe4ace8c	-0.19805354
1	0x3e5336b6	0.2062634
2	0xbe698568	-0.22804797
3	0xbd29eaa0	-0.04148352
4	0xbe376c50	-0.17912412
5	0x3e418192	0.18897083
6	0xbe28e668	-0.16494143
7	0xbda8fdf8	-0.08251566
8	0x3e7edee2	0.2488971
9	0x3e3f40a2	0.18676999
10	0x3d21eb20	0.039530873
11	0xbe72b566	-0.2370201
12	0x3b413f80	0.0029487312
13	0xbe4a209e	-0.19739005
14	0x3ca59530	0.02021274
15	0xbe26b8de	-0.16281459
