DRL_Nets6/critic_target_8_793.pth (torch, 10432 bytes, 5 tensors)

fc1.weight f4 [32, 42]
0	0x3d9b8c53	0.07595124
1	0x3c54882b	0.012971918
2	0x3e4b6181	0.19861414
3	0xbd1ce4d0	-0.03830415
4	0xbc0db52c	-0.008649152
5	0x3d849352	0.064734116
6	0xbccc1b2c	-0.0249153
7	0x3e6560f9	0.22400273
8	0x3e4199f5	0.18906386
9	0xbda8d0e9	-0.082429715
10	0x3e0fac79	0.14030637
11	0x3e297f24	0.16552407
12	0xbe0e961b	-0.13924448
13	0xbd1453f7	-0.036212888
14	0x3d5ecc59	0.0543941
15	0x3d51a002	0.051177986
16	0x3df2a752	0.1184832
17	0xbd780184	-0.06054832
18	0xbca1e0eb	-0.01976057
19	0x3e123ceb	0.14281051
20	0x3e337722	0.17525914
21	0x3db737e2	0.08946206
22	0x3d9fc5ea	0.07801421
23	0x3e45d223	0.19318442
24	0xbdf7b5d5	-0.120952286
25	0x3e48d32e	0.19611809
26	0x3ec6f3db	0.38857922
27	0xbe2b809f	-0.16748284
28	0x3e72dbdc	0.23716682
29	0x3e0a0bb9	0.13481034
30	0x3c164f26	0.009174144
31	0xbc33eee6	-0.010982251
32	0x3f05f3aa	0.52324927
33	0x3ec408e0	0.3828802
34	0x3ef9325d	0.48671237
35	0x3f0fd626	0.5618614
36	0x3e4046ee	0.18777058
37	0x3ec04b9e	0.3755769
38	0x3f18092a	0.59388983
39	0x3edef66e	0.43547386
40	0x3f314e70	0.6926031
41	0x3f09f7ca	0.5389372
42	0x3e130f6e	0.14361355
43	0xbbfdce4c	-0.00774554
44	0x3d06c975	0.03290697
45	0x3d166411	0.036716525
46	0x3e457183	0.19281583
47	0xbd1322d5	-0.03592189
48	0x3de10082	0.10986425
49	0x3d5b7a71	0.053583566
50	0x3e8821a9	0.2658818
51	0x3d6cd404	0.05781938
52	0xbd15ac0b	-0.036541026
53	0x3e7e20f2	0.24817255
54	0xbc0f9ec9	-0.008765885
55	0x3c3eaa43	0.011637273
56	0x3e3ec2ae	0.18628952
57	0xbde1803a	-0.110107854
58	0x3d40a1f3	0.047029447
59	0x3d941d05	0.072320975
60	0x3d4a841b	0.04944239
61	0x3e1d8e84	0.15386397
62	0x3d6e0d1e	0.05811798
63	0xbdb221f3	-0.086978815
64	0x3e012513	0.12611799
65	0xbe054449	-0.1301433
66	0x3cdd60cf	0.027023701
67	0x3e352af4	0.17692167
68	0x3e5dade4	0.21648365
69	0xbece3b4d	-0.40279618
70	0x3e1d9eb8	0.15392578
71	0x3e807abd	0.25093642
72	0xbcd81e0b	-0.026381513
73	0x3d1f68bb	0.038918238
74	0x3d2d9a7c	0.042383656
75	0x3df3a483	0.118966125
76	0x3df2a591	0.118479855
77	0x3ea8b599	0.32951048
78	0x3d8d3598	0.06894988
79	0x3de8d073	0.113678835
80	0x3e50d549	0.20393862
81	0x3e5e0c24	0.21684319
82	0x3f2bb5d0	0.670743
83	0x3ebf625c	0.3737973
84	0x3ea2c6b0	0.31792212
85	0x3ce3588d	0.027752185
86	0x3e4ac502	0.19801715
87	0x3dd84c53	0.10561433
88	0x3dae222f	0.08502614
89	0x3df7436b	0.12073406
90	0x3cf6a46c	0.0301077
91	0x3e0290cd	0.1275055
92	0xbcd123b7	-0.025529725
93	0x3e0f422e	0.1399009
94	0x3e440d08	0.19145596
95	0x3e2b6a23	0.16739707
96	0x3d81076b	0.06300243
97	0x3bdc6e96	0.00672705
98	0xbcd28b45	-0.025701175
99	0x3e09066e	0.13381359
100	0xbc3fb904	-0.011701826
101	0x3dacda36	0.08440058
102	0xbdab35d5	-0.08359877
103	0xbbb0b28f	-0.0053923796
104	0x3e1c39f5	0.15256484
105	0x3d24c4e0	0.040226817
106	0x3e5a8070	0.21338058
107	0x3e3a9b9e	0.18223426
108	0xbc08c686	-0.008348113
109	0x3d829178	0.06375402
110	0x3d979427	0.07401305
111	0xbe67137a	-0.22566023
112	0x3dc98c3e	0.09841202
113	0x3d13f26c	0.036119863
114	0x3e7c9280	0.2466526
115	0x3e29db9f	0.16587685
116	0xbd00498d	-0.031320143
117	0x3cf9fdc8	0.03051652
118	0x3e86fd23	0.26365003
119	0x3e8bc82d	0.2730116
120	0xbae08d73	-0.0017131999
121	0x3cfdaacf	0.030965237
122	0x3e99501f	0.2994394
123	0x3ea55ba8	0.3229649
124	0x3ebe5c60	0.37179852
125	0x3e6376ce	0.22213289
126	0xbe7baacd	-0.24576874
127	0x3dd6e30e	0.10492526
128	0x3e429484	0.19001967
129	0xbdfd97e4	-0.123824865
130	0x3cd50f39	0.026008235
131	0x3e08d94a	0.13364139
132	0x3d89c6a1	0.067273386
133	0x3ab353f3	0.0013681635
134	0x3e295ee2	0.16540101
135	0xbe62524a	-0.22101703
136	0x3e3f33b1	0.18672062
137	0x3dbc13af	0.09183442
138	0xbe35ba8f	-0.17746948
139	0xbc2a54d5	-0.010396202
140	0xbd87d64b	-0.0663267
141	0xbdc2c092	-0.09509386
142	0x3e6395e3	0.22225146
143	0x3e33156c	0.1748864
144	0xbbcc29e1	-0.0062305783
145	0x3ca672fd	0.020318503
146	0x3e300d4f	0.17192577
147	0xbd8c31f4	-0.06845465
148	0x3d41aea7	0.047285702
149	0xbdb59e3b	-0.08868071
150	0x3d94d209	0.072666235
151	0x3e1ed2e4	0.15510136
152	0xbdca22f6	-0.098699495
153	0xbeb36b8a	-0.35042983
154	0x3e71c944	0.23611933
155	0x3e4c7c67	0.1996933
156	0x3d0e168f	0.034689482
157	0xbc8da4ae	-0.01729044
158	0x3ed40385	0.41408935
159	0x3f0b440e	0.5440072
160	0x3f002875	0.5006173
161	0x3e04616c	0.12927788
162	0x3e500a85	0.20316513
163	0x3e9b2139	0.30298784
164	0x3e8c3ac7	0.27388594
165	0x3ede79fd	0.43452445
166	0x3f320b15	0.6954816
167	0x3f0dbd34	0.55366826
168	0x3e880183	0.26563653
169	0xbde5435b	-0.11194488
170	0x3d18e2de	0.037325732
171	0x3dca2d2c	0.09871897
172	0x3e3fcca8	0.18730414
173	0x3dc265e3	0.094920896
174	0x3d114e4a	0.035475053
175	0xbcd13735	-0.02553902
176	0xbd97f357	-0.0741946
177	0x3e99bb4c	0.3002571
178	0x3db97092	0.09054674
179	0x3e446b78	0.19181621
180	0x3d5fb27c	0.054613575
181	0x3d904d0e	0.07045947
182	0x3e609472	0.21931627
183	0x3d99e7f9	0.075149484
184	0x3d8b256b	0.06794246
185	0x3e9fa6f7	0.31182072
186	0xbdaaf105	-0.08346752
187	0x3df71c4b	0.12065943
188	0x3ea11ed3	0.3146883
189	0xbe018d1d	-0.12651487
190	0x3cc60603	0.024172788
191	0x3e1356c3	0.14388566
192	0xbe1a09f4	-0.1504286
193	0x3dfe213e	0.12408684
194	0x3de64440	0.112434864
195	0x3e0a7f28	0.13525069
196	0x3d4782f2	0.048708864
197	0x3e8ac4d4	0.27103293
198	0x3dd7aa77	0.105305605
199	0x3dc5f88e	0.09666549
200	0xbe2c4792	-0.16824177
201	0x3e7f07f0	0.24905372
202	0xbdefc967	-0.11708336
203	0x3e11ad42	0.14226249
204	0x3e85b7f6	0.26116914
205	0x3e69f70e	0.2284815
206	0x3e556fd1	0.20843436
207	0x3ec70631	0.3887191
208	0x3e97cd81	0.29648975
209	0xbc6d180c	-0.014471065
210	0x3d9675e6	0.07346706
211	0x3e8b9bf3	0.27267417
212	0xbd7c5495	-0.0616041
213	0x3e6607ca	0.22463909
214	0x3da4f41c	0.08054373
215	0xbdb1e9b3	-0.08687153
216	0x3e285d57	0.16441856
217	0x3c9a70b7	0.018852575
218	0x3ce8728e	0.028374936
219	0x3e0b5fb3	0.13610725
220	0x3e189e03	0.14904027
221	0x3db06c41	0.08614398
222	0x3e210d70	0.15727782
223	0x3e316b56	0.17326102
224	0x3e14d95a	0.14536038
225	0x3e25f88b	0.16208093
226	0xbb82a4a3	-0.0039869114
227	0x3e667ce9	0.22508587
228	0x3e4e9d4b	0.2017719
229	0x3e35d7bc	0.17758077
230	0xbdb203d6	-0.08692138
231	0x3e71483b	0.2356271
232	0x3a85022d	0.0010147743
233	0x3df5ce65	0.12002257
234	0x3e0aee0b	0.13567369
235	0x3e26434c	0.16236609
236	0x3e294041	0.16528417
237	0x3e55eb3b	0.20890515
238	0xbd35fb60	-0.044429183
239	0xbd2d118e	-0.04225307
240	0x3c66de30	0.01409106
241	0xbb095e2e	-0.0020960676
242	0x3ebb8802	0.36627203
243	0x3e7c834a	0.24659458
244	0x3dda3efa	0.10656543
245	0x3e5abf0c	0.21361941
246	0x3e721edf	0.23644589
247	0x3ea58182	0.3232537
248	0x3ea7a93e	0.3274631
249	0x3e9aa669	0.30205086
250	0x3e84f10c	0.25965154
251	0x3e81790d	0.25287667
252	0xbed6e29a	-0.41969758
253	0x3e5f7e81	0.21825601
254	0x3de21822	0.11039759
255	0xbe2fb5af	-0.1715915

fc1.bias f4 [32]
0	0x3e3749fb	0.17899315
1	0x3d5b1af7	0.053492513
2	0x3e893744	0.26799977
3	0x3cfe9160	0.03107518
4	0x3df9a137	0.121889524
5	0x3e6961a9	0.2279116
6	0xbbfd8924	-0.0077372957
7	0xbeb92fa5	-0.36169162
8	0xbdd7f1fc	-0.10544202
9	0xbd4ff973	-0.050775003
10	0x3dc439b2	0.09581317
11	0x3e8d72b1	0.27626565
12	0x3ead1b53	0.3380991
13	0xbd92e2c6	-0.0717216
14	0xbe3ffd83	-0.18749051
15	0x3d9e8926	0.07741003
16	0x3db508f7	0.088396005
17	0xbd908282	-0.070561424
18	0x3e7203ac	0.23634213
19	0xbda73606	-0.08164601
20	0xbd7e041d	-0.06201564
21	0x3e0ac301	0.1355095
22	0xbe5cd506	-0.21565637
23	0x3e57e46e	0.21083233
24	0x3c83dab1	0.016095491
25	0xbe0f6375	-0.14002784
26	0x3e25da7f	0.16196631
27	0x3ea6eed6	0.32604092
28	0xbd85eee6	-0.06539707
29	0xbd9cea2e	-0.07661854
30	0x3e8bbf91	0.2729459
31	0x3e28a568	0.16469347

fc2.weight f4 [16, 32]
0	0x3e842603	0.2581025
1	0x3e782398	0.24232328
2	0xbd24dd3e	-0.040250055
3	0x3e0eaa05	0.13932045
4	0xbe113f19	-0.14184226
5	0x3ea59906	0.3234331
6	0x3e8b5c35	0.27218786
7	0x3f275f4e	0.653798
8	0xbe2ba605	-0.1676255
9	0x3e88dc1b	0.26730427
10	0x3ec24b6e	0.37948173
11	0x3e4bd5ad	0.1990573
12	0xbefe79bd	-0.49702254
13	0x3e89cb6d	0.26913014
14	0x3ec2858a	0.37992507
15	0x3d297b2e	0.04137724
16	0xbd5129c1	-0.05106521
17	0x3eedb229	0.46424988
18	0xbd4c5b62	-0.049891837
19	0x3ed07210	0.40712023
20	0x3e3b8c16	0.18315157
21	0x3d86507e	0.065583214
22	0x3e886b29	0.26644257
23	0x3da7673f	0.081739895
24	0x3e39175e	0.1807532
25	0x3ed717ba	0.4201029
26	0x3f264e15	0.64962894
27	0x3f82bb40	1.0213394
28	0xbc74cdf3	-0.01494168
29	0x3e38e65e	0.18056628
30	0x3e24f989	0.16110815
31	0x3e8327c7	0.25616285
32	0x3e4977a1	0.19674541
33	0xbdc8878b	-0.09791478
34	0x3e99c2b0	0.30031347
35	0x3daed24b	0.08536204
36	0x3ee30c98	0.44345546
37	0x3d7b50cc	0.06135635
38	0xbe742474	-0.23842031
39	0xbe5474a8	-0.20747626
40	0x3d58212f	0.05276602
41	0xbe1077df	-0.14108227
42	0xbc0cbb0b	-0.008589516
43	0x3eaa2c9f	0.33237168
44	0x3e8d40eb	0.2758859
45	0xbe06adc5	-0.13152225
46	0xbe46e295	-0.19422372
47	0x3e7eff81	0.24902155
48	0x3dafda66	0.08586578
49	0xbe65d20b	-0.22443406
50	0x3ebb2875	0.36554304
51	0xbefa39ca	-0.48872215
52	0xbe05daac	-0.13071698
53	0xbd7f548c	-0.06233649
54	0xbe422bde	-0.18962047
55	0x3e0bc0fe	0.1364784
56	0x3d9c9708	0.076459944
57	0xbea2ac2f	-0.3177199
58	0xbedd5817	-0.4323127
59	0xbf376389	-0.71636254
60	0x3e3776e2	0.17916444
61	0xbe4a224a	-0.19739643
62	0x3e783336	0.24238285
63	0x3e2f80c5	0.17138965
64	0xbe30bc30	-0.17259288
65	0x3d8d2d0c	0.06893358
66	0xbe112896	-0.14175639
67	0xbdc255a9	-0.09488995
68	0xbe0199c5	-0.12656315
69	0xbde48d0b	-0.11159714
70	0x3d43721a	0.047716238
71	0xbd4a6085	-0.049408454
72	0xbe08c8e2	-0.1335788
73	0x3daeaff6	0.08529656
74	0xbd89081d	-0.066910006
75	0x3d146af5	0.036234815
76	0xbdc96709	-0.098341055
77	0xbe17811e	-0.14795348
78	0xbe003297	-0.12519298
79	0xbe375d10	-0.17906594
80	0xbdaaa68c	-0.083325475
81	0x3b96df16	0.0046042306
82	0xbde47023	-0.11154201
83	0xbe0a9f25	-0.13537271
84	0xbdec7238	-0.11545223
85	0xbcf0fb14	-0.029416598
86	0x3cabf716	0.020991843
87	0x3d61d1d2	0.05513174
88	0x3e108b8d	0.14115734
89	0xbdd8648a	-0.10566051
90	0xbe1a9884	-0.15097243
91	0x3dfb2c73	0.122643374
92	0x3e072d35	0.13200839
93	0xbe2d565d	-0.16927476
94	0x3e1f7a35	0.15573962
95	0x3dea6dba	0.1144671
96	0x3ea520ed	0.32251683
97	0x3dca4ec8	0.098783076
98	0x3e2cd46c	0.16877908
99	0x3d999266	0.074986264
100	0xbe5b1b73	-0.2139719
101	0xbd3235d3	-0.043508362
102	0x3ef52964	0.4788314
103	0x3e992c25	0.29916492
104	0x3dcb86bb	0.09937807
105	0x3e8f8168	0.28028417
106	0x3e49d61b	0.19710581
107	0x3d05a01a	0.032623388
108	0xbd2fdcec	-0.042935297
109	0x3e84e0d5	0.25952783
110	0xbed262da	-0.41091043
111	0x3e1ed6be	0.15511605
112	0xbdbc0607	-0.09180837
113	0x3ddb70d8	0.107148826
114	0xbe51ee7c	-0.20501131
115	0x3ef0af67	0.4700882
116	0x3e97b4b3	0.2963005
117	0x3dbd010d	0.09228716
118	0x3e99cba3	0.30038175
119	0x3e790646	0.243188
120	0x3e39c987	0.18143283
121	0x3ef81a84	0.4845773
122	0x3ef9fa9e	0.48824018
123	0x3f100a28	0.562655
124	0x3e8706d0	0.26372385
125	0x3eebb1c4	0.46034062
126	0x3dbf1522	0.09330203
127	0x3e878132	0.26465756
128	0x3da5951d	0.08085082
129	0x3c480723	0.012208733
130	0xbda007eb	-0.0781401
131	0x3dd21491	0.10257829
132	0xbed24192	-0.4106565
133	0x3ddd5e98	0.10809058
134	0x3f06e925	0.526995
135	0x3f19cd15	0.60078555
136	0xbdc7c93b	-0.097551785
137	0x3e61e52e	0.22060081
138	0x3e793d86	0.24339876
139	0x3d91f2df	0.07126402
140	0xbe45d443	-0.19319253
141	0x3e21a807	0.15786754
142	0xbf12561f	-0.5716266
143	0x3e4b06d5	0.19826825
144	0x3d4f2491	0.05057198
145	0x3e83ab03	0.2571641
146	0xbe520da5	-0.20513017
147	0x3f2521b3	0.64504546
148	0x3d808fe3	0.06277444
149	0x3e98cc8d	0.2984356
150	0x3e8e5839	0.27801684
151	0x3d8de066	0.06927566
152	0x3deb6808	0.11494452
153	0x3e813e5d	0.25242892
154	0x3f3d04e7	0.73835605
155	0x3f0097e6	0.5023178
156	0x3e6e31a1	0.2326112
157	0x3f1ece77	0.6203379
158	0x3e8a0713	0.26958522
159	0x3ebda3bd	0.37038985
160	0x3e64082b	0.22268741
161	0x3e37d482	0.17952159
162	0x3e079e62	0.13244012
163	0x3ec13f61	0.37743667
164	0x3ee1ab47	0.44075987
165	0x3d70eda8	0.058820397
166	0xbe86d52c	-0.26334512
167	0xbee17c0a	-0.44039947
168	0xbc87ee7e	-0.016593214
169	0x3d87d52b	0.066324554
170	0x3cd2ad3d	0.025717372
171	0x3e6e4311	0.23267771
172	0x3e7ad3db	0.24494879
173	0xbe7f48cc	-0.24930114
174	0xbe205a11	-0.15659358
175	0x3e7d3ec8	0.2473098
176	0xbd09e46d	-0.03366511
177	0xbe8329a9	-0.25617722
178	0x3eba5ab5	0.3639733
179	0xbed1c1e9	-0.40968254
180	0xbe9da0d9	-0.3078678
181	0x3dd6cd42	0.104883686
182	0xbf132b05	-0.5748752
183	0x3ec502af	0.3847861
184	0xbe0c3159	-0.136907
185	0xbe81c0d5	-0.25342432
186	0xbeeaca1e	-0.45857328
187	0xbf09d699	-0.53843075
188	0xbdd50b06	-0.10402493
189	0xbdff1588	-0.12455279
190	0x3e7c7bc9	0.24656595
191	0x3e54110c	0.20709628
192	0x3e4c07a4	0.1992479
193	0x3d85ffbc	0.06542918
194	0x3d1659f6	0.036706887
195	0xbe0d4709	-0.13796629
196	0xbdc13b89	-0.094351836
197	0x3c30fa05	0.010801797
198	0x3f0fc5e5	0.5616134
199	0x3f1e2c9d	0.61786824
200	0xbc17efe9	-0.009273508
201	0x3e5ec1f8	0.2175368
202	0x3df819bf	0.12114286
203	0x3d8aa180	0.06769085
204	0x3d8accf5	0.06777374
205	0x3de00fd3	0.10940518
206	0xbef0aa68	-0.4700501
207	0x3e3094b0	0.1724422
208	0x3c7c20fc	0.015388723
209	0x3e0c0383	0.13673215
210	0xbe1d5d64	-0.15367657
211	0x3f1f8b04	0.62321496
212	0x3e99ee33	0.30064544
213	0x3dc13f36	0.09435885
214	0x3ef9e8dd	0.48810473
215	0x3e123b80	0.1428051
216	0x3e8521f4	0.26002467
217	0x3e8b32cd	0.27187195
218	0x3ebfc0dc	0.37451828
219	0x3f1d8bea	0.61541617
220	0x3ea463c7	0.32107374
221	0x3eacc22f	0.337419
222	0x3e12dce7	0.1434208
223	0x3e87080a	0.2637332
224	0x3e72b39c	0.23701328
225	0x3d035b8d	0.03206973
226	0x3eb44c19	0.35214308
227	0x3ec46eb5	0.38365713
228	0x3e683d08	0.22679532
229	0x3cc73c23	0.024320668
230	0xbea043c7	-0.3130171
231	0xbecceb45	-0.40023246
232	0x3d2615c1	0.04054809
233	0x3e68aca6	0.2272211
234	0x3dcf1dfb	0.1011314
235	0x3e93298b	0.28742632
236	0x3f0cc477	0.5498728
237	0xbe94fd0e	-0.29099315
238	0xbd13b047	-0.036056783
239	0x3e46d58d	0.194174
240	0x3dc86218	0.09784335
241	0xbf18eef1	-0.59739596
242	0x3e99de45	0.3005239
243	0xbf1f2c06	-0.6217655
244	0xbea0b265	-0.31386104
245	0xbd0a102b	-0.033706825
246	0xbefc1f15	-0.49242464
247	0x3ed51fd5	0.41625848
248	0xbd5b9d35	-0.05361672
249	0xbdc01b59	-0.09380216
250	0xbe88a22f	-0.26686236
251	0xbeff12de	-0.49819082
252	0xbda97293	-0.082738064
253	0xbee08d54	-0.43857825
254	0xbb392b23	-0.0028254471
255	0x3e791f72	0.24328402

fc2.bias f4 [16]
0	0x3d627960	0.055291533
1	0x3dcde0e6	0.100526616
2	0x3db3061f	0.08741402
3	0x3c150e6a	0.009097675
4	0xbde64469	-0.11243517
5	0x3e0cc0ea	0.13745466
6	0xbcd5e2b2	-0.026109073
7	0x3d13e61e	0.03610813
8	0x3dc706a9	0.09718067
9	0x3d3bebea	0.045879282
10	0x3dc1ccbb	0.09462877
11	0x3ebeef77	0.37292072
12	0xbd6ea7c3	-0.05826546
13	0xbddfeb1a	-0.10933514
14	0x3cc64223	0.024201458
15	0xbe601da2	-0.21886304

fc3.weight f4 [1, 16]
0	0xbeeb0ac5	-0.45906654
1	0x3ea4d3e9	0.32192925
2	0x3c3f208f	0.011665477
3	0xbefe8dbe	-0.49717516
4	0xbf023acc	-0.50870967
5	0x3f08a35a	0.53374255
6	0xbe974479	-0.29544428
7	0x3f145dd7	0.5795569
8	0x3f0b7b4c	0.5448501
9	0x3f13aabf	0.5768241
10	0xbf10113c	-0.562763
11	0xbf6f3cef	-0.9345235
12	0x3dd477d9	0.103744216
13	0x3d815cd4	0.06316534
14	0xbeeae8fa	-0.45880872
15	0xbef92890	-0.4866376
