DRL_Nets6/critic_2_600.pth (torch, 10362 bytes, 5 tensors)

fc1.weight f4 [32, 42]
00000000: 55e3 0ebf 916a ee3e 1ffd c1bc 7e4b 37bd
00000010: dcb2 7cbd 5607 a0be 3e6f fb3d 6e86 cc3d
00000020: a51e cebd 258c 8c3e 6b20 3dbd 8942 aebe
00000030: b1ce 833d af8f 9bbc 62d3 64bd 1692 cebc
00000040: 5bc3 313b 8d15 87bc 130d 35be f8b6 373e
00000050: b498 0bbe f2ec 013e 212c 803e 7086 cabd
00000060: 74b9 85bc 9414 b13d 055c 0abe 94a1 e0bd
00000070: 9d25 623d c8da a43d 3fb7 0b3d 051d 943d
00000080: db8c bf3c 5b7c 28be 3e28 b23e 852a ad3d
00000090: 2473 213e 3dab 943e c3ef 5c3c 7c78 913d
000000a0: ba12 d4bd e19b 873e 97d0 8b3d e0c0 3b3e
000000b0: bc53 b1be 788b 813e d200 873b 8c33 1abe
000000c0: 211e 913e 1a36 c83d c481 4cbf 2d8d 613f
000000d0: 2f4e 9b3b 464d 4fbe 7978 5b3e a75a ea3d
000000e0: a8f3 87bd fc3a 3f3e 24ea 1d3e 8ca7 403e
000000f0: 313c c7bd bbdb c8bc caa3 46be 4a4d 963e
00000100: 263b 0c3e 5b58 b23d 29cd a5bd ba2b 473e
00000110: d003 123e 53db a5bd a8db f63d 8390 afbd
00000120: 3f79 623e 8325 4f3e c91a 88be 0121 c9bc
00000130: 711a 97bf 361e a5be 5b50 c13d 0340 153e
00000140: c632 6abe a400 a03e 919c 243e 1a82 293d
00000150: 9fe2 c5bd d824 ebbd 5f71 883d 4647 353c
00000160: 1039 5ebd 7fb5 c63d fcdc dd3c 2402 ef3c
00000170: 7d5e cebd e428 393d 07e1 0dbe e5e8 9f3d
00000180: 4d60 c5bd d3fb 1ebd 2ae9 14bd 610a 6fbd
00000190: 4eb7 1dbe 6a85 1cbe 2ec3 05be c81b 74bd
000001a0: 7ce3 1cbe 7744 513d a151 9ebc 81e8 0f3d
000001b0: 862a 533d 4249 a53d 0b92 01be 87b1 1e3d
000001c0: 6b2e c2bd b5c0 49bd 28d8 b53d 4678 b83c
000001d0: 7298 d13d b2f1 d63d 40c1 af3d e5c7 6c3d
000001e0: a687 f3bc 88da f2bd d5b4 cd3d 697d f1bc
000001f0: 34e8 fdbd 6ff1 09be 7663 0fbe f52f 083e
00000200: a769 20be 53b3 08be 5347 2cbd 22a3 843c
00000210: 809e 53bc 95f0 98bd a1ca 863e ada6 cabe
00000220: 9c9a 283d f696 b63d 7404 16be 6315 313d
00000230: 6034 4d3d 1a8c 10be b6f6 a13c d6ca 01be
00000240: 432d 4dbe 74d9 8ebd 37e7 9ebd 584c 483d
00000250: 68ea a9bd c746 953d 78cc e0bd 1006 793d
00000260: 3c16 32be 3360 18be 5281 113e e0e9 933b
00000270: c8fb e73d 8f31 03be 24ef 91bc 0b82 22bc
00000280: 1231 673f 869e 243e a119 9f3c f2b8 913d
00000290: b2fd 30bd ba00 203d 596b e93c 84fc a2bd
000002a0: da64 f1bd 49c2 073f ae9c 84be 0af7 b33e
000002b0: bb3a 6e3e 3d06 753a b873 f93d e60e 5c3e
000002c0: 6836 263d dd96 933d c3a9 233e 4199 babd
000002d0: cf93 86bc 652a 703e b460 b43b c58d 89bc
000002e0: c734 b63d dc2c f13d 8ea9 b73c f9a1 533e
000002f0: f1f4 573d 42e4 3b3d 796b 553e 4d1c 1cbd
00000300: 3cfd cd3d a266 b03d cc0c c73d f14b d5bc
00000310: 7d95 213e 92ff cb3d 3da1 a0bd 6ce1 3f3e
00000320: 38d0 cfbc 941f 32bd 00b9 0a3e 4eb1 ed3d
00000330: afb4 0c3e bc3d 113e e5c2 4dbc f116 8f3d
00000340: a9b2 83bd b94e 7c3d ba38 a3be 75cf 3d3e
00000350: b85c a0bd 0100 21be 206f dbbb 6dda cebd
00000360: e5bb df3d 631e 333a 264f 533e 3c3c cdbe
00000370: 801c 97ba 9754 11be f9e5 6fbd 5164 14be
00000380: f1e1 16be 40b9 d5bc 5ba9 10be ae24 a2bd
00000390: 16dd 82bc 95c5 f0bd 20df bfba 8d42 b73d
000003a0: 0e0b 02be 9c2b 1bbe b78f b73d a286 adbd
000003b0: 5545 56be b0a9 28bd 4702 c23c 7e3b a0bd
000003c0: 2915 19be a64b 8abd 6053 ce3e 65d3 97bd
000003d0: d8e8 823f 49de b53d 8256 05be 35b8 85be
000003e0: 90aa aabc a255 9abd f9bf ecbd 6fc6 e3bd
000003f0: 9187 2bbd 2cff c63e b5fd d4bd bc17 373c
-0.5581563 0.4656568 -0.023680268 -0.04474973 -0.06169401 -0.31255597 0.12277077 0.09986578
-0.10064439 0.27450672 -0.046173494 -0.34035137 0.06435908 -0.018989412 -0.055865653 -0.025216144
0.0027124498 -0.016489768 -0.17680769 0.17940891 -0.1363247 0.12688044 0.25033668 -0.09888923
-0.016323783 0.08646503 -0.13511665 -0.109683186 0.055211652 0.08049542 0.034110304 0.072320975
0.023382595 -0.16453688 0.34796327 0.084553756 0.15766579 0.29036894 0.013484898 0.07103059
-0.10355134 0.26486114 0.06826895 0.18335295 -0.34634197 0.2530172 0.004119971 -0.15058726
0.283433 0.09775944 -0.79885507 0.8810604 0.004739545 -0.20244321 0.21432675 0.11443072
-0.066382706 0.18674845 0.15421349 0.18813914 -0.097282775 -0.024518838 -0.19398418 0.29355842
0.13694438 0.08708259 -0.08095772 0.19450274 0.14259267 -0.080984734 0.12053615 -0.08572485
0.22116564 0.20229153 -0.26582935 -0.02455187 -1.1804944 -0.32249612 0.09439155 0.145752
-0.22870931 0.3125049 0.1607535 0.04138384 -0.09662365 -0.11481637 0.06662249 0.011064356
-0.054253638 0.097025864 0.027082913 0.029175825 -0.10076616 0.045205012 -0.13855372 0.07808093
-0.096375085 -0.038814377 -0.036355175 -0.058359507 -0.15401956 -0.15285268 -0.13062736 -0.059596807
-0.15321153 0.051090684 -0.019326033 0.035133842 0.051554225 0.080706134 -0.12653367 0.038743522
-0.0948151 -0.049256045 0.08879119 0.022518288 0.10234155 0.104953185 0.085817814 0.05780782
-0.029727768 -0.11858088 0.100442566 -0.029478746 -0.12397805 -0.13471006 -0.14002785 0.13299544
-0.15665303 -0.13349657 -0.042060208 0.016191069 -0.012916207 -0.074677624 0.2632647 -0.3958029
0.041163072 0.08915512 -0.14650136 0.043233287 0.050098777 -0.14115945 0.019770961 -0.12675032
-0.20036797 -0.0697507 -0.077589445 0.048900932 -0.082966626 0.0728889 -0.10976499 0.060796797
-0.17391294 -0.14880447 0.14209488 0.004513964 0.1132732 -0.12811874 -0.017814226 -0.0099187
0.9030925 0.16076097 0.0194214 0.07115354 -0.043210693 0.039063193 0.02849357 -0.0795832
-0.11786814 0.5303083 -0.25900787 0.35149413 0.23264591 0.0009346938 0.12180275 0.21490058
0.04057923 0.07206509 0.15982728 -0.09111262 -0.016427903 0.23453672 0.005504692 -0.016791234
0.08896785 0.11776134 0.022419717 0.20667256 0.05272383 0.04587198 0.20841779 -0.038112927
0.10058066 0.08613326 0.09719238 -0.026037188 0.15779682 0.099608555 -0.07843254 0.18738335
-0.025367841 -0.043487146 0.13547134 0.11606084 0.137408 0.14183706 -0.0125586735 0.069867976
-0.06430561 0.061598513 -0.31879216 0.1853617 -0.07830185 -0.15722658 -0.0066965967 -0.10100255
0.1092451 0.0006832836 0.20635661 -0.40085018 -0.0011528879 -0.14192425 -0.05856893 -0.14491393
-0.14734627 -0.02608931 -0.14127104 -0.07917152 -0.015974563 -0.11756436 -0.001463864 0.089482404
-0.1269953 -0.15153354 0.08962958 -0.08472945 -0.20924886 -0.04117745 0.023682727 -0.07823847
-0.14949478 -0.0675271 0.40297985 -0.07413367 1.0227308 0.08880288 -0.13021281 -0.261171
-0.020833284 -0.075358644 -0.115600534 -0.111218326 -0.041877333 0.38866556 -0.10399953 0.011175092

fc1.bias f4 [32]
00000000: 0152 09be 1fd7 163e af9a ebbd ad4d 7ebd
00000010: 75a8 2abd 3b49 e3bd 5c11 6f3e 2712 363e
00000020: ce3c 0a3c 0389 153d 643c 8bbd 27b3 343e
00000030: 957a bc3d 6696 d0bd 38bb 62be 6210 923e
00000040: c852 8f3b 5928 34bb fa41 003e 1c03 853e
00000050: 41a7 133e 38ba 213d f469 0c3e 6cfc 903a
00000060: 557d b43d 5235 9f3d dc27 d63b f035 603e
00000070: e031 78be 3670 05be 3e40 1dbd a730 3e3e
-0.13410188 0.147305 -0.11504113 -0.062085796 -0.04166456 -0.11097952 0.23346466 0.17780362
0.0084373485 0.036507618 -0.06798628 0.17646466 0.09203068 -0.10184936 -0.22141731 0.28528124
0.004373882 -0.002748987 0.12525168 0.25978935 0.14419271 0.039484233 0.13712293 0.0011061556
0.08812968 0.07773842 0.0065355133 0.21895576 -0.24237776 -0.13031086 -0.038391344 0.18573247

fc2.weight f4 [16, 32]
00000000: 38d4 973d c6c8 b8be d593 973d e7d2 28be
00000010: 204d 143c f951 08bd df37 533e 1540 2b3e
00000020: 91e9 26bd 582c 653e a099 d83d 50a0 d43c
00000030: 3902 ee3d 5a4a ffbc cc76 34be 35f4 e2bd
00000040: 6624 fe3c 1110 67bd 6032 08bf e4d4 19be
00000050: d048 1f3e ab5c 063e 6ffd abbe ade3 7d3c
00000060: e620 0d3e 44c3 993c abb1 f5bd 496e 783e
00000070: 5a4b 7fbe 0f47 bc3c 1c84 a83d ff9e 8f3e
00000080: 2ace b53e dd1e 383e 4b68 c73d 6138 923e
00000090: 7043 a93e c0e8 7f3e edd1 293e feaf 923d
000000a0: 444b 2a3f 6b8e 023f 3836 cc3d 108e 583e
000000b0: a224 5a3e ea32 4a3e cc50 e63e 07fb af3e
000000c0: f23f fa3e 9f24 bc3d fb30 34be e500 f8be
000000d0: 9b83 7dbe 1d69 b43e b448 763f 3d09 21be
000000e0: 0eaa da3e 0d34 513e 5da1 e3bd 1bb1 c63e
000000f0: 1fc4 243f e930 3c3e 18e9 9dbd 541e bfbe
00000100: c9d0 1fbf 8cd9 a33e a547 23be 819b 9a3d
00000110: 7665 9a3c 9038 e8bd d713 97bd 713d 233b
00000120: 0d21 34bd f7ab 803d 2e3d 3dbd 6f53 953e
00000130: 4cb6 50bc c8f6 19bd ccea 2dbf 73b5 8d3e
00000140: 133e 87be 8eec e2bd a22b 913d 3289 ab3e
00000150: d4da 613e 7c02 95bd 9d2e 02bd c4f1 ffbd
00000160: e017 753e c72d 81bd adf8 623e e35f 2b3d
00000170: b55c 03bf a9d6 363e f360 06be 4479 c63e
00000180: b377 6cb6 6ec9 14bf 9e32 edbd c8f3 123e
00000190: 7e40 2c3e ecdc bf3e 4c4c 2f3e 1331 88bc
000001a0: ad18 e63e c33b c0bd 4d37 2b3d 9181 4f3e
000001b0: 2645 5d3c 75f6 903e 461c 31bf a677 00bc
000001c0: f48b af3e 2943 14be d12c cf3e f68f ad3e
000001d0: f07f 80be f50a c33e b328 bf3d b4f4 17bc
000001e0: c503 933d 056e 8d3d ff6a 683d 9c02 4c3d
000001f0: 5f95 dd3e dca9 a3bc 0e30 a13c 58c3 b3be
00000200: 4cba 29be e893 ddbd c047 7c3d 466c edba
00000210: a1f8 153c e4e4 333d 4222 9bbd c0aa bebd
00000220: 610a 08be f4c8 03be fad8 013e 868d d7bd
00000230: 7fa3 103e 2e34 a7bd 8598 6f3d 5c92 f9bd
00000240: 2031 c43d ccd6 e5bd 002c 0abe dd82 d3bd
00000250: 55e4 0fbe 6615 27bd 935b 0a3e 8c48 1bbe
00000260: 9dda db3d 83e6 b3bd 7c48 a13d 25d1 7ebc
00000270: 3275 083d 1ed9 0039 fe67 aa3d bae9 b43c
00000280: f2ab 023e 2ab1 3abf daca f6bd 9945 663e
00000290: af8b 6c3e b806 143e 1c14 ccbd 6114 8d3e
000002a0: b86c 2b3f 29ec 903e fd60 883e d9cd 7cbd
000002b0: 5fb3 81bd 5b23 c33c 8384 53bf c1b7 ff3d
000002c0: 5f6b 073c b19e 233e 957c 7d3e 77a9 3e3e
000002d0: 7c75 21bf e98a 8a3e 9172 7dbd ed07 4a3d
000002e0: 93da a93d d33a 383c 471b ca3e f53c 963d
000002f0: 4dc4 053f 3098 1c3e 6c89 d9bd 3327 1dbf
00000300: 59f9 743c e947 2abf 3d73 253e b940 f43d
00000310: c013 643c 243e 0e3e 50ad 74bd 1c16 833e
00000320: 9c18 933e b788 1cbe b29d 943e 9020 3bbc
00000330: 6b9d 163e e62a 043e 5b7e 42bf 84b2 3e3e
00000340: 208e ed3e 4d60 bd3d aa95 c93e c526 bf3e
00000350: f9ed cebe acb3 9e3c cd0b 143e 3faf f9bd
00000360: 1f8e e73d 3f8b b4bd 9e6f 8a3d efe2 733e
00000370: 64ac e23e 79c8 8c3e d448 2a3e 075c 27be
00000380: 6251 903e 8f39 c9be d1b7 273e ff64 b33d
00000390: 0c07 f43c c8eb d43e 9de9 7c3e 56da c93d
000003a0: 957f fd3e 371f d73d d8dd 4b3e 1f38 4d3e
000003b0: 6c53 48bd a345 693e 946d 07bf 4917 88bd
000003c0: 1722 9b3e df10 15bd 9c02 923e 695a 1a3e
000003d0: fada 14bf ecc6 e23d d465 a53d 90e3 62bd
000003e0: 4776 503e fe0e 273e 0250 763e 396f ac3d
000003f0: 6f6b e13e c72b 733e e52e a3bd 551f adbe
0.074135244 -0.36090678 0.074012436 -0.16486703 0.009051591 -0.0332813 0.20626782 0.16723664
-0.04075009 0.22380197 0.10576177 0.02595535 0.11621518 -0.031163383 -0.17623442 -0.11081735
0.031023216 -0.056411806 -0.53201866 -0.15022618 0.1555512 0.13121288 -0.33591792 0.015496177
0.13782081 0.018769868 -0.11996778 0.2426082 -0.24931088 0.022983102 0.08228323 0.28050992
0.35508853 0.17980523 0.09736689 0.2855864 0.33059263 0.24991131 0.16583987 0.07162474
0.66521096 0.5099856 0.09971279 0.21147943 0.21303037 0.19745985 0.44983518 0.34371206
0.4887691 0.091866724 -0.1759681 -0.48438182 -0.24757235 0.35236445 0.96204686 -0.1572618
0.42707866 0.20430012 -0.11114762 0.38806996 0.6436176 0.18378033 -0.07710475 -0.37327826
-0.62427956 0.32001913 -0.15945299 0.07549191 0.018847208 -0.113389134 -0.07376831 0.0024908448
-0.043976832 0.062828 -0.046200924 0.29165217 -0.012738775 -0.037588865 -0.67936397 0.27677497
-0.26414546 -0.110802755 0.070884004 0.3350311 0.22056133 -0.072758645 -0.031782735 -0.12497285
0.23934889 -0.063075595 0.22165175 0.04183949 -0.51313335 0.17855324 -0.1312292 0.38764393
-3.5236415e-06 -0.5811986 -0.1158192 0.14350808 0.16821477 0.37473238 0.17118949 -0.016624963
0.449407 -0.09386399 0.041800786 0.2026427 0.013505256 0.28313032 -0.69183767 -0.007841026
0.34286463 -0.14478745 0.4046388 0.33898896 -0.2509761 0.38094297 0.09333935 -0.00927465
0.07178453 0.0690575 0.056742664 0.049807176 0.43278024 -0.019978456 0.019676235 -0.35109973
-0.16574973 -0.108192265 0.061591864 -0.0018113933 0.009153516 0.04391946 -0.075748935 -0.09309912
-0.13285209 -0.12869626 0.12680426 -0.1052504 0.14124869 -0.08164249 0.058495063 -0.12186119
0.09579682 -0.1122261 -0.13493347 -0.103276946 -0.14051946 -0.04079189 0.13511495 -0.15164393
0.107350565 -0.08784201 0.078751534 -0.015552794 0.03331489 0.00012287914 0.08320616 0.022084106
0.12760904 -0.7292658 -0.120504096 0.22487487 0.2310016 0.14455688 -0.09964773 0.2755461
0.66962767 0.28305176 0.26636496 -0.06171975 -0.063330404 0.02382057 -0.8262407 0.1248622
0.008265345 0.15978505 0.24754556 0.18619333 -0.6306989 0.27059105 -0.061876837 0.049323965
0.08293643 0.011244494 0.39473936 0.073358454 0.52252656 0.1529243 -0.10621914 -0.6138794
0.014952027 -0.66515976 0.16157241 0.11926407 0.013920724 0.13890892 -0.059735596 0.25602806
0.28729713 -0.15286528 0.29026562 -0.011421338 0.14708488 0.1290699 -0.75974053 0.18622786
0.46397495 0.092468835 0.39371997 0.37334266 -0.40415934 0.019372784 0.14457627 -0.12191629
0.11306404 -0.088156216 0.067595705 0.23817037 0.4427215 0.27496698 0.16629344 -0.163437
0.2818709 -0.39301726 0.16378714 0.08759498 0.029788516 0.41586137 0.24698491 0.098560974
0.495114 0.10504001 0.19908845 0.2004094 -0.048907682 0.2278047 -0.5290158 -0.06645066
0.30299446 -0.036393043 0.28517616 0.15073551 -0.5814663 0.110730976 0.08076063 -0.0553928
0.20357619 0.16314313 0.24053958 0.084196515 0.44027278 0.23747168 -0.07967929 -0.33812967

fc2.bias f4 [16]
00000000: d058 a23d d0c5 6f3e 8875 33bd 1cd4 e03d
00000010: 6d3e 0bbe 352d f43c 156a 193d c3af febd
00000020: 8c50 fcbb b66e 7a3e 95fc 3bbe 851e 8c3e
00000030: e6db 3ebe dc12 923e b1cf da3d 184b cbbe
0.07927096 0.23415303 -0.04381326 0.10977957 -0.13598032 0.029806713 0.037454683 -0.12435868
-0.0077000316 0.24456295 -0.18358071 0.27367035 -0.18638572 0.28530014 0.10684145 -0.3970573

fc3.weight f4 [1, 16]
00000000: f078 653e 5fb3 debe ebb4 233f 0dd9 e8be
00000010: e4d5 dd3d 5886 0dbf 1f62 00bf e120 e0be
00000020: 8137 b4be 4bdd 983f 7650 78be 33c1 17bf
00000030: 0f5c 513c a0a5 423f 3f37 c8be b8fd 063f
0.22409415 -0.43496224 0.63947934 -0.45478097 0.10831812 -0.5528312 -0.5014972 -0.43775085
-0.35198596 1.1942533 -0.24249443 -0.59279174 0.012778296 0.76033974 -0.3910465 0.52730894
